ch6/data/FPGMPruner_pruned.pth (torch, 242369 bytes, 12 tensors)

conv1.weight f4 [16, 1, 5, 5]
000000 31 58 a2 bc dd b8 01 be d2 12 e4 bc 7f d0 52 bd
       -0.019817444 -0.12668176 -0.027841005 -0.05146837
000010 b2 06 0a 3d 79 8d 40 be 27 29 a2 be 7f 9f 9d be
       0.03369779 -0.18803968 -0.31672022 -0.30785748
000020 c9 94 33 be 66 5d 44 3e 42 4e 23 3e f8 7a 1e 3e
       -0.17537226 0.19176254 0.15947822 0.15476596
000030 d2 04 a6 bb b7 3f fd 3d 29 ae 6a be 5a 7c d4 3e
       -0.0050664926 0.12365668 -0.22918 0.41501123
000040 b1 3f fa 3d bf 05 8b bd 44 d9 18 3e 8d 6e 9a be
       0.122191794 -0.06788205 0.1492663 -0.3016247
000050 8f 0e 9c 3e 7e 11 af 3e 12 7a c9 3c 11 14 09 3e
       0.30479857 0.34193033 0.02459434 0.13386561
000060 c7 04 7f be 07 70 0e 3d 89 63 86 bd 01 e5 f3 bb
       -0.24904166 0.034774806 -0.065619536 -0.007443071
000070 94 ef 02 bf 43 88 cb be ac 58 00 bd 33 02 3f bc
       -0.5114682 -0.39752397 -0.031334564 -0.011658239
000080 ba 13 79 3e 34 92 5a be b3 a9 b4 3d 9b 24 fb 3c
       0.24323931 -0.21344835 0.0882143 0.030657103
000090 4c f7 c3 3a 5b 26 d7 3e bb 7f 07 3e bd 18 9d 3e
       0.001495102 0.4202145 0.13232319 0.30682936
0000a0 89 96 a2 3d d2 99 c4 3d 41 5b ea 3e 8d 61 02 3e
       0.079388686 0.095996514 0.45772746 0.12732525
0000b0 56 ec 1d 3e 04 d5 56 be bc 65 06 3b 01 80 ce 3c
       0.15422186 -0.20979697 0.0020507416 0.025207521
0000c0 87 bf e7 3d f6 2b ec bd fb a7 48 3e a0 31 b1 3e
       0.11315828 -0.115318224 0.1959533 0.34608173
0000d0 fa cd b8 3e 89 37 cd 3d 61 b2 9a 3d dd 9e 9e 3d
       0.36094648 0.10020358 0.07553554 0.077451445
0000e0 62 23 a9 3e 75 59 66 3c 94 b4 80 be 79 b5 0e 3e
       0.33034807 0.014059414 -0.2513777 0.13936414
0000f0 74 eb 6c 3e 04 1c 89 3e 22 c0 d6 be bf 3b 13 bf
       0.23136693 0.26779187 -0.4194346 -0.5751304
000100 5e 99 50 be b4 0b 25 be 6a f5 9b bd 04 ea 0d be
       -0.20371005 -0.16117746 -0.076151684 -0.13858801
000110 b1 29 93 be be 5b b2 3c 88 34 f7 3d 12 9e 20 be
       -0.28742746 0.021772262 0.120705664 -0.15685299
000120 30 d3 6c 3e 2c 8d 07 3c b6 53 36 3e 00 00 00 80
       0.23127437 0.008273404 0.1780537 -0.0
000130 00 00 00 80 00 00 00 80 00 00 00 00 00 00 00 00
       -0.0 -0.0 0.0 0.0
000140 00 00 00 80 00 00 00 80 00 00 00 80 00 00 00 00
       -0.0 -0.0 -0.0 0.0
000150 00 00 00 00 00 00 00 80 00 00 00 80 00 00 00 80
       0.0 -0.0 -0.0 -0.0
000160 00 00 00 80 00 00 00 80 00 00 00 80 00 00 00 80
       -0.0 -0.0 -0.0 -0.0
000170 00 00 00 80 00 00 00 80 00 00 00 80 00 00 00 80
       -0.0 -0.0 -0.0 -0.0
000180 00 00 00 80 00 00 00 80 00 00 00 80 00 00 00 80
       -0.0 -0.0 -0.0 -0.0
000190 00 00 00 80 00 00 00 80 00 00 00 80 00 00 00 00
       -0.0 -0.0 -0.0 0.0
0001a0 00 00 00 00 00 00 00 80 00 00 00 80 00 00 00 80
       0.0 -0.0 -0.0 -0.0
0001b0 00 00 00 00 00 00 00 00 00 00 00 80 00 00 00 80
       0.0 0.0 -0.0 -0.0
0001c0 00 00 00 80 00 00 00 00 00 00 00 00 00 00 00 80
       -0.0 0.0 0.0 -0.0
0001d0 00 00 00 80 00 00 00 80 00 00 00 00 00 00 00 00
       -0.0 -0.0 0.0 0.0
0001e0 00 00 00 80 00 00 00 80 00 00 00 80 00 00 00 80
       -0.0 -0.0 -0.0 -0.0
0001f0 00 00 00 00 4d 75 5d be 11 1d d6 be 7f aa 03 be
       0.0 -0.21626778 -0.4181905 -0.12858008
000200 43 91 03 3e 69 7b a5 3e 7b 80 88 be 8e 8f d8 be
       0.12848382 0.32320717 -0.26660523 -0.42297024
000210 42 07 a2 be 50 bb 1c be 37 db 1e bb 8c 27 07 bd
       -0.31646162 -0.15305829 -0.002423955 -0.0329967
000220 f6 f9 fa 3d 60 56 a6 3d 6d ab af 3d 2f d6 f6 3d
       0.122547075 0.081219435 0.08577619 0.12052571
000230 84 dc 8b 3e 2e 77 9e 3e cd c9 86 bc 71 b4 50 3e
       0.27316678 0.30950302 -0.016453648 0.20381333
000240 d6 62 bf 3c 4b be 00 3c 4a e9 88 3e 8d 2b 26 bd
       0.023362558 0.007857869 0.26740485 -0.040568877
000250 f8 db a0 ba e4 d7 79 bd 30 5e 84 3e fa 46 82 3e
       -0.0012272587 -0.060996905 0.2585311 0.25444776
000260 1b 25 b7 3e 4e 18 28 be 68 a6 68 be db fc 91 3e
       0.35770497 -0.16415522 -0.22719729 0.28513226
000270 43 6d 90 3e f9 d1 b3 3e 01 41 03 bd 72 7d 5c be
       0.2820836 0.35121134 -0.032044414 -0.21532229
000280 44 9a d1 bd ff 4b 4e be 63 47 fb bd a6 eb 94 3e
       -0.10234502 -0.20146178 -0.12269475 0.29086035
000290 9d c5 52 3c 4b cc 55 be e1 b7 c7 be 52 d1 91 be
       0.0128644975 -0.20878713 -0.39007476 -0.2848001
0002a0 cc 83 b8 3d df f2 9f bd bd 9d a8 bd e3 1c 49 be
       0.09009513 -0.07809996 -0.08233211 -0.19639926
0002b0 1c 89 e4 bc 3c 02 ea bd 00 b6 dd 3d 00 00 00 00
       -0.02789741 -0.114262074 0.10825729 0.0
0002c0 00 00 00 00 00 00 00 00 00 00 00 80 00 00 00 80
       0.0 0.0 -0.0 -0.0
0002d0 00 00 00 00 00 00 00 00 00 00 00 00 00 00 00 80
       0.0 0.0 0.0 -0.0
0002e0 00 00 00 80 00 00 00 00 00 00 00 00 00 00 00 00
       -0.0 0.0 0.0 0.0
0002f0 00 00 00 80 00 00 00 80 00 00 00 00 00 00 00 00
       -0.0 -0.0 0.0 0.0
000300 00 00 00 00 00 00 00 80 00 00 00 80 00 00 00 00
       0.0 -0.0 -0.0 0.0
000310 00 00 00 00 00 00 00 00 00 00 00 00 00 00 00 80
       0.0 0.0 0.0 -0.0
000320 76 94 10 bc c5 8e bb 3e 3a da 5d 3e cf c8 40 3e
       -0.008824458 0.36632362 0.21665278 0.18826602
000330 c6 37 cd 3d 53 59 1f be 99 f3 03 be d3 da a4 3d
       0.100204036 -0.15561418 -0.12885894 0.0804955
000340 44 a0 1b 3e 79 7a 02 be 45 bd 2e be 95 b9 e8 be
       0.15197855 -0.12742032 -0.17064388 -0.45454088
000350 2f 8c 53 be 2b b5 ea be 06 3c e1 be 9d 41 99 be
       -0.20658945 -0.45841345 -0.43991107 -0.2993287
000360 1d 64 ad be d3 e3 62 bf 25 68 2d bf c3 c2 37 bd
       -0.33865443 -0.8862888 -0.67737037 -0.044863474
000370 f4 ed 00 3e b2 55 95 be 29 4d bb be a9 f4 35 3e
       0.12590772 -0.29166943 -0.36582306 0.17769112
000380 f9 f9 1a 3e 00 00 00 80 00 00 00 80 00 00 00 80
       0.1513442 -0.0 -0.0 -0.0
000390 00 00 00 80 00 00 00 80 00 00 00 00 00 00 00 00
       -0.0 -0.0 0.0 0.0
0003a0 00 00 00 80 00 00 00 80 00 00 00 80 00 00 00 80
       -0.0 -0.0 -0.0 -0.0
0003b0 00 00 00 80 00 00 00 80 00 00 00 80 00 00 00 80
       -0.0 -0.0 -0.0 -0.0
0003c0 00 00 00 80 00 00 00 80 00 00 00 80 00 00 00 00
       -0.0 -0.0 -0.0 0.0
0003d0 00 00 00 00 00 00 00 80 00 00 00 80 00 00 00 00
       0.0 -0.0 -0.0 0.0
0003e0 00 00 00 00 00 00 00 00 00 00 00 00 00 00 00 00
       0.0 0.0 0.0 0.0
0003f0 00 00 00 80 00 00 00 80 00 00 00 80 00 00 00 80
       -0.0 -0.0 -0.0 -0.0

conv1.bias f4 [16]
000000 19 07 88 3e db 8a ac 3d af 42 3a 3d d8 bd 57 bb
       0.26567915 0.08424922 0.04547375 -0.0032919552
000010 d9 24 c2 3c 88 59 6e 3e 14 40 97 3e 8b 5e e2 ba
       0.023699211 0.23276341 0.29541075 -0.0017270608
000020 77 f6 cf 3e 00 5a 0e 3d d7 6f 99 3c 7a e3 32 be
       0.40617725 0.0347538 0.018730087 -0.17469588
000030 99 a0 a1 3d 3b 79 a3 bc 7e dc 87 bb c8 21 4f bc
       0.0789196 -0.019955268 -0.0041461578 -0.012642331

conv2.weight f4 [32, 16, 5, 5]
000000 d4 25 db ba 4e 09 1a 3d 53 ca 70 bb 8a 9c 38 be
       -0.0016719648 0.03760653 -0.0036741688 -0.18028465
000010 8b de 9d be e6 c1 1e bd 4d f8 ba ba 69 80 80 3d
       -0.3083385 -0.038759135 -0.0014264673 0.06274492
000020 99 cc b6 bd 03 19 3a bd 25 1d d3 bd ea d2 cb 3c
       -0.08925743 -0.04543401 -0.10308293 0.024880845
000030 54 dd 20 3e 1a 1b 73 3e db e8 3e 3e 4b e2 e9 bd
       0.1570943 0.23740807 0.18643515 -0.11420115
000040 95 0d 36 bd 9a 2a d2 3d 41 f4 2c 3e 83 79 9d 3e
       -0.044446547 0.10262032 0.1689005 0.3075677
000050 4f f8 62 bd e2 b9 96 bd 58 2d 95 3d 9d eb 42 3e
       -0.055412587 -0.07359673 0.07284039 0.19035192
000060 2d 0e 82 3e 6d 2f dd bd ad fe 7e be d6 3a f1 be
       0.2540144 -0.108000614 -0.24901839 -0.471152
000070 e0 1a bc be 87 a0 ae bd 8f a9 77 be 0f 5b 55 be
       -0.36739254 -0.08526712 -0.24185775 -0.20835517
000080 80 19 e5 be b7 e3 e2 be 6c cd 6d bd 6b 59 c2 bd
       -0.44746017 -0.44314358 -0.058057234 -0.094897114
000090 f7 93 cf 3d 2c b4 5b be f3 00 30 be 37 c7 ae bc
       0.10135644 -0.21455449 -0.17187862 -0.021335227
0000a0 71 a3 a8 3d 66 b5 8e 3e fd 49 87 3e 60 67 9a 3e
       0.08234299 0.2787277 0.26423636 0.30156994
0000b0 05 5f 5a 3e 80 23 31 3e 9b da b3 3e 9e 97 c3 3e
       0.2132531 0.17298698 0.3512772 0.38201612
0000c0 1e b0 94 3e 02 5a 72 3e 13 d2 c5 bd 00 74 53 3d
       0.29040617 0.23667148 -0.09659209 0.051624298
0000d0 e8 42 ec 3c 8f 1d 84 3d 23 40 3f 3e 37 e3 2a bd
       0.028840497 0.0645095 0.1867681 -0.041720595
0000e0 0d 9a 05 3e 55 17 a7 3d 91 ce 34 bd d0 8c ab bd
       0.13047047 0.08158747 -0.04414231 -0.08376467
0000f0 a4 07 45 bd 9e 83 ce 3d 9d 88 2e 3e 12 04 b7 bd
       -0.04810299 0.10083698 0.17044301 -0.08936323
000100 8b 24 19 be 8d 73 8c bd 8b 6d f6 3c 22 8d 81 bd
       -0.14955346 -0.06857977 0.030081531 -0.06325747
000110 f5 28 42 be 38 a5 5a be aa 0b 22 be 23 ab e4 bc
       -0.18960936 -0.21352088 -0.15824762 -0.027913636
000120 7f 43 81 be 31 b2 f3 bd 4d cc 08 3d 01 ee 2f 3c
       -0.25246808 -0.11899222 0.03339796 0.010737897
000130 49 c5 f9 bc 14 a1 87 3d e6 1f 3f 3e 7d 80 01 3e
       -0.03048958 0.0662252 0.18664512 0.1264667
000140 38 6a e1 bc 94 9a 88 bd 55 b2 4e bb 3e d2 60 3d
       -0.02751647 -0.066701084 -0.00315394 0.054888003
000150 c0 fe 3d 3d db 65 29 bc ea 85 b0 bd 3c 8a 23 bd
       0.046385527 -0.010339226 -0.08619292 -0.039926752
000160 b8 3e b8 bc e4 b7 8a 3c ba 4f fe bc 24 0f f1 bd
       -0.022490844 0.016933389 -0.031043876 -0.11770466
000170 a8 58 df bd 96 e0 d4 bd 6c 35 eb bd ce 71 35 3c
       -0.10905582 -0.10394399 -0.11484799 0.011074496
000180 7c dd f5 3c 28 39 57 3d db 8e 7e bd c6 71 d8 bd
       0.030012839 0.052544743 -0.062147956 -0.105685756
000190 dd 19 a1 ba 38 a7 bb 3d 14 02 92 3d 50 1b a1 3d
       -0.0012291033 0.09162754 0.071293026 0.078665376
0001a0 25 10 97 ba 4e d7 a7 3d 44 d6 d3 3d 65 50 2f 3d
       -0.0011525197 0.08195363 0.10343602 0.04280128
0001b0 d5 fb 5f 3d 15 5b d0 bc f2 d0 a2 bc db 28 cb bc
       0.054683525 -0.025434056 -0.019875024 -0.024799755
0001c0 77 b9 cf bc 86 ce dd bd 70 61 9e bc 21 1c f6 bc
       -0.025356991 -0.10830407 -0.019333571 -0.03004271
0001d0 4c ee f6 bd 6e 7f 0b be 73 91 7a bd 76 e0 e9 3c
       -0.1205717 -0.1362283 -0.061173867 0.028549414
0001e0 64 ce d0 3c e3 cb dd bc e9 cc 58 bd 16 e2 f1 3d
       0.02548904 -0.02707476 -0.052929793 0.118107006
0001f0 f0 61 9e 3d 77 08 1d 3d 1e 28 c2 3d df 7d d1 3d
       0.07733524 0.03833815 0.09480308 0.10229086
000200 fc 56 bb bd 80 a5 1b be 06 36 83 bd d7 09 0f be
       -0.0914745 -0.15199852 -0.064067885 -0.13968597
000210 30 63 13 bd 2f a8 14 be 8b cd 7f bd 12 ae 2e be
       -0.035983264 -0.14517282 -0.06245188 -0.1705859
000220 9d 38 5c be 8e 8e b7 bd 56 ed 3e 3d c8 2c 4c 3e
       -0.21505971 -0.08962737 0.04661306 0.19938958
000230 38 e8 55 bd 4d 30 0a be ae 46 18 bd 24 0a 60 3e
       -0.052223414 -0.13494988 -0.03717678 0.21878868
000240 86 6d 99 3e 6c a9 35 3d 7e 9e 01 3d 88 b4 51 3d
       0.29966372 0.044351026 0.03164529 0.05119756
000250 50 12 43 3e 7f 3a 33 3e ff ab 0a bd 84 a7 05 be
       0.19049954 0.17502783 -0.033855435 -0.13052183
000260 16 09 3d bd b8 b5 15 3e 6a 51 46 3e 14 99 a6 bc
       -0.046151243 0.14620101 0.19366995 -0.020336665
000270 18 e4 04 3d d4 54 03 bc f4 8c eb 3d d7 2e 50 3e
       0.03244409 -0.00801583 0.11501494 0.20330368
000280 ef 88 8c 3d fb f1 67 3d 87 45 02 bd 2b 42 76 bd
       0.068620555 0.056627255 -0.031804588 -0.060121696
000290 ea 2a 8f 3b e7 f7 65 3d 2e b9 ed 3c 43 55 59 be
       0.0043691294 0.05614462 0.029018965 -0.21223931
0002a0 89 b9 da be fd 29 da be 6d a6 28 3d 1c 6e 29 3e
       -0.42719677 -0.4261016 0.04117434 0.1654591
0002b0 4e 4d d8 3c b6 c1 67 be d5 78 9d be 79 70 81 3d
       0.02640405 -0.22632489 -0.3075625 0.063202806
0002c0 0c 6a 16 bc 14 f0 48 bd f4 af 7b 3c ef cf 5f bc
       -0.009180557 -0.04905708 0.015361775 -0.013660415
0002d0 9b 43 0c 3c cd 6d 5c 3d 8e 96 8c bd 73 b8 36 bd
       0.00856104 0.05381565 -0.068646535 -0.0446095
0002e0 93 1e 82 bd 9d 84 eb 3c ef 05 f6 3c 0c 6a 01 bd
       -0.06353488 0.028749758 0.030032126 -0.031595275
0002f0 0a 84 d8 3b 1d 4d 63 3c 85 a4 c4 3d 83 63 0e 3d
       0.006607537 0.013873366 0.09601692 0.03476287
000300 80 4b 99 3c 9b 39 81 3d 31 d2 88 3d 4b d7 16 bc
       0.018712759 0.063098155 0.06680716 -0.009206603
000310 39 f9 2a 3d 9e 59 25 3e 63 32 b5 3d 3c bc 21 3e
       0.041741583 0.16147467 0.08847501 0.15794462
000320 37 b0 51 bb fd e6 be bd 77 24 0c bd ec 52 34 3e
       -0.0031995901 -0.09321401 -0.034214463 0.17609757
000330 a4 be 88 3e 54 78 c0 3d 9e 49 7a 3c 58 dd 56 3e
       0.26707947 0.09397951 0.015276341 0.20982873
000340 84 a2 5e 3e 3a 99 ef 3d bc 56 53 3e 50 87 4f 3e
       0.21741682 0.116991475 0.20638555 0.20266461
000350 d7 e9 53 3e 7d 57 33 3d 39 1a 10 3d 58 cc 22 bc
       0.20694672 0.043784607 0.035181258 -0.009936415
000360 ba 94 5e bd 38 4b 5c be d0 0c 43 be e2 b6 93 be
       -0.054341055 -0.21513069 -0.19047856 -0.28850466
000370 eb 89 71 be bc fd bb be 82 dd 88 be ab 11 ae be
       -0.23587768 -0.3671702 -0.26731497 -0.33997855
000380 61 bd 09 be bb a8 45 3d 01 9b 83 3c 2b d0 98 bd
       -0.13451149 0.048256617 0.016065123 -0.0746158
000390 93 21 81 bd c6 53 f8 bd 17 6b 26 be 19 2e ab bd
       -0.06305232 -0.121253535 -0.16251789 -0.08358402
0003a0 f3 b9 61 be 27 7b 72 be 1a 3f 80 be 4f 9f b2 bd
       -0.2204359 -0.23679791 -0.25048143 -0.08721792
0003b0 79 16 ee bd 23 c4 ad bd 8d 65 97 bd 92 d1 78 bd
       -0.1162538 -0.08484676 -0.07392416 -0.060746737
0003c0 b8 40 0d 3d c8 ab af 3c cd 0e 03 3e 16 42 f8 3d
       0.03448555 0.021444216 0.12798615 0.1212198
0003d0 53 97 1d 3e 57 55 63 3a 3b 17 27 3e 9f 21 62 3e
       0.15389757 0.00086720794 0.16317455 0.22083138
0003e0 7d f2 45 3e f7 6e 7e 3e 70 ca 90 3d 93 79 48 3d
       0.19330783 0.24847017 0.07069862 0.048944067
0003f0 a4 b6 e3 3d ba f9 ad 3d 8e 4a 1d 3e b0 35 02 3d
       0.1111882 0.08494897 0.15360472 0.03178948

conv2.bias f4 [32]
000000 37 20 94 3d 98 f8 0c 3e ed 94 88 ba e8 99 03 3e
       0.07232707 0.13766706 -0.001042036 0.1285168
000010 d4 b0 69 ba fb a8 25 bb b0 78 be 3c 9a b0 c5 ba
       -0.0008914594 -0.0025277722 0.023250908 -0.0015082539
000020 78 91 52 3c 90 01 55 b8 3a fd b0 3d 61 72 06 3e
       0.012852065 -5.0784613e-05 0.08642049 0.1312957
000030 6a c3 89 3c 3e 7e c8 bb 8f 67 03 bc fc f3 48 3d
       0.016816813 -0.006118565 -0.008020296 0.049060807
000040 41 45 89 3d c3 77 e7 ba 08 18 26 3b ff 4b e3 3d
       0.06702662 -0.0017659593 0.0025343914 0.110984795
000050 ba fe c1 3c de bc 3f bb 55 33 0b 3d 67 0a 3a ba
       0.023681033 -0.002925686 0.0339845 -0.0007096887
000060 36 56 53 3d 31 d0 04 3d 46 c7 5f bb 84 49 a3 ba
       0.05159589 0.03242511 -0.0034145876 -0.0012457822
000070 13 9f 94 bc 5f 82 e4 3c 0b ce 76 3c b7 db 20 bd
       -0.018142259 0.027894197 0.015063773 -0.039272036

conv3.weight f4 [32, 32, 5, 5]
000000 13 54 12 bc e5 91 82 bb bb 8b 21 3d 00 7f 21 bd
       -0.008931178 -0.003984677 0.039439898 -0.039427757
000010 85 3d a1 3c 70 13 6b bc e4 66 b2 3d 21 89 3b 3d
       0.019682655 -0.014347896 0.08711031 0.045785073
000020 56 1d ae 3b 08 23 5a 3d da 04 82 3d e3 ce 8c 3d
       0.0053135557 0.053256065 0.063485816 0.06875398
000030 1d b1 3a 3d 1c 38 09 bc 55 75 19 be e6 21 a9 bb
       0.045579065 -0.008375194 -0.14986165 -0.0051615117
000040 50 b9 37 bd 2f db e3 bc 2d 7b 85 be d6 d3 8f be
       -0.044854462 -0.027814476 -0.26070538 -0.28091305
000050 67 d4 5b ba bb 1a 82 bd a2 42 a7 be 03 b0 9a be
       -0.00083858374 -0.06352755 -0.32668024 -0.3021241
000060 d0 94 cf bd d9 4d a3 bd cd 3f 0f bd 13 8a 0c be
       -0.101358056 -0.07973833 -0.034972955 -0.13724546
000070 bb 8e 9f bd 9e f0 8e 3b 6b 87 7a bb fa 1a b5 bb
       -0.077908956 0.00436218 -0.0038227688 -0.0055268975
000080 0e 29 62 bd 5b 87 54 bc ce 77 a1 bd 09 ba 1f 3d
       -0.055214934 -0.012971724 -0.07884179 0.038995776
000090 a9 59 8d bb ea f1 e2 b9 9f 0c a0 3d 7a 8a 99 3d
       -0.004313667 -0.0004328632 0.07814907 0.074971154
0000a0 50 f9 f2 bb 98 6f 0c bc a1 a9 93 3d dc 08 c5 3c
       -0.0074149743 -0.008571528 0.072100885 0.024052076
0000b0 92 b3 de 3c e7 8e b0 bd fe ac 64 bd f8 09 7a bc
       0.027185235 -0.086210065 -0.05582904 -0.015261166
0000c0 04 16 b4 bd 30 95 2d be 9c cc ba bd bb d8 56 bd
       -0.08793262 -0.16951442 -0.091210574 -0.052452784
0000d0 ac 4b 16 bc 61 7c 0e bc f9 78 92 bc b9 38 11 bd
       -0.009173315 -0.008696646 -0.01787995 -0.035454486
0000e0 fb 2a 17 3b 2b 23 c1 b9 fc 5f 9a 3d df 1e 55 3d
       0.002306639 -0.0003683803 0.07537839 0.052031394
0000f0 a0 44 ea 3c d1 d5 29 3d bf f2 2d 3d f9 1a 6b 3d
       0.028597176 0.041463677 0.04246783 0.05739877
000100 6e f8 ae 3d a5 b6 af 3b b5 6e 48 3c 00 7a ce 3d
       0.08543478 0.005362349 0.012233426 0.100818634
000110 22 03 9a 3d 6d dd 33 3d 4e a6 81 bd 11 35 9f 3c
       0.07520129 0.04391234 -0.06330548 0.019434484
000120 81 1e 1b 3d 57 02 2d 3d bb 5d 86 bc 65 61 49 be
       0.037870888 0.04223856 -0.016402116 -0.1966606
000130 74 af 46 bd cc bd ba bc 62 24 0c bd 01 f0 2f be
       -0.04850717 -0.02279558 -0.034214385 -0.17181398
000140 b9 9f c3 bd 4f 2b 8f bd b0 09 15 be a3 77 2d bd
       -0.09551949 -0.06990682 -0.14554477 -0.042350423
000150 63 69 07 3c 4e a4 78 bc 01 6f 85 3d 0f fa 1a 3a
       0.008264872 -0.015175892 0.06515313 0.00059118954
000160 fe 3a 02 3c ae 17 91 3d c1 a1 cc 3c 47 f9 16 3d
       0.007948635 0.07084595 0.024979474 0.036858823
000170 01 36 b3 3c 1f 12 9b 3d ad 74 80 3d cd 0c c7 bd
       0.021876337 0.07571816 0.06272254 -0.097192384
000180 90 5a 2e be 85 c3 34 bd fb d9 d9 3d 27 66 17 3e
       -0.17026734 -0.044131774 0.106372796 0.14785062
000190 eb b6 05 bd 30 a5 76 bd c6 44 12 be 5c 89 23 bd
       -0.032645147 -0.06021613 -0.14284047 -0.039925918
0001a0 03 0f 05 bd 08 54 94 3c be 59 23 3d 10 fc 49 3b
       -0.03248502 0.018106475 0.039880507 0.0030820407
0001b0 37 61 86 bb 25 23 70 bb c8 91 05 3d 2d 26 db 3b
       -0.0041009444 -0.0036642042 0.03260973 0.0066879005
0001c0 d2 b0 8f 3d 50 9e 3e 3d 9e 7a d4 3d 70 9b 3c 3d
       0.07016148 0.046537697 0.1037495 0.046046674
0001d0 00 04 bd 3c ae 89 af 3c 3a d2 b4 3d 1b 78 f0 3c
       0.023073196 0.021427955 0.0882916 0.029354146
0001e0 e6 5e b3 bc d0 bd 1d bd c0 f6 76 3d 17 28 43 bc
       -0.021895837 -0.038511097 0.060293913 -0.011911414
0001f0 fe 93 d7 3c 11 81 ec bd ff 90 54 bc ff 62 73 bd
       0.026315685 -0.11548055 -0.012974023 -0.059420582
000200 69 f5 8c bd d3 b8 9a bd 1b a6 7c bd 61 b5 a8 bc
       -0.06882746 -0.07554784 -0.061681848 -0.0205943
000210 6e ab 26 3a 67 4d 54 bc 07 64 03 bc 83 a8 26 3b
       0.00063579425 -0.012957907 -0.008019454 0.002543003
000220 41 ef 40 3d 9e 4c 5e 3c 88 cd 71 39 80 af 80 3c
       0.04710317 0.013568072 0.00023060117 0.015708685
000230 5b 5c 3f 3d db 90 0d 3c 84 11 a3 bb 3e 79 90 bc
       0.046718936 0.008640493 -0.0049764533 -0.017635938
000240 c6 fe a2 3b c3 8e 2d bd 9d 33 59 bd 57 86 54 bd
       0.004974219 -0.042372476 -0.053027738 -0.05188593
000250 d1 ff 77 3d cb 6d fb 3d ae d5 1b be c6 11 ff bd
       0.0605467 0.12276801 -0.15218231 -0.12454562
000260 84 12 2b be b6 3d 4e be 99 26 f1 bd 4e 86 10 bd
       -0.16706282 -0.20140728 -0.1177494 -0.035284333
000270 a9 b2 94 3c 7b b4 7d 3b 3d 13 c8 bc 0d 91 04 bc
       0.018151598 0.003871231 -0.024423236 -0.008091223
000280 94 f3 51 3d a1 58 ca 3d 17 40 9e 3d af a7 9e 3d
       0.051257685 0.09880186 0.07727068 0.07746827
000290 38 e6 41 3d 72 0e 0f 3e d4 3c 84 3d a2 c4 3b 3d
       0.047338694 0.13970354 0.064569145 0.04584182
0002a0 b4 20 51 3d c8 a8 16 3d 14 57 ac 3a 8e d1 10 bd
       0.05105658 0.036782056 0.001314851 -0.035356097
0002b0 c7 cf e0 bc df 92 42 3c 6f 67 81 3d ab 16 3e be
       -0.027442826 0.011875837 0.063185565 -0.18563335
0002c0 ac 68 f9 39 38 78 06 3d 87 93 8c 3c 02 1d 5a be
       0.00047570968 0.032829493 0.01716019 -0.21300128
0002d0 84 7b b0 bd 4f 92 b1 3a 7f b4 29 bd 23 93 2b bc
       -0.08617309 0.0013547632 -0.0414319 -0.010472092
0002e0 b9 49 70 bd 8b 7b 0b bd 19 1c b9 3c c5 ca b9 3c
       -0.058664057 -0.034053367 0.022596406 0.022679696
0002f0 b9 f1 31 3d ed 9e 15 3d 49 00 49 3d 07 53 33 3d
       0.043443415 0.036528517 0.049072538 0.043780353
000300 45 cd d0 ba da 78 ab 3c 0b 23 52 3d 7b 59 2f 3d
       -0.0015930316 0.02093165 0.05130295 0.042809945
000310 bb 18 46 bd 74 89 9e b8 69 07 72 3d 82 76 f7 3d
       -0.04836343 -7.55963e-05 0.059089098 0.120831504
000320 1c 2d a5 bd 3e 62 72 3d a6 96 23 3d f4 5f a6 3c
       -0.080652446 0.059175722 0.03993859 0.020309426
000330 9e 85 9f be db ad 29 be 52 e9 0d bd b1 c0 01 be
       -0.3115663 -0.16570227 -0.03464634 -0.12671162
000340 1e e8 00 be 6e a6 ab be 1b 36 0a bd 38 27 32 bc
       -0.12588546 -0.33525413 -0.033743005 -0.010873608
000350 a8 75 c2 bc c2 44 a9 bc 38 9e 58 bc b0 6d e1 3d
       -0.023737743 -0.02066267 -0.013221316 0.11007249
000360 ad 82 ff 3d 7c c5 86 3d 5b 5d dc bc 91 61 ff 3c
       0.12476096 0.06580636 -0.026899984 0.031174453
000370 8f 39 ca 3d 15 f3 08 bc d5 e6 12 be e5 e8 6c bd
       0.0987426 -0.0083587365 -0.14345868 -0.057839293
000380 80 d4 83 39 07 7d c1 bb 53 8a 81 bc fb d8 8f bc
       0.00025144592 -0.005904797 -0.015813028 -0.017559519
000390 47 59 6e bd ab 89 28 3d de 79 c8 ba bc 09 cd ba
       -0.05819061 0.041146915 -0.0015295108 -0.001564316
0003a0 36 0d bc 3a 77 30 ca 3c bf 76 81 3d 4e e0 d1 3d
       0.0014347199 0.024681313 0.06321477 0.10247861
0003b0 11 95 2a 3d 81 1a 85 3d 08 30 48 3c 46 3d ce 3d
       0.041646067 0.06499196 0.012218483 0.10070281
0003c0 a1 ba 27 3d 3f 20 dc 3b af 82 2e bd e5 73 04 bd
       0.040949468 0.006717711 -0.0426051 -0.03233709
0003d0 65 22 1f bd 27 90 2c be 95 80 17 be 92 8b 97 bd
       -0.03885116 -0.16851865 -0.14795144 -0.07399668
0003e0 77 c3 4c bd fb 92 02 bd ba 49 d6 bd 9f 91 e3 bd
       -0.049991097 -0.031878453 -0.10463281 -0.111117594
0003f0 9a 67 25 be bf 89 8c be 13 05 96 be 8e b2 62 3d
       -0.16152802 -0.27448842 -0.29300746 0.055346064

conv3.bias f4 [32]
000000 9b cf ab 3b c6 91 26 bd 7e d7 0c 3d df e0 ad bc
       0.0052432544 -0.040666364 0.034385197 -0.021225391
000010 cb c3 b4 bc 65 21 b5 b8 d4 2c 30 bd 30 02 e4 bc
       -0.022066018 -8.636973e-05 -0.0430115 -0.027833074
000020 27 c7 ac bc a1 84 99 3d 6f 0b b6 bb dd fb fe ba
       -0.021091057 0.07496 -0.005555562 -0.0019453723
000030 3c ee b8 3c 7c 11 53 bb 11 d5 45 bb eb ea fa 3b
       0.022574537 -0.0032206466 -0.0030186812 0.007657399
000040 fc 80 ac bc 2a b2 51 3d 68 37 c9 bb 0a c2 4b bb
       -0.021057598 0.0511953 -0.006140638 -0.0031090998
000050 91 ef 94 3c 82 30 97 3d 10 98 d0 3d 41 fd 58 bd
       0.01818064 0.07382299 0.101852536 -0.052975897
000060 82 de 0f 3d e5 da 09 bc 07 2d a4 bb 88 be 94 bd
       0.03512431 -0.008414005 -0.0050102505 -0.072629035
000070 88 b2 ce 3a 12 d1 d6 3b c8 3a 0b bb 31 6c 3b bc
       0.0015769759 0.006555685 -0.0021244753 -0.011439369

fc1.weight f4 [64, 288]
000000 32 7a 58 bc 10 3c 22 3e db 5e 02 bd fd 5e e7 bd
       -0.013212727 0.15843225 -0.031828742 -0.112974145
000010 d0 83 6c 3c 7c 86 ab 3d 73 9f 62 bc 4b 2d 69 3d
       0.014435723 0.0837526 -0.013831961 0.05692796
000020 43 63 3f bd 94 82 6d 3d 11 a1 a7 bd 17 b1 8e bd
       -0.046725523 0.057985857 -0.08185018 -0.06967371
000030 1d 85 c9 bc a4 31 09 3e 1d c4 a8 bc cd 71 31 be
       -0.024599606 0.13397843 -0.020601327 -0.17328568
000040 26 cd 21 bd cb bf 3a be 91 7c 0f 3e 4d b3 54 3d
       -0.039502285 -0.18237226 0.14012362 0.051928807
000050 f4 1b e1 3d 33 89 ff 3b 50 91 d4 bc c6 da 1f 3e
       0.1099166 0.007798338 -0.025948197 0.15610799
000060 02 c7 47 bd ef 6c 84 bd 10 0d 4f 3d fe f7 b7 3d
       -0.048773773 -0.0646609 0.050549567 0.08982848
000070 70 70 6f 3d b1 ed 1d 3d 0a 50 1b 3d a2 af 4e bd
       0.058456838 0.03855676 0.037918128 -0.050460465
000080 03 11 04 bd 52 d9 33 bc c2 a0 bb 3d 13 70 89 bd
       -0.032242786 -0.010977106 0.091615215 -0.067108296
000090 53 43 a1 3c da dd b6 bc a8 10 9a 3c d7 41 93 3d
       0.019685423 -0.022322584 0.01880677 0.07190292
0000a0 53 81 2c bd 09 11 86 3d e7 9a 25 3c 24 2f 3b 3b
       -0.04211552 0.06546218 0.010107732 0.0028562034
0000b0 f0 c3 d0 bc 47 86 26 bd d6 24 27 3d c1 5a e9 3c
       -0.025484055 -0.0406554 0.040806614 0.028485658
0000c0 18 94 76 3d b8 e1 da bc cb 80 ae 3c c1 b9 c8 3d
       0.060199827 -0.02671896 0.021301648 0.09801055
0000d0 cb 24 f9 bc 16 31 66 bd 76 16 81 bb 7d 27 c9 bd
       -0.030413052 -0.056199156 -0.003939445 -0.09821985
0000e0 0c 71 8d 3d 0d 7a 90 3d 4f a4 5c ba e8 c6 de 3c
       0.069063276 0.07054529 -0.0008416818 0.027194455
0000f0 2c 50 5a 3d fb dc 25 3d ee 1d 06 be 0d e5 d3 bd
       0.053299114 0.040493947 -0.13097355 -0.10346422
000100 79 db da bc 58 ff 10 3e b8 c1 80 3d 9b 26 c9 3d
       -0.02671598 0.14159906 0.06286949 0.098218165
000110 00 17 e2 3d 73 68 c3 3d 6c ef 3f bd 28 af 08 bd
       0.11039543 0.095414065 -0.04685919 -0.033370167
000120 9b f9 08 3e 53 ee f6 3d 07 fd e8 bc c4 02 3a 3d
       0.13376467 0.120571755 -0.028440965 0.045412794
000130 38 4d 83 bb fc 9f 7c 3d cd d7 85 bd 8a b0 3e 3d
       -0.004007008 0.06167601 -0.06535301 0.04655508
000140 d4 24 b5 bd b5 48 11 be 2f 93 29 be f3 03 14 be
       -0.08844915 -0.14187892 -0.16560052 -0.14454632
000150 44 8a c2 bd 1b 94 23 3d 0f c5 40 3d 2f 84 26 be
       -0.09499028 0.039936166 0.04706293 -0.16261362
000160 04 f1 31 bd 4a a6 e5 3d d7 d6 3c 3d 44 a5 6e bc
       -0.04344274 0.11213358 0.046103325 -0.01456577
000170 bd 73 88 bc 45 c0 b3 3d 9a e7 d0 3c c4 e0 37 bc
       -0.01665675 0.08776907 0.025501061 -0.011223022
000180 3d 94 9e bd 7b a9 81 3d e2 28 85 bd 2d eb af ba
       -0.07743118 0.06331154 -0.065019384 -0.0013421528
000190 35 e4 34 3d ae 3a 63 3b 56 c9 7f bd 0b 40 d5 3c
       0.044162948 0.0034672427 -0.06244787 0.026031515
0001a0 28 19 4a 3d ac bc 54 3d 09 28 6e 3c 30 19 07 bc
       0.049340397 0.051937744 0.014535912 -0.008245751
0001b0 cb d5 28 bd b7 59 43 bd 67 3c 7d bd 1b a8 8b 3d
       -0.041219514 -0.04769298 -0.061825182 0.06819173
0001c0 91 28 06 3e b1 eb 27 be 3b 63 02 bd 7e 35 7d 3d
       0.13101412 -0.16398503 -0.031832915 0.061818592
0001d0 55 62 0d 3e 76 08 63 3c 53 28 bb bc 4e 77 70 3d
       0.13807042 0.013856998 -0.022846377 0.058707528
0001e0 58 95 06 be 3f 9b a1 3c d9 a6 91 3b 6c e8 cf 3d
       -0.13142908 0.019727347 0.0044449386 0.10151753
0001f0 da fe c7 bd be 23 bb bd 98 bf 10 be 1d 6a 4e bc
       -0.09765406 -0.09137677 -0.14135587 -0.012598542
000200 fc e4 ee bd 1a 1c 26 bd c4 b8 24 3d 3e 16 da 3c
       -0.11664769 -0.040554143 0.04021527 0.026621934
000210 c1 e5 b9 bd 5b 78 b3 bb 22 8e 69 bd 0e 57 08 3e
       -0.09077025 -0.005476994 -0.057020314 0.13314459
000220 86 12 e9 3c 4e 1e e8 3c 80 05 7a bd f8 51 9f 3d
       0.028451215 0.028334763 -0.0610404 0.07779306
000230 5c 6e 8d 3d bf af 27 3d a5 ac 36 bc 67 61 0a bc
       0.06905815 0.04093909 -0.01114956 -0.008446074
000240 27 89 51 3e 3b b4 b7 3c 26 84 ae bc 44 b0 81 3d
       0.20462476 0.022424808 -0.021303248 0.06332448
000250 90 e6 fa 3d aa 45 0f 3d 30 bc 24 3e 9e 91 2a 3d
       0.122510076 0.034978546 0.16087413 0.041642778
000260 c4 c3 66 3c 26 78 a4 3d a7 cf ed 3c 06 55 b4 bc
       0.01408476 0.08030729 0.02902968 -0.022013199
000270 96 ae b3 3d 96 56 e2 bc 76 21 69 bd 77 87 72 bd
       0.08773534 -0.027629178 -0.056916676 -0.05921122
000280 1d fc f0 bd ff f2 f7 bd a2 1e 42 bd c8 51 08 be
       -0.11766837 -0.12106895 -0.047392495 -0.13312447
000290 b3 ed 82 bc 32 b9 d2 bd ff 84 2a 3c 71 69 8c 3d
       -0.015982484 -0.102892295 0.010407685 0.06856049
0002a0 30 bc f3 bc 97 6e 06 bc 3b ec e8 3c 2e 24 86 3c
       -0.02975282 -0.008205078 0.028432956 0.016374674
0002b0 ff c0 c0 3d c9 4b 31 3d fa c8 9e 3c a1 70 d0 bc
       0.09411811 0.043285165 0.019382942 -0.02544433
0002c0 d3 c8 c4 bc 52 da a2 3d 12 f4 af 3c 25 24 52 bd
       -0.024021542 0.079517975 0.021478686 -0.051304
0002d0 72 8b 87 3c 34 7e f3 3d e5 8b fb 3d 3c ea 13 3c
       0.016545985 0.11889306 0.12282542 0.009028014
0002e0 89 22 31 bd 01 87 59 3d 7a 45 c6 3d 3b d0 93 bc
       -0.043245826 0.053107265 0.0968122 -0.018043628
0002f0 19 4b 8c 3c a9 52 12 3d e7 6b d6 3c 55 7b 22 be
       0.017125653 0.035723362 0.026174499 -0.1586736
000300 3f 7b 9c bd 89 eb de bd 37 95 c6 bc a0 e4 d7 bd
       -0.07640695 -0.108847685 -0.024241073 -0.10541654
000310 9a 23 68 bc 71 d6 9f 3d 06 7e d7 bd d7 10 3c bb
       -0.014168644 0.07804573 -0.10522084 -0.002869656
000320 dc e6 1c be 7d 2a bd bc bf 55 8b bc 96 e7 dc 3d
       -0.15322441 -0.023091549 -0.01700866 0.10786359
000330 31 b9 29 3d 40 81 2f 3d 44 3f f0 3c 72 a0 10 bb
       0.041436378 0.04284787 0.029327042 -0.002206829
000340 2f 37 6e bc 8e ce 5b 3d e9 c1 2d 3d da b5 1f 3d
       -0.014539524 0.053663783 0.042421255 0.038991787
000350 8b 93 41 3d 43 52 a2 3d a3 5a b3 3c c5 14 68 bc
       0.04725985 0.079258464 0.021893805 -0.014165108
000360 4a 13 a2 bd 59 ba 79 3d f1 9a 2b be 97 3c 83 3e
       -0.07913835 0.06096873 -0.16758324 0.25632164
000370 b5 22 52 3d e2 44 0e be 0f 72 e1 3d c0 1a f6 3d
       0.05130263 -0.13893464 0.11008083 0.12016821
000380 fb 7f 0f 3d 6f c1 63 bc 61 47 38 bd 1e a6 cd bc
       0.03503416 -0.013901099 -0.044989947 -0.025103625
000390 92 78 2b 3d e9 79 b8 3c 5c 73 04 3c 81 94 98 bc
       0.04186303 0.022519069 0.008084144 -0.0186255
0003a0 c5 84 d5 3b c9 1c 5f 3d 1d 59 e5 bd f5 20 20 bc
       0.0065160715 0.05447081 -0.11198638 -0.009773483
0003b0 4e eb 04 be 04 bb 1c bd 95 ef d0 bc b2 87 00 bd
       -0.12980387 -0.03826429 -0.025504867 -0.03137941
0003c0 ee f1 22 be 9b 25 cb 3d 55 30 d6 3d a5 fa 6a 3c
       -0.15912601 0.09919282 0.10458437 0.014341985
0003d0 8e 57 9e bd 51 59 6f bc 8c e5 23 be 96 55 03 3e
       -0.077315435 -0.014608697 -0.16005534 0.12825617
0003e0 c8 cc 0b 3e f2 ce 8d 3d 85 6a 10 3e 3e 78 91 3d
       0.13652337 0.06924237 0.14103134 0.071030125
0003f0 df 1e 99 bd 6a f1 29 3c 13 76 cc 3d 41 6e 38 be
       -0.07476591 0.010372499 0.09983458 -0.18010809

fc1.bias f4 [64]
000000 1a dc ef bb 8e b3 1d bc c8 bb a2 3c e9 e7 eb bc
       -0.0073199393 -0.009625329 0.019864932 -0.028797107
000010 38 04 dd 3c 39 7d 55 bc ca f8 80 3d 09 29 c2 bb
       0.02697955 -0.013030344 0.06297453 -0.005925302
000020 12 b3 d9 39 a8 eb a6 3d 68 7f 29 3d 52 4c 2f 3c
       0.00041522883 0.081504166 0.04138127 0.0106993485
000030 ad 44 a4 bd 1d dd a1 bc 1a a8 ac 3d e5 5a 9c bd
       -0.08020911 -0.019758755 0.084305 -0.07634524
000040 02 5f ef 3c 80 fa 95 bc 0d 41 a3 3c 54 64 56 bd
       0.029220108 -0.018307924 0.01992848 -0.052341774
000050 53 56 b4 bd 68 f6 81 bd 6b 21 b0 bc 1d ca 5a bd
       -0.088055275 -0.063458264 -0.02150031 -0.053415406
000060 d9 b3 5a 3d 65 90 3a 3c 27 b5 59 bd a1 89 9a 3d
       0.053394172 0.011386965 -0.053151276 0.07545782
000070 2a fb 32 3d 5b 65 9b 3c 2e 59 45 3d 60 db 97 3d
       0.04369656 0.018969228 0.04818075 0.07414889
000080 64 dd 55 3a e3 53 29 bd 25 51 ec bc b6 09 0b 3c
       0.0008158295 -0.041339766 -0.028847286 0.008486202
000090 e4 4a 28 3c 88 50 87 bc fd 9d 95 3d 61 1f 98 3a
       0.010271762 -0.016517892 0.073055245 0.0011606031
0000a0 ea 17 10 bc eb f6 75 bd 67 f0 92 3d da db 11 bd
       -0.008794764 -0.060049932 0.07174759 -0.035610057
0000b0 ae 60 c7 bc 05 ea ce 3d fb 06 a0 3c 44 9b b0 3d
       -0.024338093 0.101032294 0.019534579 0.086233646
0000c0 8d a6 c2 3a 58 51 f1 39 2f 46 9f 3c cf 5f a9 bd
       0.0014850661 0.00046027708 0.019442646 -0.08270227
0000d0 ff 8b 5c bc 88 73 f0 3d 17 63 05 3d 08 00 d3 3d
       -0.013461112 0.11740786 0.032565203 0.1030274
0000e0 a2 70 92 bd cb 13 01 3d 65 1a 83 3c d5 c7 9e bd
       -0.07150389 0.031513017 0.016003797 -0.07752959
0000f0 52 5c ce 3d d3 c9 65 bc 0f 2f 83 3d 55 ac 35 bb
       0.100762025 -0.014025169 0.0640546 -0.0027721126

fc2.weight f4 [32, 64]
000000 e6 9d 69 bd d1 b5 4a 3b a2 66 e5 bd fa ba 18 bc
       -0.05703535 0.0030931125 -0.11201216 -0.009321922
000010 4d b1 f8 3d f9 19 05 3e f2 c4 18 3e 25 6b 03 bd
       0.121431924 0.12998189 0.14918879 -0.032084603
000020 95 57 4d 3d ef bf 9f bd e6 50 30 3e ab ba 9b bd
       0.050132353 -0.0780028 0.1721836 -0.076039635
000030 78 90 01 bd 25 69 ba 3d 7d a4 40 bd 93 26 a1 bc
       -0.031631917 0.09102086 -0.04703187 -0.019671714
000040 dd 69 db bd 86 ad 89 bd 36 21 00 3e 5c 01 4a 3d
       -0.10713551 -0.0672255 0.12512669 0.049317703
000050 f4 ea a1 3d 88 20 59 bd 00 9f 62 3d 8b b3 0e bb
       0.07906142 -0.05300954 0.055327415 -0.0021774496
000060 c2 e2 1a 3e 81 a6 2b 3e 97 cb 62 3d a7 70 89 bd
       0.15125564 0.16762735 0.05536994 -0.0671094
000070 8b 76 d4 3d db c1 4e bd 96 19 f8 bd 14 9c 60 3e
       0.10374173 -0.050477844 -0.12114255 0.21934539
000080 1d 26 e3 bd 11 05 0b bd 09 0f ea bd fc da 78 3d
       -0.11091254 -0.03394038 -0.11428649 0.060755715
000090 68 97 84 3b 16 b0 61 3d 7b cc e0 3d 50 e7 f1 bd
       0.0040463693 0.05509957 0.109765016 -0.118116975
0000a0 eb 86 a4 bd 14 b6 64 3c 25 0f b7 3d 8f e3 71 3e
       -0.08033546 0.013959426 0.089384355 0.23621963
0000b0 c7 4e bb be 32 60 14 bd 36 1b e1 3d 8b 2d d5 bb
       -0.3658354 -0.03622455 0.10991518 -0.0065056733
0000c0 75 a8 07 bb 6e 4e 14 3e 2c 60 4b be 4e c4 e2 bd
       -0.0020699773 0.14483044 -0.19860905 -0.110725984
0000d0 49 2f c4 3b 61 4f 3e bd e7 d6 84 3e 58 e8 c9 bd
       0.005987082 -0.04646242 0.25945207 -0.09858769
0000e0 dd 34 2f bd e0 fa d3 bd 10 50 43 3e b5 3f 35 3e
       -0.042775024 -0.10350585 0.1907351 0.17700084
0000f0 82 62 9a bd 9d c5 0a bd ee f0 05 3e 4e b1 e2 3c
       -0.0753832 -0.033879865 0.13080189 0.027672436
000100 4c db 9f bd e0 7a 0a be 7a 9f 5d be fd 58 c4 3d
       -0.078054994 -0.13523436 -0.21642867 0.09587286
000110 c1 19 cd 3d d6 d4 fa 3d 00 64 64 bd d7 5a 3f 3e
       0.10014678 0.122476265 -0.05575943 0.18686996
000120 96 fc 51 3e 71 06 38 3e 16 76 22 3d bc 4e 29 3e
       0.2050651 0.17971207 0.039663397 0.16533941
000130 6d bd 9d bd 44 89 49 3d 53 41 56 bd 1d f3 0d 3d
       -0.07702146 0.049203172 -0.05230839 0.03465568
000140 0c 37 36 bb a5 bf a2 3d b0 db 29 3d 0e 02 1e 3d
       -0.0027803807 0.079467095 0.041469276 0.03857618
000150 3a e5 f9 3d 5a ce f3 3c fc 38 94 3d 13 60 00 be
       0.122019246 0.029761482 0.072374314 -0.1253665
000160 69 a0 24 be 83 02 98 3d 84 69 cd bc ee e5 12 bd
       -0.16076817 0.07422354 -0.025074728 -0.03586381
000170 d0 99 10 bd 2f 0c 2a 3d a6 85 ad 3d 05 53 c7 bd
       -0.035302937 0.041515525 0.08472757 -0.097326316
000180 df fa 31 bc c0 e5 27 bd f7 ec c0 3c 98 57 0c 3e
       -0.010863035 -0.04099059 0.023550494 0.1370529
000190 dc 83 d6 3a 33 ea 9f bd 74 8a 28 3e d6 9a f2 3d
       0.0016366201 -0.07808342 0.16459066 0.11845939
0001a0 0c ca b2 bd cb 10 f6 bd e4 9e d9 bd fc 33 d8 bc
       -0.08729944 -0.12014922 -0.10626009 -0.026391976
0001b0 e1 c6 16 be 60 75 07 be 9e fa d6 bd 18 6a 91 bd
       -0.14724304 -0.13228369 -0.1049702 -0.07100314
0001c0 50 6f 37 3e a1 92 1b 3e 2d fb 61 3d 8b ba 2f 3e
       0.17913556 0.15192653 0.05517118 0.17161004
0001d0 85 85 9f 3e b1 3b 0c 3e 1e dc d8 3d 16 52 e8 3d
       0.31156555 0.13694645 0.10588859 0.11343782
0001e0 30 e5 3e be e8 ed ae bd d6 75 e2 3d a8 0d 23 be
       -0.18642116 -0.08541471 0.11057632 -0.15923178
0001f0 b1 2d 29 3e c1 67 11 3e cc 7a 83 3d fe d0 00 3e
       0.16521336 0.14199735 0.06419906 0.12579724
000200 51 9a b9 3b c3 5a ee 3d e8 52 c9 3d 78 d9 72 bc
       0.005664148 0.11638405 0.09830266 -0.014822356
000210 3e 54 cd 3d a2 0a ee 3c ed 8b b4 3d 53 55 15 be
       0.100258335 0.029057804 0.08815751 -0.1458333
000220 cf ae 3b 3e 11 a4 3f 3e 85 dc cf bd a5 cd 8a 3d
       0.18328403 0.1871493 -0.10149483 0.06777505
000230 ba 25 09 3e e5 c3 c6 bd ec 8d 10 3e 3d c5 19 bd
       0.13393298 -0.09705333 0.14116639 -0.037541617
000240 6b 89 08 3e 0b 39 01 3e 45 18 50 3d a1 62 1e 3e
       0.13333671 0.12619416 0.050804395 0.15467311
000250 d8 b4 78 bd 64 d1 af 3d 8f 29 8e 3d 33 7f 1e 3e
       -0.06071934 0.0858486 0.069415204 0.1547821
000260 fe 0a d0 bd ef 1e c2 3d 87 83 34 3a 30 64 82 3d
       -0.101583466 0.09478556 0.0006886054 0.063667655
000270 65 54 9f 3e b2 c8 25 3e a3 0c 04 3e 0b 43 44 be
       0.31119075 0.1618984 0.12895446 -0.191662
000280 37 2c f9 bc 11 0c 54 bd 15 18 b6 3d 59 e5 b5 3c
       -0.030416591 -0.05176932 0.08891312 0.022204088
000290 4b 2a 25 be a5 0d cf 3d 75 45 c3 3d e4 50 bd 3c
       -0.16129415 0.10110024 0.09534732 0.02310986
0002a0 6a 8a f1 bd 11 73 0f bb f0 73 ac 3d 9f 6c 02 3e
       -0.117939785 -0.0021888653 0.08420551 0.12736748
0002b0 2f 3b 7d be e6 eb 9e 3d 5f 35 4c be b9 ee a5 3d
       -0.24729608 0.07759838 -0.19942234 0.08102173
0002c0 40 46 b0 3d 2a 17 61 3d 36 d0 29 3d 2f 2d 2c bd
       0.08607149 0.05495373 0.04145833 -0.042035278
0002d0 3c b8 3b 3e 79 26 88 be 3f e8 da 3d 9a ab 01 be
       0.18331999 -0.26591852 0.10688829 -0.12663117
0002e0 48 d2 7f 3d b4 d1 73 bd 78 39 ab bd ff 55 be 3e
       0.0624564 -0.05952616 -0.08360571 0.37174985
0002f0 44 4b 23 3e a2 52 3b 3c ec 2d f7 3d 4a 91 f9 bd
       0.1594668 0.011433275 0.12069306 -0.12185915
000300 57 95 2d 3d 4c c3 8e bd 00 f8 da bd 70 3c 55 3c
       0.04237875 -0.06970844 -0.106918335 0.013014898
000310 42 25 05 be e8 b6 17 bd 84 41 8b bd 6f b3 75 3d
       -0.13002494 -0.037039667 -0.067996055 0.059985574
000320 14 45 04 be d6 69 2d 3d df f8 9e 3d 73 91 3c bd
       -0.12916976 0.04233726 0.07762312 -0.04603715
000330 e2 38 c5 3d 6a 97 07 be 3b 0b b2 3c a6 de 41 3d
       0.0962999 -0.13241354 0.02173387 0.047331475
000340 13 f5 0a be 21 9c 91 bd f9 d9 eb 3b c8 10 66 3d
       -0.13570051 -0.07109857 0.007197615 0.056168348
000350 d2 0d ff 3d 88 c3 21 bd 39 01 fb bd 5e 8c ea bd
       0.12453808 -0.039493114 -0.122560926 -0.11452554
000360 2f 4e 1c be e3 ab d8 bd b2 98 ef 3d 4d ea 49 bd
       -0.152642 -0.1057966 0.11699046 -0.049295712
000370 0e 3e df bd 60 6f e7 3d 42 2f 4e 3d 30 83 36 3d
       -0.10900508 0.1130054 0.050338037 0.044558704
000380 ed 4b 85 3c c9 31 90 3d 71 11 70 3d 2b cc 90 bd
       0.016271556 0.07040746 0.058610383 -0.07070192
000390 93 e8 9d 3d dc 8e e2 bd 8e 85 a3 3d c9 c9 0a bd
       0.07710376 -0.110624045 0.07984458 -0.033883844
0003a0 ec 56 df bd 9c 3d cf 3d 6e 0f 10 3d 63 af f3 bc
       -0.10905251 0.10119173 0.035170965 -0.029746717
0003b0 54 e0 46 3d 90 45 5c bd 6a 72 55 bd 3e ca ca bd
       0.04855378 -0.053777277 -0.052111067 -0.09901856
0003c0 54 53 d8 bd c6 c9 d5 bd 63 f5 a5 3c be 45 f2 3d
       -0.105627686 -0.10438876 0.020258611 0.118297085
0003d0 90 76 0d ba 28 e8 88 3d 70 48 62 3d f9 e2 c5 3c
       -0.00053963903 0.06684905 0.055244863 0.02415608
0003e0 b0 6d e7 bd 6d c0 8c bd eb c6 ce 3c be 60 2d bd
       -0.11300218 -0.0687264 0.025241336 -0.04232859
0003f0 db b1 75 3d e2 07 94 3c 69 9b 08 bc a3 02 30 3c
       0.05998407 0.018070165 -0.008337834 0.010742816

fc2.bias f4 [32]
000000 50 e2 28 3e 0a ff 49 bd 00 57 83 bd 9f 5f c1 bd
       0.16492581 -0.04931549 -0.06413078 -0.094420664
000010 f5 55 8f bd 12 43 01 bc 16 df ca bd 5b b5 0a 3e
       -0.06998817 -0.007889526 -0.099058315 0.13545744
000020 02 b3 b7 bd 9f 98 92 3d 16 32 5f 3c 31 e3 e2 bd
       -0.0896969 0.071580164 0.013622781 -0.110784896
000030 c7 a5 6a 3d 70 40 0b 3e 67 eb 46 3e a1 ee bd bd
       0.057287004 0.135988 0.19425736 -0.092740305
000040 52 4b b0 bd 2e 0b fc ba 75 7f d2 3d bf 03 85 3d
       -0.08608116 -0.0019229406 0.10278217 0.06494855
000050 f5 63 12 3e ad 60 aa bd 7f 41 86 bc 58 19 34 3a
       0.14295943 -0.08319221 -0.016388653 0.00068702316
000060 0e c4 a9 bd ed 85 07 3e 73 d2 81 3d a9 d9 80 bd
       -0.082893476 0.13234682 0.06338968 -0.062915154
000070 ad 18 de bd a4 f1 f2 3b 50 33 e3 3d db 17 b4 bc
       -0.1084455 0.0074140597 0.110937715 -0.021984031

fc3.weight f4 [10, 32]
000000 c0 5a 99 3c 01 e1 f6 bd 44 a8 36 3e e4 43 2b bc
       0.01872003 -0.12054635 0.17837626 -0.010453198
000010 fa 82 87 bd 71 68 d2 be 55 84 09 be ec 5b fe 3d
       -0.06616779 -0.41095307 -0.13429387 0.124198765
000020 93 69 4f be 25 13 8e be ef f1 9a bd c9 80 3d be
       -0.20255117 -0.2774898 -0.075656764 -0.18506159
000030 4d 20 7c 3e cd fe ac 3d b2 5d 0f 3e 5b e8 6e be
       0.24621697 0.08447037 0.14000586 -0.23330824
000040 68 73 a5 3c 6c 33 bf 3d 4c 5e 91 be fc 36 57 3e
       0.020196632 0.0933598 -0.28392255 0.21017069
000050 f1 43 bf bc b7 78 90 be 13 51 8d 3d 0c a5 42 3e
       -0.023347827 -0.28217098 0.06900229 0.19008273
000060 8a f1 97 be d2 4e 7c be 15 d2 48 3e 53 66 cd bd
       -0.29676467 -0.24639443 0.1961139 -0.100292824
000070 ff 27 09 3e 46 ad 2d be c0 ff 7c be 55 a3 28 be
       0.13394164 -0.1696063 -0.24706936 -0.16468556
000080 75 59 42 3e 50 ff 2b 3e 3d 12 6d 3e 61 7d bf 3d
       0.18979438 0.16796613 0.23151489 0.09350086
000090 76 2c 4b bc 78 f8 03 3e c7 42 0f 3e cb 5b 23 3e
       -0.012400737 0.12887752 0.13990317 0.15952985
0000a0 e5 65 2e bd 65 7a bd bd 2d a5 6f bd d9 5b d0 bd
       -0.042577643 -0.092518605 -0.058507133 -0.101737686
0000b0 18 f0 86 be dd b2 8e be c7 0a 3f 3e 15 b3 cb bc
       -0.26355052 -0.27870837 0.18656455 -0.024865666
0000c0 3c 3c d5 3d 6a 85 6a be c7 3c 1b 3e ab 6c 2b bd
       0.104118794 -0.22902456 0.15159903 -0.04185168
0000d0 91 d6 2a 3e ff 6a 8a be 62 51 f6 bd 7d 49 89 3e
       0.16683413 -0.27034757 -0.12027241 0.2681388
0000e0 35 63 0e be 08 a1 cc bd 6b cd 1a be 00 1d cd bd
       -0.13905032 -0.09991652 -0.15117423 -0.10015297
0000f0 39 ce 8d be 26 7a 48 be de 81 1d bc 7c ee 42 3d
       -0.27696398 -0.19577846 -0.009613482 0.047590718
000100 ee 2c 11 be c6 4c 97 3d 5b 8f 78 3e a1 41 5e 3d
       -0.14177296 0.0738769 0.24273436 0.054261807
000110 bd 66 23 be 45 b1 79 be 3b 02 5f 3d 1b 8e 64 bd
       -0.1595716 -0.24384029 0.054445487 -0.055799585
000120 05 51 2e bd 31 fb 4d 3e aa f1 b6 be 20 5f 82 3e
       -0.042557735 0.20115353 -0.3573125 0.254632
000130 a1 6d b2 3d c7 f4 12 be 63 81 40 3e 85 88 82 be
       0.08712316 -0.14351188 0.18799357 -0.2549478
000140 58 9f 90 bd 7f eb 38 3d ab d9 a0 be 91 19 9c be
       -0.070616424 0.04514646 -0.31416067 -0.30488256
000150 6e b7 85 be aa 67 e2 bd db 83 21 be b3 50 5d be
       -0.26116508 -0.110549286 -0.15772955 -0.21612816
000160 b6 5f f4 bb 88 06 68 3d 65 4a 47 3e ae 48 0c bc
       -0.0074576987 0.056646854 0.19461973 -0.00856225
000170 a2 cd d2 bd 07 bd 01 3e ff 45 70 be 04 89 0f 3e
       -0.102931276 0.12669764 -0.23464201 0.14017111
000180 67 94 1b be 44 e5 1d 3d bc bd 97 be 6f ba 02 be
       -0.1519333 0.038548723 -0.29636943 -0.12766431
000190 09 2f 00 be b8 c1 f3 3c 53 41 02 3e ee 5e 9f bc
       -0.12517942 0.029755458 0.12720232 -0.019454446
0001a0 11 6b cd bd 88 d0 b7 3d 35 ef c7 be 39 06 10 bd
       -0.10030187 0.08975321 -0.39049688 -0.035162184
0001b0 14 09 9a be 04 a5 85 3e 51 ae 2c 3e 44 1b 96 bd
       -0.3008505 0.2610246 0.16863371 -0.07329419
0001c0 2c 4d fc bc 49 01 86 bd 17 45 cb be 40 59 f4 3d
       -0.030798517 -0.06543214 -0.3970115 0.119310856
0001d0 47 d5 e1 3a 67 da 17 3e fb aa 9c bd d1 ca a2 be
       0.0017229699 0.14829408 -0.076497994 -0.31795362
0001e0 63 b9 50 3d 67 8a a6 be 1a 46 49 be 7b 16 47 bd
       0.05095805 -0.32527468 -0.19655648 -0.048605423
0001f0 8a a8 23 bd 1d f0 13 bd d5 7b 92 3d 5f 4a 63 3e
       -0.039955653 -0.03611766 0.07152525 0.22196339
000200 76 68 8f 3e 0a 51 b6 bc d6 7b 1f 3c d4 7a 94 3d
       0.28009385 -0.02225544 0.009734115 0.0724999
000210 a3 3f 47 bd 0c 94 89 be ee 6d 2f 3d 88 c3 36 3e
       -0.048644673 -0.26870763 0.042829446 0.17848027
000220 a8 e3 80 bd ce 49 3f 3e 98 14 f0 bd af 28 2d 3e
       -0.06293422 0.18680498 -0.11722678 0.16910051
000230 b7 b8 8f 3c 9a cf 04 be 75 35 c2 bd af 8b d1 bd
       0.017544134 -0.12969819 -0.09482852 -0.10231721
000240 39 94 1b bd 54 b7 1a be a1 50 fd bd 57 9c 0e 3e
       -0.037983153 -0.15108997 -0.12368894 0.13926826
000250 7c 08 a4 bd 3e d9 7f be 6b 6c ab 3d 26 81 b3 be
       -0.08009431 -0.24985215 0.083702885 -0.3505947
000260 5b 83 ad be a6 7d 17 3e f3 bf c9 bd 47 2c 06 bd
       -0.3388928 0.14794025 -0.098510645 -0.03275707
000270 de 32 61 3e d6 c5 cc bd ac 44 1e 3e 25 cb 9d bd
       0.2199206 -0.09998672 0.15455884 -0.07704762
000280 43 ea ef 3c d3 fa c7 bd 81 08 fd bd 38 dd e5 bd
       0.02928651 -0.09764638 -0.123551376 -0.11223835
000290 96 60 13 3e cb 5e 9b bd 3c 86 cc ba 0f bc b1 bd
       0.14392313 -0.0758644 -0.001560397 -0.086784475
0002a0 a4 c6 e9 bd 9f 43 f6 bd bb a6 90 be d3 51 40 bb
       -0.11414841 -0.120246165 -0.28252205 -0.0029345646
0002b0 45 a4 93 be c7 73 3c 3e 72 ac d1 bd 08 90 83 3d
       -0.28836265 0.1840354 -0.102379695 0.06423956
0002c0 94 bc 6c 3e 4b b3 5e be 11 0d 0a 3e 9e 7d 96 bc
       0.23118812 -0.21748082 0.13481547 -0.018370446
0002d0 57 66 52 3e 0c dd 06 be c4 41 18 3e 42 62 1f bd
       0.20546852 -0.1317026 0.14868838 -0.038912065
0002e0 3d bf 7c bd 6e ed f5 bd 45 f4 ef 3d e8 ef 2e be
       -0.061705817 -0.12008177 0.117165126 -0.17083704
0002f0 51 b7 5d 3c 31 8c 27 3d 62 b0 26 be 00 94 e9 3c
       0.013532476 0.04090518 -0.16278222 0.028512955
000300 cb 99 9f be df 11 ed bd 2d 2e 31 3d ba 17 80 bc
       -0.31172022 -0.11575674 0.043256927 -0.015636314
000310 e9 8d 26 be e6 2d 2e 3e cc 27 38 3d be a8 16 3e
       -0.16265072 0.17009696 0.04495983 0.14712808
000320 34 39 90 3d b2 54 ea 3d 21 a6 4d 3d 88 f1 8f be
       0.07042161 0.114419356 0.05020726 -0.2811396
000330 59 24 e8 3d 9f bd 8b bd ab 26 1f bd 58 0a 36 be
       0.11335058 -0.06823277 -0.038855236 -0.17777383
000340 cd 1e 22 bc 10 3e 8f be 90 5a de 3d 7d b3 6e 3e
       -0.009895039 -0.27977037 0.10857117 0.23310657
000350 a9 d0 07 be 12 2f 20 be a3 42 76 3e 69 c4 9b be
       -0.13263191 -0.15642956 0.24048857 -0.30423287
000360 91 c3 42 be 92 51 2b 3e 05 9e bf 3d 73 7f 90 bc
       -0.19019915 0.16730335 0.09356312 -0.017638898
000370 9a 9f 1e 3e 9d f4 a9 3c b1 60 bd be 67 88 17 3e
       0.1549057 0.020746524 -0.36987832 0.14798127
000380 3b b4 8e 3d 4a 52 3c 3e aa 8a ce bc f5 79 f7 bd
       0.0696797 0.18390766 -0.025212605 -0.12083808
000390 6a 3d 09 be 96 f3 34 be 8d 9c 10 bd de 0f 68 be
       -0.13402334 -0.17671046 -0.03530555 -0.22662303
0003a0 14 44 c9 3a 6d dd f3 bd 07 d9 fa be f1 7b 6b 3d
       0.0015355372 -0.11907468 -0.48993704 0.057491247
0003b0 be ad 9d 3c 83 08 4b be aa 7f 14 be f7 bf 1c bd
       0.019247886 -0.19827466 -0.14501825 -0.03826901
0003c0 b4 5c 59 3e f6 2f 3c 3e 5b 56 7d bd b3 b3 18 3e
       0.2122677 0.1837767 -0.061849933 0.149123
0003d0 44 46 08 be a4 6a 3f 3e 2f 34 83 bd 75 3b 35 3e
       -0.13308054 0.18693024 -0.064064376 0.17698462
0003e0 17 ea 73 bc 72 1d 01 be 5f 99 ac 3c 26 4f 18 be
       -0.014887354 -0.12608889 0.021069227 -0.14873943
0003f0 02 5e 59 be 6f ee fd 3d bc 65 71 3e 49 95 95 bd
       -0.21227267 0.12398993 0.23573965 -0.073038645

fc3.bias f4 [10]
000000 37 66 52 3c 7a 5d 7e bd bd fd 17 3e 49 03 62 3e
       0.012841753 -0.062100865 0.14842887 0.22071566
000010 34 c1 11 bd 53 b5 2f bd c8 ed fb 3d a2 c3 cc bc
       -0.035584643 -0.042897534 0.123012125 -0.024995629
000020 b0 f4 1f be d4 95 7a 3d
       -0.15620685 0.061178043
