ch6/data/l1filter_pruned.pth (torch, 242369 bytes, 12 tensors)

conv1.weight f4 [16, 1, 5, 5]
0.0 -0.0 -0.0 -0.0 0.0 -0.0 -0.0 -0.0
-0.0 0.0 0.0 0.0 0.0 0.0 -0.0 0.0
0.0 -0.0 0.0 -0.0 0.0 0.0 0.0 0.0
-0.0 0.0 -0.0 0.0 -0.0 -0.0 -0.0 -0.0
0.0 -0.0 0.0 0.0 -0.0 0.0 0.0 0.0
0.0 0.0 0.0 0.0 0.0 -0.0 0.0 0.0
0.0 -0.0 0.16555202 0.34589022 0.4111007 0.13260044 0.108343385 0.053213246
0.3549219 0.053421874 -0.2553428 0.20473537 0.26992097 0.3199656 -0.40358484 -0.5558099
-0.060587253 -0.08675737 -0.031711426 -0.13481176 -0.32159033 0.08664639 0.11023548 -0.16036224
0.2467135 0.0030795266 0.18658035 -0.0 0.0 0.0 0.0 0.0
-0.0 0.0 0.0 0.0 0.0 0.0 -0.0 -0.0
0.0 -0.0 -0.0 -0.0 0.0 -0.0 0.0 -0.0
-0.0 0.0 0.0 -0.0 0.0 -0.0 0.0 0.0
-0.0 0.0 0.0 0.0 -0.0 0.0 0.0 -0.0
-0.0 0.0 -0.0 -0.0 0.0 0.0 -0.0 -0.0
0.0 0.0 -0.0 -0.0 0.0 -0.0 -0.0 -0.0
0.0 0.0 -0.0 -0.0 -0.0 -0.0 0.0 -0.0
0.0 0.0 0.0 0.0 0.0 0.0 -0.0 0.0
0.0 0.0 0.0 -0.0 0.0 -0.0 0.27439365 0.33423665
0.47137418 -0.12089965 -0.30683574 0.34487697 0.39396885 0.4852418 0.0463029 -0.2249336
0.00056965585 -0.14006405 -0.06858215 0.3787672 0.08598212 -0.14068832 -0.37423724 -0.23497556
0.17730433 -0.016411368 -0.14477703 -0.2479698 -0.010547979 -0.063339435 0.08178077 -0.0
-0.0 0.0 0.0 -0.0 -0.0 0.0 -0.0 -0.0
-0.0 0.0 0.0 0.0 0.0 -0.0 -0.0 0.0
0.0 0.0 -0.0 -0.0 -0.0 0.0 -0.0 0.0
0.03541815 0.38209048 0.21450537 0.18669653 0.12763134 -0.12484633 -0.0829717 0.08260589
0.113458596 -0.13487999 -0.12755966 -0.354739 -0.04513581 -0.4763258 -0.51608497 -0.27090505
-0.3081367 -0.82591254 -0.7335699 -0.06335148 0.16399266 -0.2797318 -0.22993352 0.30679548
0.1769765 -0.0 -0.0 -0.0 -0.0 0.0 0.0 -0.0
-0.0 -0.0 -0.0 0.0 0.0 0.0 0.0 0.0
0.0 0.0 0.0 0.0 0.0 -0.0 -0.0 -0.0
-0.0 -0.0 0.0 -0.0 0.0 0.0 0.0 -0.0
00000000: 0000 0000 0000 0080 0000 0080 0000 0080
00000010: 0000 0000 0000 0080 0000 0080 0000 0080
00000020: 0000 0080 0000 0000 0000 0000 0000 0000
00000030: 0000 0000 0000 0000 0000 0080 0000 0000
00000040: 0000 0000 0000 0080 0000 0000 0000 0080
00000050: 0000 0000 0000 0000 0000 0000 0000 0000
00000060: 0000 0080 0000 0000 0000 0080 0000 0000
00000070: 0000 0080 0000 0080 0000 0080 0000 0080
00000080: 0000 0000 0000 0080 0000 0000 0000 0000
00000090: 0000 0080 0000 0000 0000 0000 0000 0000
000000a0: 0000 0000 0000 0000 0000 0000 0000 0000
000000b0: 0000 0000 0000 0080 0000 0000 0000 0000
000000c0: 0000 0000 0000 0080 7886 293e 8618 b13e
000000d0: ca7b d23e 69c8 073e 23e3 dd3d 22f6 593d
000000e0: 53b8 b53e e5d0 5a3d 4bbc 82be 26a6 513e
000000f0: 1533 8a3e 88d2 a33e aca2 cebe 8f49 0ebf
00000100: 572a 78bd d9ad b1bd d7e3 01bd 180c 0abe
00000110: 7da7 a4be aa73 b13d 24c3 e13d 0036 24be
00000120: 77a2 7c3e e2d1 493b eb0e 3f3e 0000 0080
00000130: 0000 0000 0000 0000 0000 0000 0000 0000
00000140: 0000 0080 0000 0000 0000 0000 0000 0000
00000150: 0000 0000 0000 0000 0000 0080 0000 0080
00000160: 0000 0000 0000 0080 0000 0080 0000 0080
00000170: 0000 0000 0000 0080 0000 0000 0000 0080
00000180: 0000 0080 0000 0000 0000 0000 0000 0080
00000190: 0000 0000 0000 0080 0000 0000 0000 0000
000001a0: 0000 0080 0000 0000 0000 0000 0000 0000
000001b0: 0000 0080 0000 0000 0000 0000 0000 0080
000001c0: 0000 0080 0000 0000 0000 0080 0000 0080
000001d0: 0000 0000 0000 0000 0000 0080 0000 0080
000001e0: 0000 0000 0000 0000 0000 0080 0000 0080
000001f0: 0000 0000 0000 0080 0000 0080 0000 0080
00000200: 0000 0000 0000 0000 0000 0080 0000 0080
00000210: 0000 0080 0000 0080 0000 0000 0000 0080
00000220: 0000 0000 0000 0000 0000 0000 0000 0000
00000230: 0000 0000 0000 0000 0000 0080 0000 0000
00000240: 0000 0000 0000 0000 0000 0000 0000 0080
00000250: 0000 0000 0000 0080 537d 8c3e 1121 ab3e
00000260: f557 f13e 3c9a f7bd 9319 9dbe b793 b03e
00000270: 49b6 c93e 9d71 f83e 1ca8 3d3d fe54 66be
00000280: f554 153a f36c 0fbe cc74 8cbd c6ed c13e
00000290: 6517 b03d 9910 10be 069c bfbe 6f9d 70be
000002a0: 448f 353e 2271 86bc 6e40 14be cceb 7dbe
000002b0: 6ed1 2cbc 1bb8 81bd ad7c a73d 0000 0080
000002c0: 0000 0080 0000 0000 0000 0000 0000 0080
000002d0: 0000 0080 0000 0000 0000 0080 0000 0080
000002e0: 0000 0080 0000 0000 0000 0000 0000 0000
000002f0: 0000 0000 0000 0080 0000 0080 0000 0000
00000300: 0000 0000 0000 0000 0000 0080 0000 0080
00000310: 0000 0080 0000 0000 0000 0080 0000 0000
00000320: 9f12 113d 5da1 c33e 4ca7 5b3e 602d 3f3e
00000330: cab1 023e 6faf ffbd 11ed a9bd 472d a93d
00000340: fb5c e83d fb1d 0abe 009f 02be 5aa0 b5be
00000350: 54e0 38bd fae0 f3be 251e 04bf 11b4 8abe
00000360: 18c4 9dbe 016f 53bf 3dcb 3bbf 6cbe 81bd
00000370: b1ed 273e 0239 8fbe b173 6bbe 4c14 9d3e
00000380: 5439 353e 0000 0080 0000 0080 0000 0080
00000390: 0000 0080 0000 0000 0000 0000 0000 0080
000003a0: 0000 0080 0000 0080 0000 0080 0000 0000
000003b0: 0000 0000 0000 0000 0000 0000 0000 0000
000003c0: 0000 0000 0000 0000 0000 0000 0000 0000
000003d0: 0000 0000 0000 0080 0000 0080 0000 0080
000003e0: 0000 0080 0000 0080 0000 0000 0000 0080
000003f0: 0000 0000 0000 0000 0000 0000 0000 0080

conv1.bias f4 [16]
0.0 0.0 0.058129553 0.0 0.0 0.0 0.46345037 0.0
0.46479306 0.0 0.0 -0.0 0.120997526 -0.0 -0.0 -0.0
00000000: 0000 0000 0000 0000 4119 6e3d 0000 0000
00000010: 0000 0000 0000 0000 5e49 ed3e 0000 0000
00000020: 5bf9 ed3e 0000 0000 0000 0000 0000 0080
00000030: 8dcd f73d 0000 0080 0000 0080 0000 0080

conv2.weight f4 [32, 16, 5, 5]
-0.019779434 -0.014500207 -0.026181238 -0.17181724 -0.26087672 -0.09298943 -0.056420427 0.043616723
-0.103100434 -0.048022527 -0.11220709 0.003435416 0.1329368 0.20390432 0.15270905 -0.096426964
-0.024418328 0.086243086 0.13584554 0.26959205 -0.08259829 -0.07757282 0.06051859 0.17621262
0.23836918 -0.10921713 -0.20066118 -0.3715858 -0.29772487 -0.07141605 -0.2609864 -0.19807343
-0.40433687 -0.38878778 -0.07273364 -0.1295727 0.078619555 -0.22593895 -0.17239144 -0.039955046
0.058107402 0.24252607 0.21941216 0.2656375 0.17270806 0.16216347 0.31062296 0.33375528
0.2549796 0.20303261 0.013867764 0.13227804 0.041251224 0.034343716 0.19289494 0.038941648
0.13472155 0.09165199 -0.034842376 -0.08586081 -0.08368376 0.07438238 0.2078192 -0.037975762
-0.16144773 -0.14715752 -0.03940521 -0.012063177 -0.14710897 -0.1994058 -0.14822935 -0.009446784
-0.14150363 -0.07612452 0.09296057 0.0021501675 -0.039077353 0.057637464 0.17805766 0.117878966
-0.036104225 -0.075288884 -0.011741673 0.046300236 0.03779776 -0.018926911 -0.09478072 -0.048514515
-0.03107857 0.008345671 -0.039631635 -0.12629229 -0.11764362 -0.11253179 -0.1234357 0.0024867663
0.02142514 0.04395698 -0.070735775 -0.11427355 -0.0026365616 0.090220034 0.06988553 0.07725787
-0.0025599794 0.08054613 0.10202853 0.041393798 0.05327608 -0.02684151 -0.021282459 -0.026207209
-0.026764445 -0.10971157 -0.020741 -0.03145022 -0.12197919 -0.13763566 -0.062581316 0.027141996
0.024081612 -0.028482225 -0.054337274 0.116699494 0.075927734 0.017110823 0.052984077 0.08918069
-0.07359234 -0.12760289 -0.1029954 -0.16267768 -0.053270258 -0.14316124 -0.06367076 -0.1352594
-0.1565914 -0.066243455 0.032735057 0.16848873 -0.017063387 -0.059631072 -0.0008986499 0.19516166
0.24987312 0.027420614 0.047186717 0.049855 0.15529302 0.14567153 0.1067192 0.012747425
0.0105194235 0.21599779 0.30562314 0.048627466 0.050871506 -0.029605888 0.15724844 0.33895275
0.05269826 0.011316722 -0.08447709 -0.05950188 0.06226617 0.053954877 0.036076423 -0.19635119
-0.41378275 -0.4089511 0.07706905 0.19977975 0.06888935 -0.110336125 -0.21827942 0.07256543
0.00018191723 -0.0396946 0.024724267 -0.0042979284 0.01792354 0.06317821 -0.059284076 -0.035247035
-0.0541724 0.038112234 0.03939459 -0.022232775 0.015970044 0.023235861 0.105379544 0.04412535
0.028075257 0.07246078 0.07616979 0.00015587098 0.051104058 0.17083684 0.097837634 0.16730678
0.15233122 0.06603369 0.078261316 0.27166808 0.3784512 0.1633288 0.05643271 0.20746109
0.2006948 0.13672486 0.19869603 0.11967632 0.08430069 -0.03238804 0.023140838 -0.15915474
-0.2857378 -0.3640486 -0.2721791 -0.33868238 -0.32187054 -0.49563983 -0.4062856 -0.5040435
-0.20406811 0.04514818 0.012956599 -0.07772426 -0.06616076 -0.124362014 -0.16562636 -0.086692475
-0.22354436 -0.23990639 -0.253591 -0.090326376 -0.11936226 -0.087955214 -0.07703262 -0.06385516
0.03137708 0.018335722 0.12487765 0.11811132 0.1507891 -0.0022413242 0.1600661 0.21772291
0.19019936 0.24536149 0.065616645 0.043862022 0.10610622 0.079867 0.14852297 0.026707523
00000000: 7b08 a2bc 4792 6dbc 097a d6bc dcf0 2fbe
00000010: a291 85be 3e71 bebd 1b19 67bd 73a7 323d
00000020: 5226 d3bd 45b3 44bd d5cc e5bd b724 613b
00000030: 9620 083e 4bcc 503e c35f 1c3e 807b c5bd
00000040: f208 c8bc 37a0 b03d 181b 0b3e f807 8a3e
00000050: 4b29 a9bd 80de 9ebd 57e2 773d 1571 343e
00000060: 0d17 743e 3bad dfbd 207a 4dbe 7e40 bebe
00000070: 656f 98be 9442 92bd 02a0 85be c3d3 4abe
00000080: 3e05 cfbe 310f c7be 60f5 94bd b5ae 04be
00000090: 4a03 a13d 8a5c 67be 6287 30be e7a7 23bd
000000a0: 0702 6e3d c158 783e 95ad 603e a301 883e
000000b0: 62da 303e 2e0e 263e f909 9f3e f9e1 aa3e
000000c0: b08c 823e c8e7 4f3e 9e35 633c e573 073e
000000d0: 0bf7 283d ffab 0c3d 4086 453e 4781 1f3d
000000e0: 72f4 093e 0ab4 bb3d e1b6 0ebd cbd7 afbd
000000f0: 6462 abbd ca55 983d 8ece 543e 798c 1bbd
00000100: 8e52 25be 76b0 16be 5c67 21bd a2a4 45bc
00000110: bca3 16be 0931 4cbe 6fc9 17be afc6 1abc
00000120: 54e6 10be 2ce7 9bbd 1c62 be3d d3e9 0c3b
00000130: 930f 20bd 4315 6c3d bf54 363e 876a f13d
00000140: 06e2 13bd 0f31 9abd 2560 40bc 51a5 3d3d
00000150: d3d1 1a3d 9c0c 9bbc 651c c2bd 28b7 46bd
00000160: 7c98 febc 48bc 083c c854 22bd c452 01be
00000170: 23ef f0bd 1177 e6bd dbcb fcbd 04f9 223b
00000180: c683 af3c 3c0c 343d ebdd 90bd 4008 eabd
00000190: 2aca 2cbb 48c5 b83d 2520 8f3d 6039 9e3d
000001a0: 54c5 27bb 5ff5 a43d 55f4 d03d 8b8c 293d
000001b0: 0538 5a3d bae2 dbbc 8d58 aebc 80b0 d6bc
000001c0: 1c41 dbbc 76b0 e0bd 08e9 a9bc f2d1 00bd
000001d0: 3ad0 f9bd 5df0 0cbe a22a 80bd e458 de3c
000001e0: cd46 c53c 8e53 e9bc c390 5ebd 2500 ef3d
000001f0: 0080 9b3d ff2b 8c3c d505 593d 5ea4 b63d
00000200: 95b7 96bd 55aa 02be 41ef d2bd fa94 26be
00000210: ea31 5abd dc98 12be d165 82bd 7181 0abe
00000220: 7f59 20be a6aa 87bd 3215 063d 4f88 2c3e
00000230: 84c8 8bbc b63f 74bd 6093 6bba 75d8 473e
00000240: bdde 7f3e 32a1 e03c dc46 413d c234 4c3d
00000250: 2205 1f3e eb2a 153e 998f da3d 93da 503c
00000260: a959 2c3c 862e 5d3e a37a 9c3e 982d 473d
00000270: a45e 503d 0c88 f2bc bc05 213e 378b ad3e
00000280: 21da 573d c669 393c 5302 adbd 3eb8 73bd
00000290: d00a 7f3d caff 5c3d dfc4 133d 4910 49be
000002a0: 55db d3be 0a62 d1be 61d6 9d3d 1093 4c3e
000002b0: dc15 8d3d e8f7 e1bd a484 5fbe 2f9d 943d
000002c0: 09c1 3e39 ce96 22bd 8c8a ca3c a3d5 8cbb
000002d0: 63d4 923c 9463 813d dcd3 72bd 325f 10bd
000002e0: e1e3 5dbd 931b 1c3d 395c 213d 8221 b6bc
000002f0: 9cd3 823c 2259 be3c 3bd1 d73d c8bc 343d
00000300: 15fe e53c 5166 943d e8fe 9b3d 4c71 2339
00000310: 7d52 513d daef 2e3e 195f c83d 7852 2b3e
00000320: b7fc 1b3e ac3c 873d 7847 a03d 1418 8b3e
00000330: 5bc4 c13e aa3f 273e fc25 673d ae70 543e
00000340: f082 4d3e 9a01 0c3e f976 4b3e dc18 f53d
00000350: d7a5 ac3d 52a9 04bd db91 bd3c 76f9 22be
00000360: 3a4c 92be 9464 babe 0f5b 8bbe c767 adbe
00000370: 37cc a4be 81c4 fdbe ab04 d0be ff08 01bf
00000380: 3bf7 50be 4ced 383d ea47 543c e62d 9fbd
00000390: 4b7f 87bd 83b1 febd f599 29be d38b b1bd
000003a0: d0e8 64be 05aa 75be aed6 81be 09fd b8bd
000003b0: 3374 f4bd dd21 b4bd 47c3 9dbd 7ec6 82bd
000003c0: 4185 003d cc34 963c dabf ff3d 59e4 f13d
000003d0: 7568 1a3e 2ee3 12bb 5ee8 233e c1f2 5e3e
000003e0: 9fc3 423e 0b40 7b3e 0562 863d aaa8 333d
000003f0: 384e d93d 4f91 a33d 6816 183e bcc9 da3c

conv2.bias f4 [32]
0.20422213 0.25315768 0.0 0.0 0.0 0.0 0.0 0.0
0.0 0.0 0.0 0.23219009 0.0 0.0 -0.0 0.047737367
0.0 0.0 0.0 0.12776424 0.0 0.0 -0.010641278 0.0
0.0 0.0 0.0 0.0 -0.0 0.0 0.10313658 -0.0
00000000: 9b1f 513e e29d 813e 0000 0000 0000 0000
00000010: 0000 0000 0000 0000 0000 0000 0000 0000
00000020: 0000 0000 0000 0000 0000 0000 3dc3 6d3e
00000030: 0000 0000 0000 0000 0000 0080 4288 433d
00000040: 0000 0000 0000 0000 0000 0000 a1d4 023e
00000050: 0000 0000 0000 0000 c158 2ebc 0000 0000
00000060: 0000 0000 0000 0000 0000 0000 0000 0000
00000070: 0000 0080 0000 0000 4539 d33d 0000 0080

conv3.weight f4 [32, 32, 5, 5]
0.0 0.0 0.0 -0.0 0.0 0.0 0.0 0.0
-0.0 0.0 0.0 0.0 0.0 -0.0 -0.0 0.0
0.0 -0.0 -0.0 -0.0 0.0 -0.0 -0.0 -0.0
-0.0 -0.0 -0.0 -0.0 -0.0 -0.0 -0.0 -0.0
-0.0 -0.0 -0.0 0.0 0.0 0.0 0.0 0.0
0.0 -0.0 0.0 0.0 0.0 -0.0 -0.0 -0.0
-0.0 -0.0 -0.0 -0.0 -0.0 -0.0 -0.0 -0.0
-0.0 -0.0 0.0 0.0 0.0 0.0 0.0 0.0
0.0 0.0 0.0 0.0 0.0 0.0 -0.0 0.0
0.0 0.0 -0.0 -0.0 -0.0 -0.0 -0.0 -0.0
-0.0 -0.0 -0.0 -0.0 0.0 -0.0 0.0 -0.0
-0.0 0.0 0.0 0.0 0.0 0.0 0.0 -0.0
-0.0 -0.0 0.0 0.0 -0.0 -0.0 -0.0 -0.0
-0.0 0.0 0.0 -0.0 -0.0 -0.0 0.0 -0.0
0.0 0.0 0.0 0.0 0.0 0.0 0.0 0.0
-0.0 -0.0 0.0 -0.0 0.0 -0.0 -0.0 -0.0
-0.0 -0.0 -0.0 -0.0 -0.0 -0.0 -0.0 -0.0
0.0 -0.0 -0.0 0.0 0.0 -0.0 -0.0 -0.0
-0.0 -0.0 -0.0 -0.0 0.0 0.0 -0.0 -0.0
-0.0 -0.0 -0.0 -0.0 -0.0 -0.0 -0.0 -0.0
0.0 0.0 0.0 0.0 0.0 0.0 0.0 0.0
0.0 0.0 -0.0 -0.0 -0.0 -0.0 0.0 -0.0
-0.0 0.0 0.0 -0.0 -0.0 -0.0 -0.0 -0.0
-0.0 -0.0 0.0 0.0 0.0 0.0 0.0 0.0
-0.0 0.0 0.0 0.0 -0.0 -0.0 0.0 0.0
-0.0 0.0 0.0 0.0 -0.0 -0.0 -0.0 -0.0
-0.0 -0.0 -0.0 -0.0 0.0 -0.0 -0.0 0.0
0.0 0.0 -0.0 -0.0 0.0 0.0 -0.0 -0.0
0.0 -0.0 -0.0 -0.0 -0.0 0.0 -0.0 -0.0
-0.0 0.0 0.0 0.0 0.0 0.0 -0.0 0.0
0.0 -0.0 -0.0 -0.0 -0.0 -0.0 -0.0 -0.0
-0.0 -0.0 -0.0 -0.0 -0.0 -0.0 -0.0 0.0
00000000: 0000 0000 0000 0000 0000 0000 0000 0080
00000010: 0000 0000 0000 0000 0000 0000 0000 0000
00000020: 0000 0080 0000 0000 0000 0000 0000 0000
00000030: 0000 0000 0000 0080 0000 0080 0000 0000
00000040: 0000 0000 0000 0080 0000 0080 0000 0080
00000050: 0000 0000 0000 0080 0000 0080 0000 0080
00000060: 0000 0080 0000 0080 0000 0080 0000 0080
00000070: 0000 0080 0000 0080 0000 0080 0000 0080
00000080: 0000 0080 0000 0080 0000 0080 0000 0000
00000090: 0000 0000 0000 0000 0000 0000 0000 0000
000000a0: 0000 0000 0000 0080 0000 0000 0000 0000
000000b0: 0000 0000 0000 0080 0000 0080 0000 0080
000000c0: 0000 0080 0000 0080 0000 0080 0000 0080
000000d0: 0000 0080 0000 0080 0000 0080 0000 0080
000000e0: 0000 0080 0000 0080 0000 0000 0000 0000
000000f0: 0000 0000 0000 0000 0000 0000 0000 0000
00000100: 0000 0000 0000 0000 0000 0000 0000 0000
00000110: 0000 0000 0000 0000 0000 0080 0000 0000
00000120: 0000 0000 0000 0000 0000 0080 0000 0080
00000130: 0000 0080 0000 0080 0000 0080 0000 0080
00000140: 0000 0080 0000 0080 0000 0080 0000 0080
00000150: 0000 0000 0000 0080 0000 0000 0000 0080
00000160: 0000 0080 0000 0000 0000 0000 0000 0000
00000170: 0000 0000 0000 0000 0000 0000 0000 0080
00000180: 0000 0080 0000 0080 0000 0000 0000 0000
00000190: 0000 0080 0000 0080 0000 0080 0000 0080
000001a0: 0000 0080 0000 0000 0000 0000 0000 0080
000001b0: 0000 0080 0000 0080 0000 0000 0000 0080
000001c0: 0000 0000 0000 0000 0000 0000 0000 0000
000001d0: 0000 0000 0000 0000 0000 0000 0000 0000
000001e0: 0000 0080 0000 0080 0000 0000 0000 0080
000001f0: 0000 0000 0000 0080 0000 0080 0000 0080
00000200: 0000 0080 0000 0080 0000 0080 0000 0080
00000210: 0000 0080 0000 0080 0000 0080 0000 0080
00000220: 0000 0000 0000 0080 0000 0080 0000 0000
00000230: 0000 0000 0000 0080 0000 0080 0000 0080
00000240: 0000 0080 0000 0080 0000 0080 0000 0080
00000250: 0000 0000 0000 0000 0000 0080 0000 0080
00000260: 0000 0080 0000 0080 0000 0080 0000 0080
00000270: 0000 0080 0000 0080 0000 0080 0000 0080
00000280: 0000 0000 0000 0000 0000 0000 0000 0000
00000290: 0000 0000 0000 0000 0000 0000 0000 0000
000002a0: 0000 0000 0000 0000 0000 0080 0000 0080
000002b0: 0000 0080 0000 0080 0000 0000 0000 0080
000002c0: 0000 0080 0000 0000 0000 0000 0000 0080
000002d0: 0000 0080 0000 0080 0000 0080 0000 0080
000002e0: 0000 0080 0000 0080 0000 0000 0000 0000
000002f0: 0000 0000 0000 0000 0000 0000 0000 0000
00000300: 0000 0080 0000 0000 0000 0000 0000 0000
00000310: 0000 0080 0000 0080 0000 0000 0000 0000
00000320: 0000 0080 0000 0000 0000 0000 0000 0000
00000330: 0000 0080 0000 0080 0000 0080 0000 0080
00000340: 0000 0080 0000 0080 0000 0080 0000 0080
00000350: 0000 0000 0000 0080 0000 0080 0000 0000
00000360: 0000 0000 0000 0000 0000 0080 0000 0080
00000370: 0000 0000 0000 0000 0000 0080 0000 0080
00000380: 0000 0000 0000 0080 0000 0080 0000 0080
00000390: 0000 0080 0000 0000 0000 0080 0000 0080
000003a0: 0000 0080 0000 0000 0000 0000 0000 0000
000003b0: 0000 0000 0000 0000 0000 0080 0000 0000
000003c0: 0000 0000 0000 0080 0000 0080 0000 0080
000003d0: 0000 0080 0000 0080 0000 0080 0000 0080
000003e0: 0000 0080 0000 0080 0000 0080 0000 0080
000003f0: 0000 0080 0000 0080 0000 0080 0000 0000

conv3.bias f4 [32]
-0.0 -0.0 0.0 -0.0 -0.0 0.0 -0.0 -0.010210862
-0.0 0.0 0.0 -0.0 0.10041404 0.0 -0.0 0.02657315
-0.043195404 0.0 0.0 -0.0 -0.0 0.0 0.13562836 -0.0
0.007037253 -0.0 0.0 -0.0 0.016015016 -0.0 0.0 -0.0
00000000: 0000 0080 0000 0080 0000 0000 0000 0080
00000010: 0000 0080 0000 0000 0000 0080 764b 27bc
00000020: 0000 0080 0000 0000 0000 0000 0000 0080
00000030: e0a5 cd3d 0000 0000 0000 0080 efaf d93c
00000040: aaed 30bd 0000 0000 0000 0000 0000 0080
00000050: 0000 0080 0000 0000 29e2 0a3e 0000 0080
00000060: c298 e63b 0000 0080 0000 0000 0000 0080
00000070: ec31 833c 0000 0080 0000 0000 0000 0080

fc1.weight f4 [64, 288]
0.03325784 0.123001456 0.0068299007 0.018494898 -0.00062282354 0.07844724 -0.004621427 0.060672596
-0.023244303 0.016114758 -0.09853563 -0.05930385 -0.04126304 0.114042 0.010912587 -0.14635618
-0.0029783857 -0.07264582 0.09525851 0.02780912 0.06638304 0.0008553245 0.023799736 0.12204404
-0.0077565154 -0.074062034 -0.0017797917 0.08982848 0.058456838 0.03855676 0.037918128 -0.050460465
-0.032242786 -0.010977106 0.091615215 -0.067108296 0.019685423 -0.022322584 0.01880677 0.07190292
-0.04211552 0.06546218 0.010107732 0.0028562034 -0.025484055 -0.038177405 0.04328461 0.030963661
0.06267782 -0.024240946 0.023779651 0.100488566 -0.027935032 -0.05372116 -0.003939445 -0.09821985
0.069063276 0.07054529 -0.0008416818 0.027194455 0.053299114 0.040493947 -0.13097355 -0.08607798
-0.008740119 0.18544321 0.061003763 0.06559068 0.03157867 0.09576026 -0.025954729 -0.029393746
0.13376467 0.120571755 -0.028440965 0.045412794 -0.004007008 0.06167601 -0.06535301 0.04655508
-0.08844915 -0.08832661 -0.060425125 -0.12849338 -0.01482849 0.06154726 -0.0012041931 -0.07694842
-0.013676194 0.04741226 0.048143618 -0.012525487 -0.014616467 0.08980939 0.02754134 -0.009182736
-0.07539086 0.06535186 -0.06297905 -0.0013421528 0.044162948 0.0034672427 -0.06244787 0.026031515
0.049340397 0.051937744 0.014535912 -0.008245751 -0.1859451 0.010293471 -0.03081521 0.028842917
0.18987009 -0.1411912 -0.17061123 -0.0261644 0.16315873 0.022956753 -0.013746629 0.067807265
-0.1223294 0.028827094 0.013544682 0.110617295 -0.0885543 -0.082277 -0.14135587 -0.012598542
-0.11664769 -0.040554143 0.04021527 0.026621934 -0.09077025 -0.005476994 -0.057020314 0.10309809
0.040875405 -0.02523681 -0.073625326 0.010237056 0.08460164 0.018608855 -0.070587546 0.045086537
0.070341446 -0.020674834 -0.06981205 -0.01345887 0.15017156 0.061462443 0.17465179 0.023191351
-0.057731193 0.04176366 0.01878065 -0.052824467 0.083840996 -0.0021388654 -0.05060047 -0.045447644
-0.05500541 -0.06519096 -0.055942032 -0.14167395 -0.024532093 -0.11144179 0.0018581053 0.060010858
-0.038302436 -0.016754668 0.019883363 0.016374674 0.09411811 0.043285165 0.019382942 -0.02544433
-0.024021542 0.079517975 0.021478686 -0.051304 -0.010750259 0.08366932 0.10065282 -0.033262935
-0.051070727 0.0025580886 0.06945561 -0.00078933896 0.0026434625 0.07320177 0.03154827 -0.10659419
0.042447206 -0.056850933 -0.018987896 -0.018579744 0.025070846 0.042940043 -0.12548332 0.020102527
-0.19636625 0.00082818023 0.03860642 0.09702186 -0.038149334 0.051177975 -0.024817744 -0.002206829
-0.014539524 0.053663783 0.042421255 0.038991787 0.04725985 0.079258464 0.021893805 -0.014165108
-0.034517128 0.08826976 -0.07532385 0.23611918 0.050683584 -0.10711395 0.12664886 0.077664055
-0.060480956 -0.013901099 -0.044989947 -0.025103625 0.04186303 0.022519069 0.008084144 -0.0186255
0.0065160715 0.05447081 -0.119120814 -0.016908105 -0.1369386 -0.04539895 -0.032639507 -0.03851407
-0.16626075 0.09205834 0.097449884 0.10175438 -0.051199593 -0.02798762 -0.09969017 0.14425074
0.110968895 0.0682062 0.12918967 0.058272112 -0.061390225 0.043288063 0.14451142 -0.1273222
00000000: 5f39 083d 30e8 fb3d 5ccd df3b 9d82 973c
00000010: fb44 23ba f2a8 a03d 576f 97bb d483 783d
00000020: d66a bebc 1903 843c 0ccd c9bd 98e8 72bd
00000030: 6f03 29bd da8e e93d b5ca 323c 65de 15be
00000040: 0531 43bb 55c7 94bd e516 c33d f4cf e33c
00000050: d5f3 873d db37 603a aaf7 c23c 3af2 f93d
00000060: 5e2a febb d6ad 97bd e647 e9ba fef7 b73d
00000070: 7070 6f3d b1ed 1d3d 0a50 1b3d a2af 4ebd
00000080: 0311 04bd 52d9 33bc c2a0 bb3d 1370 89bd
00000090: 5343 a13c dadd b6bc a810 9a3c d741 933d
000000a0: 5381 2cbd 0911 863d e79a 253c 242f 3b3b
000000b0: f0c3 d0bc e95f 1cbd 344b 313d 81a7 fd3c
000000c0: 3b5d 803d f394 c6bc 8bcd c23c f3cc cd3d
000000d0: 02d8 e4bc b80a 5cbd 7616 81bb 7d27 c9bd
000000e0: 0c71 8d3d 0d7a 903d 4fa4 5cba e8c6 de3c
000000f0: 2c50 5a3d fbdc 253d ee1d 06be a749 b0bd
00000100: b732 0fbc d3e4 3d3e 15df 793d 6854 863d
00000110: a358 013d f51d c43d 039f d4bc 27cb f0bc
00000120: 9bf9 083e 53ee f63d 07fd e8bc c402 3a3d
00000130: 384d 83bb fc9f 7c3d cdd7 85bd 8ab0 3e3d
00000140: d424 b5bd 95e4 b4bd 5680 77bd c593 03be
00000150: 32f3 72bc fb18 7c3d 04d6 9dba 2297 9dbd
00000160: 1d12 60bc 5c33 423d 3e32 453d b337 4dbc
00000170: e879 6fbc fced b73d 609e e13c 3073 16bc
00000180: 8666 9abd 32d7 853d 29fb 80bd 2deb afba
00000190: 35e4 343d ae3a 633b 56c9 7fbd 0b40 d53c
000001a0: 2819 4a3d acbc 543d 0928 6e3c 3019 07bc
000001b0: 6468 3ebe f2a5 283c 2e70 fcbc fb47 ec3c
000001c0: 4e6d 423e 6d94 10be b6b4 2ebe b956 d6bc
000001d0: 1513 273e cd0f bc3c 8a39 61bc 89de 8a3d
000001e0: d687 fabd cc26 ec3c 84ea 5d3c 528b e23d
000001f0: f55b b5bd d880 a8bd 98bf 10be 1d6a 4ebc
00000200: fce4 eebd 1a1c 26bd c4b8 243d 3e16 da3c
00000210: c1e5 b9bd 5b78 b3bb 228e 69bd 1725 d33d
00000220: f86c 273d 6dbd cebc e0c8 96bd 53b9 273c
00000230: a043 ad3d 9971 983c 3490 90bd a9ac 383d
00000240: 2d0f 903d 455e a9bc 9ff9 8ebd 9882 5cbc
00000250: 93c6 193e 0bc0 7b3d ebd7 323e cafb bd3c
00000260: 8b77 6cbd 5f10 2b3d e1d9 993c 785e 58bd
00000270: d4b4 ab3d 352c 0cbb 7042 4fbd 4f27 3abd
00000280: 5a4d 61bd d782 85bd 7923 65bd fa12 11be
00000290: 87f7 c8bc 983b e4bd ab8b f33a f2cd 753d
000002a0: 04e3 1cbd 1641 89bc 6fe2 a23c 2e24 863c
000002b0: ffc0 c03d c94b 313d fac8 9e3c a170 d0bc
000002c0: d3c8 c4bc 52da a23d 12f4 af3c 2524 52bd
000002d0: db21 30bc d25a ab3d 1123 ce3d b73e 08bd
000002e0: 8a2f 51bd 9ba5 273b be3e 8e3d a4eb 4eba
000002f0: f13d 2d3b cfea 953d c238 013d 0e4e dabd
00000300: 1fdd 2d3d 86dc 68bd 818c 9bbc 8c34 98bc
00000310: 6061 cd3c e6e1 2f3d b37e 00be 0eae a43c
00000320: 3c14 49be 3c1a 593a c421 1e3d 66b3 c63d
00000330: 7a42 1cbd ff9f 513d 954e cbbc 72a0 10bb
00000340: 2f37 6ebc 8ece 5b3d e9c1 2d3d dab5 1f3d
00000350: 8b93 413d 4352 a23d a35a b33c c514 68bc
00000360: d561 0dbd c7c6 b43d 6443 9abd 3ac9 713e
00000370: 9799 4f3d 8f5e dbbd 3db0 013e 550e 9f3d
00000380: e1ba 77bd 6fc1 63bc 6147 38bd 1ea6 cdbc
00000390: 9278 2b3d e979 b83c 5c73 043c 8194 98bc
000003a0: c584 d53b c91c 5f3d 9df5 f3bd de82 8abc
000003b0: a239 0cbe 40f4 39bd 01b1 05bd eec0 1dbd
000003c0: 4240 2abe 1589 bc3d ce93 c73d 9a64 d03d
000003d0: aab6 51bd 4b46 e5bc 5c2a ccbd 77b6 133e
000003e0: a943 e33d b1af 8b3d 4c4a 043e bdae 6e3d
000003f0: 5174 7bbd d34e 313d cdfa 133e c060 02be

fc1.bias f4 [64]
-0.037505828 0.081664145 0.006809506 -0.0020669294 0.069050774 -0.0062516173 0.050041378 0.031158993
0.023761755 0.123555474 0.016153473 -0.046608422 -0.02511748 -0.08787222 0.17219457 -0.08145597
0.0419271 -0.051553763 -0.01740129 0.077245355 -0.088055275 -0.016139785 0.05432457 -0.011644176
0.11639854 0.045311615 -0.053151276 0.119513914 0.13109751 0.031570103 0.065946504 0.12026543
0.065636806 -0.13956763 -0.1279883 0.1164933 -0.020802924 -0.016517892 0.096270435 -0.110451594
-0.09615789 -0.060049932 0.10068684 0.06997256 -0.00095766794 0.16547377 0.048821136 0.029322373
-0.046018433 0.058954075 0.0067784875 -0.052078117 0.077075645 0.07877178 0.14008294 0.065726206
-0.06450367 -0.028570523 0.0091104945 -0.10906468 0.096693054 0.053207785 0.07769973 0.024119461
00000000: b69f 19bd 883f a73d 4722 df3b 5275 07bb
00000010: 7e6a 8d3d 5eda ccbb 30f8 4c3d 2541 ff3c
00000020: 03a8 c23c a70a fd3d 4a54 843c 79e8 3ebd
00000030: 2cc3 cdbc 5af6 b3bd c653 303e 63d2 a6bd
00000040: c0bb 2b3d 0a2a 53bd 268d 8ebc d032 9e3d
00000050: 5356 b4bd 9537 84bc 7183 5e3d 37c7 3ebc
00000060: 5c62 ee3d ac98 393d 27b5 59bd b6c3 f43d
00000070: 6d3e 063e a74f 013d f60e 873d b94d f63d
00000080: 976c 863d d1ea 0ebe 5d0f 03be 0a94 ee3d
00000090: e56a aabc 8850 87bc 6f29 c53d 7234 e2bd
000000a0: 6eee c4bd ebf6 75bd e734 ce3d c64d 8f3d
000000b0: 020c 7bba f571 293e acf8 473d 7935 f03c
000000c0: d37d 3cbd d479 713d 131e de3b dd4f 55bd
000000d0: d6d9 9d3d 1953 a13d e771 0f3e 769b 863d
000000e0: 801a 84bd bb0c eabc 2f44 153c 4e5d dfbd
000000f0: 0207 c63d 68f0 593d 0921 9f3d 2d96 c53c

fc2.weight f4 [32, 64]
-0.013886212 -0.029087806 -0.10555234 -0.011422124 0.13064885 0.2071796 0.14141041 0.022673732
0.057153318 -0.061855588 0.17574283 -0.14381711 -0.22537869 0.061001096 -0.023411047 -0.014563519
-0.10286958 -0.10596452 0.14176717 0.08847922 0.07906142 0.10566464 0.074266545 0.033963464
0.1827815 0.13684599 0.05536994 -0.06952935 0.1389817 -0.19097543 -0.054306015 0.21779981
-0.08875218 -0.026425887 -0.08790177 0.0927928 -0.008003763 0.05509957 0.14714678 -0.2032228
-0.04471472 0.013959426 0.11559359 0.28336537 -0.0727278 0.0055451463 0.12047328 0.007511382
-0.053172883 0.18546171 -0.19874062 -0.12531793 -0.085066356 0.039901562 0.34598595 -0.027938314
-0.11672583 -0.12368131 0.21799804 0.32859188 -0.10724662 -0.08691938 0.08835437 -0.032533407
-0.077735424 -0.13141656 -0.13488622 0.28076556 0.17867926 0.13494651 -0.1131334 0.17954716
0.23014921 0.21493313 0.05405246 0.18824247 0.0824546 0.028017893 0.01297632 0.029571787
0.058733 -0.05360266 0.056629475 0.092270404 0.122019246 0.13759576 0.10549847 -0.15382157
-0.14899653 0.12970589 -0.025074728 -0.051258612 -0.09526787 0.03628827 0.19970287 -0.068590984
0.005448315 -0.008083316 0.03190744 0.118230104 0.049465574 -0.07808342 0.17282538 0.22640342
-0.06750947 -0.12014922 -0.15044671 -0.0016182754 -0.12869683 -0.20446745 -0.21768641 -0.051728398
0.19596717 0.102175154 0.08387549 0.0358583 0.39161357 0.071841426 0.16593908 0.120106496
-0.1250711 -0.015534325 0.121857636 -0.19507723 0.20096669 0.16419473 0.09263247 0.09351072
0.07796023 0.14973654 0.14648508 0.039546117 0.102051176 0.11396832 0.14369471 -0.14905326
0.12861274 0.17650834 -0.07100411 0.039896563 0.35683492 -0.13536459 0.21483253 -0.037541617
0.15394616 0.10457296 -0.06407835 0.13981651 -0.06071934 0.28412235 0.13436311 0.17493123
-0.09184119 0.1044952 0.0006886054 0.06895567 0.3544112 0.29205012 0.16019621 -0.19931367
-0.033674616 -0.044748936 0.11085831 0.07581403 -0.13859834 0.10110024 0.19835578 0.047648724
-0.09102456 -0.0021888653 -0.0071938937 0.10369545 -0.2644967 0.15295976 -0.21939385 0.08498818
0.06930035 0.04085053 0.08553015 -0.07107006 0.14424753 -0.32606456 0.15865192 -0.03271376
0.051100764 -0.022931045 -0.14006187 0.3478817 0.14851518 0.08033093 0.04777904 -0.14965086
0.046320207 -0.057710208 -0.10148593 0.013014898 -0.12791836 -0.033959158 -0.06289368 0.063658975
-0.12916976 0.04329275 0.08115448 -0.039948758 0.0962999 -0.13062936 0.025111806 0.047331475
-0.13866943 -0.065810755 0.008550608 0.05262135 0.12453808 -0.039493114 -0.12112551 -0.10930499
-0.14569096 -0.10534056 0.11699046 -0.04406973 -0.10900508 0.1130054 0.051231474 0.04925779
0.02190934 0.07207714 0.061254624 -0.06038447 0.07371553 -0.110624045 0.07984458 -0.032920733
-0.10583743 0.10119173 0.038818978 -0.025234757 0.053781275 -0.043455828 -0.046892643 -0.102564014
-0.11057849 -0.10263999 0.022631498 0.11933492 0.0010205918 0.063467585 0.061867386 0.027682267
-0.11300218 -0.07274586 0.027298443 -0.03717006 0.063073024 0.025165161 -0.0032113283 0.01198416
00000000: ff82 63bc 8d49 eebc d32b d8bd dc23 3bbc
00000010: d0c8 053e e426 543e e4cd 103e 43be b93c
00000020: 9919 6a3d 495c 7dbd eef5 333e cb44 13be
00000030: acc9 66be 49dc 793d 86c8 bfbc d39b 6ebc
00000040: 49ad d2bd ed03 d9bd 6a2b 113e 9834 b53d
00000050: f4ea a13d b466 d83d 0f19 983d 461d 0b3d
00000060: 132b 3b3e 5b21 0c3e 97cb 623d 6765 8ebd
00000070: 3851 0e3e 108f 43be fc6f 5ebd ea06 5f3e
00000080: b4c3 b5bd 1a7b d8bc d805 b4bd 270a be3d
00000090: 3722 03bc 16b0 613d a5ad 163e a319 50be
000000a0: c826 37bd 14b6 643c 55bc ec3d 4415 913e
000000b0: 50f2 94bd 0fb4 b53b b2ba f63d 0a22 f63b
000000c0: cfcb 59bd ade9 3d3e a982 4bbe 5853 00be
000000d0: 4537 aebd d26f 233d 1225 b13e e4de e4bc
000000e0: f40d efbd a04c fdbd e13a 5f3e 323d a83e
000000f0: 1ea4 dbbd ca02 b2bd 23f3 b43d c041 05bd
00000100: c033 9fbd 1092 06be 9d1f 0abe 81c0 8f3e
00000110: b2f7 363e 6b2f 0a3e 7cb2 e7bd 36db 373e
00000120: 3cac 6b3e 6e17 5c3e 1d66 5d3d a2c2 403e
00000130: f5dd a83d c885 e53c a29a 543c 8840 f23c
00000140: 0492 703d 768e 5bbd 4ff4 673d 44f8 bc3d
00000150: 3ae5 f93d e7e5 0c3e 950f d83d 6783 1dbe
00000160: 8c92 18be 9fd1 043e 8469 cdbc 8df4 51bd
00000170: cd1b c3bd 02a3 143d e97e 4c3e 6e79 8cbd
00000180: c787 b23b e26f 04bc 60b1 023d a022 f23d
00000190: 6a9c 4a3d 33ea 9fbd 23f9 303e 4cd6 673e
000001a0: 6842 8abd cb10 f6bd b40e 1abe 501c d4ba
000001b0: 1ac9 03be ea5f 51be 30e9 5ebe 28e1 53bd
000001c0: 9eab 483e 3541 d13d eac6 ab3d 27e0 123d
000001d0: 9381 c83e 9921 933d efeb 293e 65fa f53d
000001e0: a312 00be ae83 7ebc 7f90 f93d 53c2 47be
000001f0: 36ca 4d3e aa22 283e 18b6 bd3d 8c82 bf3d
00000200: 9da9 9f3d 8954 193e 2f00 163e 1cfb 213d
00000210: 3500 d13d 3968 e93d b524 133e 6ba1 18be
00000220: 0fb3 033e 9abe 343e 9a6a 91bd 946a 233d
00000230: 11b3 b63e 049d 0abe 0ffd 5b3e 3dc5 19bd
00000240: 10a4 1d3e 592a d63d 833b 83bd 0f2c 0f3e
00000250: d8b4 78bd 7c78 913e 7c96 093e 2c21 333e
00000260: 3c17 bcbd 9401 d63d 8783 343a a138 8d3d
00000270: 6375 b53e 9887 953e 7a0a 243e e218 4cbe
00000280: 65ee 09bd a94a 37bd ae09 e33d 6344 9b3d
00000290: b9ec 0dbe a50d cf3d c71d 4b3e 4f2b 433d
000002a0: 166b babd 1173 0fbb c1ba ebbb 485e d43d
000002b0: 1d6c 87be 7ca1 1c3e c8a8 60be 480e ae3d
000002c0: 58ed 8d3d e352 273d 6e2a af3d 2e8d 91bd
000002d0: a0b5 133e eff1 a6be a675 223e ddfe 05bd
000002e0: 094f 513d e3d9 bbbc 616c 0fbe 8d1d b23e
000002f0: 5d14 183e 8b84 a43d f4b3 433d 133e 19be
00000300: 42ba 3d3d 8a61 6cbd dbd7 cfbd 703c 553c
00000310: 08fd 02be c218 0bbd 67ce 80bd a35f 823d
00000320: 1445 04be bd53 313d 5234 a63d 4fa1 23bd
00000330: e238 c53d b4c3 05be 46b7 cd3c a6de 413d
00000340: 5cff 0dbe cac7 86bd d917 0c3c 7c89 573d
00000350: d20d ff3d 88c3 21bd a710 f8bd 4bdb dfbd
00000360: 0330 15be cbbc d7bd b298 ef3d 7682 34bd
00000370: 0e3e dfbd 606f e73d 18d8 513d 89c2 493d
00000380: 377b b33c 2e9d 933d 21e6 7a3d b555 77bd
00000390: 2bf8 963d dc8e e2bd 8e85 a33d e4d7 06bd
000003a0: 4bc1 d8bd 9c3d cf3d a600 1f3d 1fb9 cebc
000003b0: c149 5c3d bdfe 31bd 8012 40bd 150d d2bd
000003c0: fa76 e2bd ea34 d2bd b165 b93c de65 f43d
000003d0: 61c5 853a 4bfb 813d a868 7d3d ecc5 e23c
000003e0: b06d e7bd c8fb 94bd fca0 df3c a23f 18bd
000003f0: 6e2c 813d 2b27 ce3c 2675 52bb 3659 443c

fc2.bias f4 [32]
0.22444868 -0.016809247 -0.0036651099 -0.093157545 -0.06304377 -0.024329513 -0.099058315 0.20772639
-0.08156933 0.076219864 0.015597101 -0.11734808 0.114187926 0.07297833 0.18835181 -0.09742723
-0.096173055 0.013923684 0.08678764 0.1419048 0.101847515 -0.08220516 0.007062203 0.0048449263
-0.16690806 0.2017083 0.07740262 -0.05974329 -0.025062159 0.008670425 0.15126164 -0.08773633
00000000: e0d5 653e 8cb3 89bc 5732 70bb 62c9 bebd
00000010: 181d 81bd b04e c7bc 16df cabd 3ab6 543e
00000020: d20d a7bd 2919 9c3d fc8a 7f3c 3154 f0bd
00000030: 5cdb e93d aa75 953d 4cdf 403e ed87 c7bd
00000040: 61f6 c4bd 2a20 643c b8bd b13d 7e4f 113e
00000050: 6e95 d03d 2e5b a8bd 0d6a e73b 30c2 9e3b
00000060: f2e9 2abe 9f8c 4e3e 4485 9e3d 61b5 74bd
00000070: 284f cdbc 660e 0e3c 55e4 1a3e 1baf b3bd

fc3.weight f4 [10, 32]
-0.021961113 -0.00882449 0.17841704 -0.003295358 -0.06616779 -0.21702154 -0.13429387 0.11037154
-0.20255117 -0.26366752 0.020891357 -0.21369536 0.28133988 0.10229835 0.16041648 -0.1412836
0.025513725 0.11865246 -0.25732216 0.20214947 -0.005736897 -0.22566669 0.031539015 0.12973614
-0.2610425 -0.22092539 0.19090329 -0.100292824 0.10669049 -0.1696063 -0.27197874 -0.17234801
0.11203039 0.19463 0.27366206 0.09868083 -0.00637076 0.12090847 0.13990317 0.13417238
-0.042577643 -0.1469364 -0.027189933 -0.038407438 -0.28965768 -0.31284732 0.22852 -0.032825846
0.13484657 -0.2884608 0.20048751 -0.18049584 0.14159265 -0.18878263 -0.1198639 0.46585685
-0.14149025 -0.06851055 -0.19666761 -0.10015297 -0.38701773 -0.19577846 -0.022283444 0.095903486
-0.11516491 0.068363726 0.2633877 0.048596486 -0.14706513 -0.3485382 0.054445487 -0.04187207
-0.030847283 0.2604532 -0.21244468 0.24264655 0.06611753 -0.131794 0.21109103 -0.122204125
-0.08682401 0.08071647 -0.26867557 -0.29909894 -0.2609504 -0.06470946 -0.05293755 -0.2897296
0.03142572 0.06773517 0.21169737 -0.00856225 -0.10743149 0.13395153 -0.23915294 0.17258735
-0.10591427 0.0671804 -0.24128512 -0.1341737 -0.12517942 0.08893978 0.12720232 -0.08188521
-0.11209659 0.11501961 -0.093473494 -0.051762905 -0.16570587 0.2923989 0.204933 0.0047071534
-0.012963188 -0.060403623 -0.41472897 0.1151116 0.02381461 0.2170537 -0.11452366 -0.24981593
0.074869476 -0.28609845 -0.17829111 -0.048605423 -0.1757552 -0.03609775 0.10949391 0.24650376
0.33336544 -0.019502679 0.06854822 0.077551715 -0.04864274 -0.18261065 0.042829446 0.22491434
-0.06293422 0.20526111 -0.102549024 0.1922416 0.061022177 -0.092326544 -0.07001157 -0.03041691
-0.044943262 -0.16341177 -0.14689302 0.13953587 -0.0647266 -0.28279328 0.046662226 -0.28775993
-0.42096302 0.16717963 -0.090848595 -0.04221123 0.2628428 -0.09998672 0.17357469 -0.15456109
0.08094528 -0.011763316 -0.10570224 -0.114002764 0.14392313 -0.036699478 -0.001560397 -0.09249425
-0.11133727 -0.08253866 -0.31319177 0.047991123 -0.33647376 0.2119797 -0.09057109 0.116160035
0.24309678 -0.1995426 0.16920461 0.00272582 0.24418017 -0.24797124 0.1947676 -0.16981786
-0.072555035 -0.094053656 0.16050576 -0.17083704 0.0222409 0.04090518 -0.15785916 0.04664925
-0.31214234 -0.16547798 0.06850391 -0.020851213 -0.16265072 0.17117375 0.04495983 0.14261311
0.07042161 0.115059614 -0.042982552 -0.28768936 0.12604176 -0.023252403 -0.031686377 -0.13241768
0.023510372 -0.2783158 0.18114665 0.29318434 -0.12552302 0.00789275 0.28813794 -0.3657219
-0.13871525 0.1557538 0.11398402 -0.017638898 0.20071349 0.020746524 -0.35057434 0.16424233
0.054179557 0.21837597 0.02080736 -0.1212754 -0.14665414 0.03244082 -0.03530555 -0.19511501
0.0015355372 -0.1113322 -0.14739156 0.08897936 0.044378847 -0.228786 -0.14907226 0.10538202
0.26043293 0.20992798 -0.18710004 0.21034418 -0.15450183 0.16369762 -0.103839554 0.19579051
-0.0053540072 -0.16861197 0.007388354 -0.14801048 -0.2269392 0.12398993 0.24560788 -0.044057354
00000000: cbe7 b3bc 9894 10bc f5b2 363e eff6 57bb
00000010: fa82 87bd e53a 5ebe 5584 09be 790a e23d
00000020: 9369 4fbe 6eff 86be 5a24 ab3c f5d2 5abe
00000030: c80b 903e cc81 d13d 3844 243e a6ac 10be
00000040: 2902 d13c 1000 f33d bbbf 83be 4500 4f3e
00000050: 94fc bbbb 2b15 67be 0e2f 013d 8dd9 043e
00000060: 5da7 85be 443a 62be 277c 433e 5366 cdbd
00000070: 8b80 da3d 46ad 2dbe cc40 8bbe ff7b 30be
00000080: 3070 e53d 164d 473e 6f1d 8c3e 2d19 ca3d
00000090: cfc1 d0bb dc9e f73d c742 0f3e 7c64 093e
000000a0: e565 2ebd 7f76 16be 6cbd debc 1e51 1dbd
000000b0: 034e 94be 862d a0be 2601 6a3e 6574 06bd
000000c0: 3815 0a3e 22b1 93be 994c 4d3e e7d3 38be
000000d0: aafd 103e 3c50 41be 347b f5bd ca84 ee3e
000000e0: d2e2 10be 424f 8cbd 3c63 49be 001d cdbd
000000f0: 3027 c6be 267a 48be c58b b6bc 0c69 c43d
00000100: 95db ebbd 4802 8c3d c1da 863e 1c0d 473d
00000110: 3e98 16be 9973 b2be 3b02 5f3d 0c82 2bbd
00000120: 71b3 fcbc 1f5a 853e 198b 59be 5678 783e
00000130: a168 873d 02f5 06be 3f28 583e 2846 fabd
00000140: c9d0 b1bd ad4e a53d d88f 89be 7f23 99be
00000150: 4a9b 85be 6586 84bd 0bd5 58bd 7057 94be
00000160: 41b8 003d bdb8 8a3d 32c7 583e ae48 0cbc
00000170: 0b05 dcbd 972a 093e 82e4 74be bdba 303e
00000180: 95e9 d8bd e195 893d 7213 77be d564 09be
00000190: 092f 00be 0f26 b63d 5341 023e 6fb3 a7bd
000001a0: e692 e5bd 678f eb3d 086f bfbd 5705 54bd
000001b0: cdae 29be 4fb5 953e f5d9 513e 773e 9a3b
000001c0: 8d63 54bc ca69 77bd 5b57 d4be a1bf eb3d
000001d0: db16 c33c 5343 5e3e 618b eabd bfcf 7fbe
000001e0: 2b55 993d 7f7b 92be f291 36be 7b16 47bd
000001f0: 2cf9 33be 3cdb 13bd 583e e03d 7b6b 7c3e
00000200: e0ae aa3e 15c4 9fbc 0263 8c3d 6fd3 9e3d
00000210: 9c3d 47bd 49fe 3abe ee6d 2f3d f24f 663e
00000220: a8e3 80bd f82f 523e 3905 d2bd fbda 443e
00000230: 64f2 793d b315 bdbd 3a62 8fbd e22c f9bc
00000240: 6d16 38bd 6a55 27be 206b 16be 7ee2 0e3e
00000250: 618f 84bd 48ca 90be e420 3f3d 4555 93be
00000260: 7788 d7be 2331 2b3e d40e babd afe5 2cbd
00000270: 5593 863e d6c5 ccbd 90bd 313e 4345 1ebe
00000280: a4c6 a53d ecba 40bc 6a7a d8bd 487a e9bd
00000290: 9660 133e 3152 16bd 3c86 ccba a06d bdbd
000002a0: cb04 e4bd 070a a9bd ac5a a0be 5792 443d
000002b0: 4a46 acbe 3511 593e 567d b9bd 50e5 ed3d
000002c0: 5dee 783e e554 4cbe f943 2d3e aca3 323b
000002d0: 5e0a 7a3e 2cec 7dbe 2871 473e bce4 2dbe
000002e0: bc97 94bd 349f c0bd 9f5b 243e e8ef 2ebe
000002f0: 8c32 b63c 318c 273d d5a5 21be 4913 3f3d
00000300: 1fd1 9fbe 0f73 29be c74b 8c3d 2ad0 aabc
00000310: e98d 26be 2c48 2f3e cc27 383d 2c09 123e
00000320: 3439 903d 60a4 eb3d 790e 30bd 054c 93be
00000330: 1711 013e d37b bebc 93c9 01bd 8098 07be
00000340: d398 c03c 697f 8ebe 827e 393e 421c 963e
00000350: 1b89 00be 9850 013c d186 933e e73f bbbe
00000360: 5f0b 0ebe ed7d 1f3e 7470 e93d 737f 90bc
00000370: d687 4d3e 9df4 a93c 7b7e b3be 242f 283e
00000380: 62eb 5d3d f39d 5f3e 3274 aa3c 3d5f f8bd
00000390: 812c 16be aae0 043d 8d9c 10bd 3bcc 47be
000003a0: 1444 c93a 2302 e4bd d0ed 16be d03a b63d
000003b0: 98c6 353d e146 6abe 66a6 18be 87d2 d73d
000003c0: 7757 853e 5cf7 563e 2797 3fbe 7764 573e
000003d0: ba35 1ebe 59a0 273e d5a9 d4bd 4f7d 483e
000003e0: ab70 afbb 9ea8 2cbe 011a f23b 0f90 17be
000003f0: c062 68be 6fee fd3d a280 7b3e 7c75 34bd

fc3.bias f4 [10]
0.10032182 -0.031015921 0.11664189 0.16338111 0.027984444 -0.082019225 0.14763677 0.013780208
-0.12151542 0.051432293
00000000: 8775 cd3d 1a15 febc f1e1 ee3d 614d 273e
00000010: a23f e53c b2f9 a7bd 182e 173e 62c6 613c
00000020: 14dd f8bd abaa 523d
