ch6/data/l2filter_pruned.pth (torch, 242369 bytes, 12 tensors)

conv1.weight f4 [16, 1, 5, 5]
0	0x00000000	0.0
1	0x80000000	-0.0
2	0x80000000	-0.0
3	0x80000000	-0.0
4	0x00000000	0.0
5	0x80000000	-0.0
6	0x80000000	-0.0
7	0x80000000	-0.0
8	0x80000000	-0.0
9	0x00000000	0.0
10	0x00000000	0.0
11	0x00000000	0.0
12	0x00000000	0.0
13	0x00000000	0.0
14	0x80000000	-0.0
15	0x00000000	0.0
16	0x00000000	0.0
17	0x80000000	-0.0
18	0x00000000	0.0
19	0x80000000	-0.0
20	0x00000000	0.0
21	0x00000000	0.0
22	0x00000000	0.0
23	0x00000000	0.0
24	0x80000000	-0.0
25	0x00000000	0.0
26	0x80000000	-0.0
27	0x00000000	0.0
28	0x80000000	-0.0
29	0x80000000	-0.0
30	0x80000000	-0.0
31	0x80000000	-0.0
32	0x00000000	0.0
33	0x80000000	-0.0
34	0x00000000	0.0
35	0x00000000	0.0
36	0x80000000	-0.0
37	0x00000000	0.0
38	0x00000000	0.0
39	0x00000000	0.0
40	0x00000000	0.0
41	0x00000000	0.0
42	0x00000000	0.0
43	0x00000000	0.0
44	0x00000000	0.0
45	0x80000000	-0.0
46	0x00000000	0.0
47	0x00000000	0.0
48	0x00000000	0.0
49	0x80000000	-0.0
50	0x3e508f7b	0.20367233
51	0x3eb7329e	0.35780805
52	0x3ec596ca	0.38591605
53	0x3dd44d09	0.10366256
54	0x3d8c7e5c	0.06860039
55	0x3db0412d	0.08606181
56	0x3eb566a8	0.35429883
57	0x3d6ea35d	0.058261264
58	0xbe8dbaab	-0.2768148
59	0x3dee8260	0.11645961
60	0x3e897059	0.26843527
61	0x3e98bd79	0.29832056
62	0xbec2b03b	-0.38025078
63	0xbf1081ef	-0.5644826
64	0xbe039721	-0.1285062
65	0xbdd8f87c	-0.1059427
66	0xbd7bc69f	-0.061468717
67	0xbe1acd12	-0.1511729
68	0xbea6ffa0	-0.326169
69	0x3d966be6	0.07344799
70	0x3e0fb3ef	0.14033483
71	0xbe487ea8	-0.19579566
72	0x3e39b8c9	0.18136896
73	0xbd6da45b	-0.05801807
74	0x3e1d834a	0.15382114
75	0x80000000	-0.0
76	0x00000000	0.0
77	0x00000000	0.0
78	0x00000000	0.0
79	0x00000000	0.0
80	0x80000000	-0.0
81	0x00000000	0.0
82	0x00000000	0.0
83	0x00000000	0.0
84	0x00000000	0.0
85	0x00000000	0.0
86	0x80000000	-0.0
87	0x80000000	-0.0
88	0x00000000	0.0
89	0x80000000	-0.0
90	0x80000000	-0.0
91	0x80000000	-0.0
92	0x00000000	0.0
93	0x80000000	-0.0
94	0x00000000	0.0
95	0x80000000	-0.0
96	0x80000000	-0.0
97	0x00000000	0.0
98	0x00000000	0.0
99	0x80000000	-0.0
100	0x00000000	0.0
101	0x80000000	-0.0
102	0x00000000	0.0
103	0x00000000	0.0
104	0x80000000	-0.0
105	0x00000000	0.0
106	0x00000000	0.0
107	0x00000000	0.0
108	0x80000000	-0.0
109	0x00000000	0.0
110	0x00000000	0.0
111	0x80000000	-0.0
112	0x80000000	-0.0
113	0x00000000	0.0
114	0x80000000	-0.0
115	0x80000000	-0.0
116	0x00000000	0.0
117	0x00000000	0.0
118	0x80000000	-0.0
119	0x80000000	-0.0
120	0x00000000	0.0
121	0x00000000	0.0
122	0x80000000	-0.0
123	0x80000000	-0.0
124	0x00000000	0.0
125	0xbe9ad8d6	-0.30243558
126	0xbf01413a	-0.5049015
127	0xbe615e62	-0.2200866
128	0x3d91bbfa	0.07115932
129	0x3e91b155	0.28455606
130	0xbe6cd4a2	-0.23127988
131	0xbeffc9af	-0.4995856
132	0xbec4f39f	-0.38467118
133	0xbe43f111	-0.19134928
134	0xbc1663ab	-0.009179036
135	0x3d91f469	0.07126696
136	0x3e26ccc1	0.16289045
137	0x3dcbd7e9	0.09953291
138	0x3d9abf79	0.07556052
139	0x3e0c99f2	0.137306
140	0x3edcad38	0.43100905
141	0x3edb133f	0.4278812
142	0x3d202079	0.03909347
143	0x3e703957	0.23459373
144	0x3d9e4398	0.07727736
145	0x3e3760a2	0.17907956
146	0x3eceea72	0.40413243
147	0x3d7955e1	0.060872916
148	0x3db0bb77	0.08629506
149	0x3d5f5274	0.054521993
150	0x00000000	0.0
151	0x00000000	0.0
152	0x00000000	0.0
153	0x80000000	-0.0
154	0x80000000	-0.0
155	0x00000000	0.0
156	0x00000000	0.0
157	0x00000000	0.0
158	0x80000000	-0.0
159	0x80000000	-0.0
160	0x80000000	-0.0
161	0x80000000	-0.0
162	0x80000000	-0.0
163	0x00000000	0.0
164	0x00000000	0.0
165	0x80000000	-0.0
166	0x80000000	-0.0
167	0x80000000	-0.0
168	0x00000000	0.0
169	0x80000000	-0.0
170	0x80000000	-0.0
171	0x80000000	-0.0
172	0x80000000	-0.0
173	0x80000000	-0.0
174	0x00000000	0.0
175	0x80000000	-0.0
176	0x80000000	-0.0
177	0x00000000	0.0
178	0x00000000	0.0
179	0x80000000	-0.0
180	0x80000000	-0.0
181	0x00000000	0.0
182	0x80000000	-0.0
183	0x80000000	-0.0
184	0x80000000	-0.0
185	0x00000000	0.0
186	0x00000000	0.0
187	0x00000000	0.0
188	0x00000000	0.0
189	0x80000000	-0.0
190	0x80000000	-0.0
191	0x00000000	0.0
192	0x00000000	0.0
193	0x00000000	0.0
194	0x80000000	-0.0
195	0x80000000	-0.0
196	0x80000000	-0.0
197	0x00000000	0.0
198	0x80000000	-0.0
199	0x00000000	0.0
200	0x3d3d0d4f	0.04615527
201	0x3edaf311	0.4276357
202	0x3e8a9870	0.27069426
203	0x3e840e05	0.25791946
204	0x3e58f69a	0.21187821
205	0xbe08daf6	-0.13364777
206	0xbd8754e2	-0.06607987
207	0x3dd56111	0.104189046
208	0x3e31df5a	0.17370358
209	0xbd3408a0	-0.043953538
210	0xbe1bb989	-0.15207495
211	0xbeb96577	-0.36210224
212	0xbdc3578f	-0.09538185
213	0xbee36a9c	-0.44417274
214	0xbed9e73b	-0.42559227
215	0xbe865a2a	-0.26240665
216	0xbe564be5	-0.20927389
217	0xbf29013c	-0.6601751
218	0xbf31caff	-0.6945037
219	0xbd364df5	-0.04450794
220	0x3e180fef	0.14849828
221	0xbe8d4df9	-0.2759855
222	0xbe9ecfc8	-0.310179
223	0x3e78341e	0.24238631
224	0x3e12cc0d	0.14335652
225	0x80000000	-0.0
226	0x80000000	-0.0
227	0x80000000	-0.0
228	0x80000000	-0.0
229	0x00000000	0.0
230	0x00000000	0.0
231	0x80000000	-0.0
232	0x80000000	-0.0
233	0x80000000	-0.0
234	0x80000000	-0.0
235	0x00000000	0.0
236	0x00000000	0.0
237	0x00000000	0.0
238	0x00000000	0.0
239	0x00000000	0.0
240	0x00000000	0.0
241	0x00000000	0.0
242	0x00000000	0.0
243	0x00000000	0.0
244	0x00000000	0.0
245	0x80000000	-0.0
246	0x80000000	-0.0
247	0x80000000	-0.0
248	0x80000000	-0.0
249	0x80000000	-0.0
250	0x00000000	0.0
251	0x80000000	-0.0
252	0x00000000	0.0
253	0x00000000	0.0
254	0x00000000	0.0
255	0x80000000	-0.0

conv1.bias f4 [16]
0	0x00000000	0.0
1	0x00000000	0.0
2	0x3db92417	0.09040087
3	0x00000000	0.0
4	0x00000000	0.0
5	0x3eb24fa8	0.34826398
6	0x00000000	0.0
7	0x00000000	0.0
8	0x3ee52532	0.4475494
9	0x00000000	0.0
10	0x00000000	0.0
11	0x80000000	-0.0
12	0x3e24034f	0.16016887
13	0x80000000	-0.0
14	0x80000000	-0.0
15	0x80000000	-0.0

conv2.weight f4 [32, 16, 5, 5]
0	0xbca2087b	-0.019779434
1	0xbc6d9247	-0.014500207
2	0xbcd67a09	-0.026181238
3	0xbe2ff0dc	-0.17181724
4	0xbe8591a2	-0.26087672
5	0xbdbe713e	-0.09298943
6	0xbd67191b	-0.056420427
7	0x3d32a773	0.043616723
8	0xbdd32652	-0.103100434
9	0xbd44b345	-0.048022527
10	0xbde5ccd5	-0.11220709
11	0x3b6124b7	0.003435416
12	0x3e082096	0.1329368
13	0x3e50cc4b	0.20390432
14	0x3e1c5fc3	0.15270905
15	0xbdc57b80	-0.096426964
16	0xbcc808f2	-0.024418328
17	0x3db0a037	0.086243086
18	0x3e0b1b18	0.13584554
19	0x3e8a07f8	0.26959205
20	0xbda9294b	-0.08259829
21	0xbd9ede80	-0.07757282
22	0x3d77e257	0.06051859
23	0x3e347115	0.17621262
24	0x3e74170d	0.23836918
25	0xbddfad3b	-0.10921713
26	0xbe4d7a20	-0.20066118
27	0xbebe407e	-0.3715858
28	0xbe986f65	-0.29772487
29	0xbd924294	-0.07141605
30	0xbe85a002	-0.2609864
31	0xbe4ad3c3	-0.19807343
32	0xbecf053e	-0.40433687
33	0xbec70f31	-0.38878778
34	0xbd94f560	-0.07273364
35	0xbe04aeb5	-0.1295727
36	0x3da1034a	0.078619555
37	0xbe675c8a	-0.22593895
38	0xbe308762	-0.17239144
39	0xbd23a7e7	-0.039955046
40	0x3d6e0207	0.058107402
41	0x3e7858c1	0.24252607
42	0x3e60ad95	0.21941216
43	0x3e8801a3	0.2656375
44	0x3e30da62	0.17270806
45	0x3e260e2e	0.16216347
46	0x3e9f09f9	0.31062296
47	0x3eaae1f9	0.33375528
48	0x3e828cb0	0.2549796
49	0x3e4fe7c8	0.20303261
50	0xbd0eb589	-0.034841094
51	0x3d4f970e	0.050681166
52	0xbc4741e9	-0.01216171
53	0x3d2023df	0.03909671
54	0x3e2b92e4	0.16755253
55	0x3c046283	0.008080128
56	0x3de52944	0.111895114
57	0x3da30c73	0.07961359
58	0x3b9afd64	0.0047299135
59	0xbcf668db	-0.030079296
60	0xbd6cdae0	-0.057825923
61	0x3db1e579	0.086863466
62	0x3e491d05	0.19639976
63	0xbc9f921a	-0.019478846
64	0xbdb3b490	-0.08774674
65	0xbe14397d	-0.14475055
66	0xbd5474b8	-0.051869124
67	0xbd9b57d2	-0.0758511
68	0xbe46715a	-0.19379178
69	0xbe8d7250	-0.27626276
70	0xbdeaa52c	-0.11457285
71	0xbda2f847	-0.079575114
72	0xbe6b9c2e	-0.23008797
73	0xbdb57e89	-0.08862025
74	0x3d54fdda	0.051999904
75	0x3b0ce9d3	0.0021501675
76	0xbd200f93	-0.039077353
77	0x3d6c1543	0.057637464
78	0x3e3654bf	0.17805766
79	0x3df16a87	0.117878966
80	0xbd13e206	-0.036104225
81	0xbd9a310f	-0.075288884
82	0xbc406025	-0.011741673
83	0x3d3da551	0.046300236
84	0x3d1ad1d3	0.03779776
85	0xbc9b0c9c	-0.018926911
86	0xbdc21c65	-0.09478072
87	0xbd46b728	-0.048514515
88	0xbcfe987c	-0.03107857
89	0x3c08bc48	0.008345671
90	0xbd2254c8	-0.039631635
91	0xbe0152c4	-0.12629229
92	0xbdf0ef23	-0.11764362
93	0xbde67711	-0.11253179
94	0xbdfccbdb	-0.1234357
95	0x3b22f904	0.0024867663
96	0x3caf83c6	0.02142514
97	0x3d340c3c	0.04395698
98	0xbd90ddeb	-0.070735775
99	0xbdea0840	-0.11427355
100	0xbb2cca2a	-0.0026365616
101	0x3db8c548	0.090220034
102	0x3d8f2025	0.06988553
103	0x3d9e3960	0.07725787
104	0xbb27c554	-0.0025599794
105	0x3da4f55f	0.08054613
106	0x3dd0f455	0.10202853
107	0x3d298c8b	0.041393798
108	0x3d5a3805	0.05327608
109	0xbcdbe2ba	-0.02684151
110	0xbcae588d	-0.021282459
111	0xbcd6b080	-0.026207209
112	0xbcdb411c	-0.026764445
113	0xbde0b076	-0.10971157
114	0xbca9e908	-0.020741
115	0xbd00d1f2	-0.03145022
116	0xbdf9d03a	-0.12197919
117	0xbe0cf05d	-0.13763566
118	0xbd802aa2	-0.062581316
119	0x3cde58e4	0.027141996
120	0x3cc546cd	0.024081612
121	0xbce9538e	-0.028482225
122	0xbd5e90c3	-0.054337274
123	0x3def0025	0.116699494
124	0x3d9b8000	0.075927734
125	0x3d5950db	0.053055625
126	0x3dda4f88	0.10659701
127	0x3defb009	0.11703498
128	0xbded7b13	-0.1159574
129	0xbe738950	-0.2378285
130	0x3d98752a	0.07444222
131	0xbd16cbf3	-0.036815595
132	0xbb1e5047	-0.0024156736
133	0xbdf2caee	-0.11855112
134	0xbda3721d	-0.0798075
135	0x3d643098	0.055710405
136	0xbcb38544	-0.021914132
137	0x3daa0692	0.083020344
138	0x3e5276f6	0.20553192
139	0x3e9a782e	0.30169815
140	0x3deae254	0.1146895
141	0x3d396fd2	0.045272656
142	0x3e145405	0.14485176
143	0x3eba8a3a	0.36433583
144	0x3ec68072	0.3876987
145	0x3e1de83e	0.15420625
146	0x3e29d2d3	0.1658433
147	0x3e330bd8	0.17484987
148	0x3e8642b0	0.26222754
149	0x3e8334a5	0.25626102
150	0x3d076799	0.033057783
151	0xbd329e5b	-0.04360805
152	0xbc1cce35	-0.009570648
153	0x3e0acdbc	0.13555044
154	0x3e416640	0.18886662
155	0x3d0cc3f0	0.034366548
156	0x3da7fbfe	0.082023606
157	0x3c8d6437	0.0172597
158	0x3dd55821	0.104172
159	0x3e5a95b5	0.21346171
160	0x3dc7becb	0.09753188
161	0x3d8968ec	0.067094654
162	0xbc6c9e32	-0.014442014
163	0xbd2296bb	-0.03969453
164	0x3c5fb196	0.01365318
165	0x3d368445	0.044559736
166	0x3ca42117	0.02003531
167	0xbe1ef2a2	-0.15522245
168	0xbea80bea	-0.3282159
169	0xbeafec38	-0.34359908
170	0x3bab5597	0.005228709
171	0x3df41740	0.11918497
172	0x3bbb9d15	0.0057255127
173	0xbe4432e7	-0.19160043
174	0xbe89de05	-0.269272
175	0x3d949d2f	0.07256543
176	0x393ec109	0.00018191723
177	0xbd2296ce	-0.0396946
178	0x3cca8a8c	0.024724267
179	0xbb8cd5a3	-0.0042979284
180	0x3c92d463	0.01792354
181	0x3d816394	0.06317821
182	0xbd72d3dc	-0.059284076
183	0xbd105f32	-0.035247035
184	0xbd5de3e1	-0.0541724
185	0x3d1c1b93	0.038112234
186	0x3d215c39	0.03939459
187	0xbcb62182	-0.022232775
188	0x3c82d39c	0.015970044
189	0x3cbe5922	0.023235861
190	0x3dd7d13b	0.105379544
191	0x3d34bcc8	0.04412535
192	0x3ce5fe15	0.028075257
193	0x3d946651	0.07246078
194	0x3d9bfee8	0.07616979
195	0x3923714c	0.00015587098
196	0x3d51527d	0.051104058
197	0x3e2eefda	0.17083684
198	0x3dc85f19	0.097837634
199	0x3e2b5278	0.16730678
200	0x3cb822f5	0.022477606
201	0xbda54e4b	-0.08071574
202	0xbd08e883	-0.033424865
203	0x3e23b2ad	0.15986128
204	0x3e619e3c	0.22033018
205	0x3d64b7b1	0.055839244
206	0xbc3ecd63	-0.011645648
207	0x3e32b637	0.17452322
208	0x3e542c49	0.20720018
209	0x3e26080d	0.16214009
210	0x3e628504	0.22121054
211	0x3e200ed8	0.15630662
212	0x3e1ac965	0.15115888
213	0x3d18da5e	0.037317626
214	0x3dfa841f	0.12232231
215	0xbdcfaa1b	-0.10139867
216	0xbe49214c	-0.19641608
217	0xbeaab377	-0.33340046
218	0xbe8d80ab	-0.27637228
219	0xbe96b160	-0.294322
220	0xbea0018c	-0.3125118
221	0xbf03a615	-0.51425296
222	0xbee6dc66	-0.45090026
223	0xbefbd71a	-0.49187547
224	0xbe828a0f	-0.25495955
225	0x3d38ed4c	0.04514818
226	0x3c5447ea	0.012956599
227	0xbd9f2de6	-0.07772426
228	0xbd877f4b	-0.06616076
229	0xbdfeb183	-0.124362014
230	0xbe2999f5	-0.16562636
231	0xbdb18bd3	-0.086692475
232	0xbe64e8d0	-0.22354436
233	0xbe75aa05	-0.23990639
234	0xbe81d6ae	-0.253591
235	0xbdb8fd09	-0.090326376
236	0xbdf47433	-0.11936226
237	0xbdb421dd	-0.087955214
238	0xbd9dc347	-0.07703262
239	0xbd82c67e	-0.06385516
240	0x3d008541	0.03137708
241	0x3c9634cc	0.018335722
242	0x3dffbfda	0.12487765
243	0x3df1e459	0.11811132
244	0x3e1a6875	0.1507891
245	0xbb12e32e	-0.0022413242
246	0x3e23e85e	0.1600661
247	0x3e5ef2c1	0.21772291
248	0x3e42c39f	0.19019936
249	0x3e7b400b	0.24536149
250	0x3d866205	0.065616645
251	0x3d33a8aa	0.043862022
252	0x3dd94e38	0.10610622
253	0x3da3914f	0.079867
254	0x3e181668	0.14852297
255	0x3cdac9bc	0.026707523

conv2.bias f4 [32]
0	0x3ddd7057	0.10812443
1	0x3e5794d7	0.21052872
2	0x00000000	0.0
3	0x00000000	0.0
4	0x00000000	0.0
5	0x00000000	0.0
6	0x00000000	0.0
7	0x00000000	0.0
8	0x00000000	0.0
9	0x00000000	0.0
10	0x00000000	0.0
11	0x3e624d28	0.22099745
12	0x00000000	0.0
13	0x00000000	0.0
14	0x80000000	-0.0
15	0x3c8a1602	0.016856197
16	0x00000000	0.0
17	0x00000000	0.0
18	0x00000000	0.0
19	0x3e0c8656	0.1372312
20	0x00000000	0.0
21	0x00000000	0.0
22	0xbdcb4b56	-0.099264786
23	0x00000000	0.0
24	0x00000000	0.0
25	0x00000000	0.0
26	0x00000000	0.0
27	0x00000000	0.0
28	0x80000000	-0.0
29	0x00000000	0.0
30	0x3dce0460	0.10059428
31	0x80000000	-0.0

conv3.weight f4 [32, 32, 5, 5]
0	0x00000000	0.0
1	0x00000000	0.0
2	0x00000000	0.0
3	0x80000000	-0.0
4	0x00000000	0.0
5	0x00000000	0.0
6	0x00000000	0.0
7	0x00000000	0.0
8	0x80000000	-0.0
9	0x00000000	0.0
10	0x00000000	0.0
11	0x00000000	0.0
12	0x00000000	0.0
13	0x80000000	-0.0
14	0x80000000	-0.0
15	0x00000000	0.0
16	0x00000000	0.0
17	0x80000000	-0.0
18	0x80000000	-0.0
19	0x80000000	-0.0
20	0x00000000	0.0
21	0x80000000	-0.0
22	0x80000000	-0.0
23	0x80000000	-0.0
24	0x80000000	-0.0
25	0x80000000	-0.0
26	0x80000000	-0.0
27	0x80000000	-0.0
28	0x80000000	-0.0
29	0x80000000	-0.0
30	0x80000000	-0.0
31	0x80000000	-0.0
32	0x80000000	-0.0
33	0x80000000	-0.0
34	0x80000000	-0.0
35	0x00000000	0.0
36	0x00000000	0.0
37	0x00000000	0.0
38	0x00000000	0.0
39	0x00000000	0.0
40	0x00000000	0.0
41	0x80000000	-0.0
42	0x00000000	0.0
43	0x00000000	0.0
44	0x00000000	0.0
45	0x80000000	-0.0
46	0x80000000	-0.0
47	0x80000000	-0.0
48	0x80000000	-0.0
49	0x80000000	-0.0
50	0x80000000	-0.0
51	0x80000000	-0.0
52	0x80000000	-0.0
53	0x80000000	-0.0
54	0x80000000	-0.0
55	0x80000000	-0.0
56	0x80000000	-0.0
57	0x80000000	-0.0
58	0x00000000	0.0
59	0x00000000	0.0
60	0x00000000	0.0
61	0x00000000	0.0
62	0x00000000	0.0
63	0x00000000	0.0
64	0x00000000	0.0
65	0x00000000	0.0
66	0x00000000	0.0
67	0x00000000	0.0
68	0x00000000	0.0
69	0x00000000	0.0
70	0x80000000	-0.0
71	0x00000000	0.0
72	0x00000000	0.0
73	0x00000000	0.0
74	0x80000000	-0.0
75	0x80000000	-0.0
76	0x80000000	-0.0
77	0x80000000	-0.0
78	0x80000000	-0.0
79	0x80000000	-0.0
80	0x80000000	-0.0
81	0x80000000	-0.0
82	0x80000000	-0.0
83	0x80000000	-0.0
84	0x00000000	0.0
85	0x80000000	-0.0
86	0x00000000	0.0
87	0x80000000	-0.0
88	0x80000000	-0.0
89	0x00000000	0.0
90	0x00000000	0.0
91	0x00000000	0.0
92	0x00000000	0.0
93	0x00000000	0.0
94	0x00000000	0.0
95	0x80000000	-0.0
96	0x80000000	-0.0
97	0x80000000	-0.0
98	0x00000000	0.0
99	0x00000000	0.0
100	0x80000000	-0.0
101	0x80000000	-0.0
102	0x80000000	-0.0
103	0x80000000	-0.0
104	0x80000000	-0.0
105	0x00000000	0.0
106	0x00000000	0.0
107	0x80000000	-0.0
108	0x80000000	-0.0
109	0x80000000	-0.0
110	0x00000000	0.0
111	0x80000000	-0.0
112	0x00000000	0.0
113	0x00000000	0.0
114	0x00000000	0.0
115	0x00000000	0.0
116	0x00000000	0.0
117	0x00000000	0.0
118	0x00000000	0.0
119	0x00000000	0.0
120	0x80000000	-0.0
121	0x80000000	-0.0
122	0x00000000	0.0
123	0x80000000	-0.0
124	0x00000000	0.0
125	0x80000000	-0.0
126	0x80000000	-0.0
127	0x80000000	-0.0
128	0x80000000	-0.0
129	0x80000000	-0.0
130	0x80000000	-0.0
131	0x80000000	-0.0
132	0x80000000	-0.0
133	0x80000000	-0.0
134	0x80000000	-0.0
135	0x80000000	-0.0
136	0x00000000	0.0
137	0x80000000	-0.0
138	0x80000000	-0.0
139	0x00000000	0.0
140	0x00000000	0.0
141	0x80000000	-0.0
142	0x80000000	-0.0
143	0x80000000	-0.0
144	0x80000000	-0.0
145	0x80000000	-0.0
146	0x80000000	-0.0
147	0x80000000	-0.0
148	0x00000000	0.0
149	0x00000000	0.0
150	0x80000000	-0.0
151	0x80000000	-0.0
152	0x80000000	-0.0
153	0x80000000	-0.0
154	0x80000000	-0.0
155	0x80000000	-0.0
156	0x80000000	-0.0
157	0x80000000	-0.0
158	0x80000000	-0.0
159	0x80000000	-0.0
160	0x00000000	0.0
161	0x00000000	0.0
162	0x00000000	0.0
163	0x00000000	0.0
164	0x00000000	0.0
165	0x00000000	0.0
166	0x00000000	0.0
167	0x00000000	0.0
168	0x00000000	0.0
169	0x00000000	0.0
170	0x80000000	-0.0
171	0x80000000	-0.0
172	0x80000000	-0.0
173	0x80000000	-0.0
174	0x00000000	0.0
175	0x80000000	-0.0
176	0x80000000	-0.0
177	0x00000000	0.0
178	0x00000000	0.0
179	0x80000000	-0.0
180	0x80000000	-0.0
181	0x80000000	-0.0
182	0x80000000	-0.0
183	0x80000000	-0.0
184	0x80000000	-0.0
185	0x80000000	-0.0
186	0x00000000	0.0
187	0x00000000	0.0
188	0x00000000	0.0
189	0x00000000	0.0
190	0x00000000	0.0
191	0x00000000	0.0
192	0x80000000	-0.0
193	0x00000000	0.0
194	0x00000000	0.0
195	0x00000000	0.0
196	0x80000000	-0.0
197	0x80000000	-0.0
198	0x00000000	0.0
199	0x00000000	0.0
200	0x80000000	-0.0
201	0x00000000	0.0
202	0x00000000	0.0
203	0x00000000	0.0
204	0x80000000	-0.0
205	0x80000000	-0.0
206	0x80000000	-0.0
207	0x80000000	-0.0
208	0x80000000	-0.0
209	0x80000000	-0.0
210	0x80000000	-0.0
211	0x80000000	-0.0
212	0x00000000	0.0
213	0x80000000	-0.0
214	0x80000000	-0.0
215	0x00000000	0.0
216	0x00000000	0.0
217	0x00000000	0.0
218	0x80000000	-0.0
219	0x80000000	-0.0
220	0x00000000	0.0
221	0x00000000	0.0
222	0x80000000	-0.0
223	0x80000000	-0.0
224	0x00000000	0.0
225	0x80000000	-0.0
226	0x80000000	-0.0
227	0x80000000	-0.0
228	0x80000000	-0.0
229	0x00000000	0.0
230	0x80000000	-0.0
231	0x80000000	-0.0
232	0x80000000	-0.0
233	0x00000000	0.0
234	0x00000000	0.0
235	0x00000000	0.0
236	0x00000000	0.0
237	0x00000000	0.0
238	0x80000000	-0.0
239	0x00000000	0.0
240	0x00000000	0.0
241	0x80000000	-0.0
242	0x80000000	-0.0
243	0x80000000	-0.0
244	0x80000000	-0.0
245	0x80000000	-0.0
246	0x80000000	-0.0
247	0x80000000	-0.0
248	0x80000000	-0.0
249	0x80000000	-0.0
250	0x80000000	-0.0
251	0x80000000	-0.0
252	0x80000000	-0.0
253	0x80000000	-0.0
254	0x80000000	-0.0
255	0x00000000	0.0

conv3.bias f4 [32]
0	0x80000000	-0.0
1	0x80000000	-0.0
2	0x00000000	0.0
3	0x80000000	-0.0
4	0x80000000	-0.0
5	0x00000000	0.0
6	0x80000000	-0.0
7	0x80000000	-0.0
8	0x80000000	-0.0
9	0x00000000	0.0
10	0x00000000	0.0
11	0x80000000	-0.0
12	0x3deb9b44	0.11504224
13	0x00000000	0.0
14	0x80000000	-0.0
15	0x3c776826	0.0151005145
16	0xbdb5130c	-0.088415235
17	0x00000000	0.0
18	0x00000000	0.0
19	0x80000000	-0.0
20	0x80000000	-0.0
21	0x00000000	0.0
22	0x3deef81e	0.11668418
23	0x80000000	-0.0
24	0xbcf863a9	-0.03032096
25	0x80000000	-0.0
26	0x00000000	0.0
27	0x3bed09d4	0.0072338376
28	0x3c88c653	0.01669613
29	0x80000000	-0.0
30	0x00000000	0.0
31	0x80000000	-0.0

fc1.weight f4 [64, 288]
0	0x3d08395f	0.03325784
1	0x3dfbe830	0.123001456
2	0x3bdfcd5c	0.0068299007
3	0x3c97829d	0.018494898
4	0xba2344fb	-0.00062282354
5	0x3da0a8f2	0.07844724
6	0xbb976f57	-0.004621427
7	0x3d7883d4	0.060672596
8	0xbcbe6ad6	-0.023244303
9	0x3c840319	0.016114758
10	0xbdc9cd0c	-0.09853563
11	0xbd72e898	-0.05930385
12	0xbd29036f	-0.04126304
13	0x3de98eda	0.114042
14	0x3c32cab5	0.010912587
15	0xbe15de65	-0.14635618
16	0xbb433105	-0.0029783857
17	0xbd94c755	-0.07264582
18	0x3dc316e5	0.09525851
19	0x3ce3cff4	0.02780912
20	0x3d87f3d5	0.06638304
21	0x3a6037db	0.0008553245
22	0x3cc2f7aa	0.023799736
23	0x3df9f23a	0.12204404
24	0xbbfe2a5e	-0.0077565154
25	0xbd97add6	-0.074062034
26	0xbae947e6	-0.0017797917
27	0x3db7f7fe	0.08982848
28	0x3d6f7070	0.058456838
29	0x3d1dedb1	0.03855676
30	0x3d1b500a	0.037918128
31	0xbd4eafa2	-0.050460465
32	0xbd041103	-0.032242786
33	0xbc33d952	-0.010977106
34	0x3dbba0c2	0.091615215
35	0xbd897013	-0.067108296
36	0x3ca14353	0.019685423
37	0xbcb6ddda	-0.022322584
38	0x3c9a10a8	0.01880677
39	0x3d9341d7	0.07190292
40	0xbd2c8153	-0.04211552
41	0x3d861109	0.06546218
42	0x3c259ae7	0.010107732
43	0x3b3b2f24	0.0028562034
44	0xbcd0c3f0	-0.025484055
45	0xbd1c5fe9	-0.038177405
46	0x3d314b34	0.04328461
47	0x3cfda781	0.030963661
48	0x3d805d3b	0.06267782
49	0xbcc694f3	-0.024240946
50	0x3cc2cd8b	0.023779651
51	0x3dcdccf3	0.100488566
52	0xbce4d802	-0.027935032
53	0xbd5c0ab8	-0.05372116
54	0xbb811676	-0.003939445
55	0xbdc9277d	-0.09821985
56	0x3d8d710c	0.069063276
57	0x3d907a0d	0.07054529
58	0xba5ca44f	-0.0008416818
59	0x3cdec6e8	0.027194455
60	0x3d5a502c	0.053299114
61	0x3d25dcfb	0.040493947
62	0xbe061dee	-0.13097355
63	0xbdd8e586	-0.10590653
64	0xbd50d9ea	-0.05098907
65	0x3dc652d8	0.0968377
66	0x3c8c684b	0.017139575
67	0x3d6fadac	0.058515236
68	0x3d80e750	0.06294119
69	0x3c7a0213	0.015259284
70	0xbd4fd45b	-0.050739627
71	0xbc10a0fa	-0.008827442
72	0x3e08f99b	0.13376467
73	0x3df6ee53	0.120571755
74	0xbce8fd07	-0.028440965
75	0x3d3a02c4	0.045412794
76	0xbb834d38	-0.004007008
77	0x3d7c9ffc	0.06167601
78	0xbd85d7cd	-0.06535301
79	0x3d3eb08a	0.04655508
80	0xbdb524d4	-0.08844915
81	0xbdb4e495	-0.08832661
82	0xbd778056	-0.060425125
83	0xbe0393c5	-0.12849338
84	0xbc72f332	-0.01482849
85	0x3d7c18fb	0.06154726
86	0xba9dd604	-0.0012041931
87	0xbd9d9722	-0.07694842
88	0xbc60121d	-0.013676194
89	0x3d42335c	0.04741226
90	0x3d45323e	0.048143618
91	0xbc4d37b3	-0.012525487
92	0xbc6f79e8	-0.014616467
93	0x3db7edfc	0.08980939
94	0x3ce19e60	0.02754134
95	0xbc167330	-0.009182736
96	0xbd9a6686	-0.07539086
97	0x3d85d732	0.06535186
98	0xbd80fb29	-0.06297905
99	0xbaafeb2d	-0.0013421528
100	0x3d34e435	0.044162948
101	0x3b633aae	0.0034672427
102	0xbd7fc956	-0.06244787
103	0x3cd5400b	0.026031515
104	0x3d4a1928	0.049340397
105	0x3d54bcac	0.051937744
106	0x3c6e2809	0.014535912
107	0xbc071930	-0.008245751
108	0xbd863c7b	-0.065545045
109	0xbe2b6548	-0.16737854
110	0xbe28f05c	-0.1649794
111	0x3c9afe7f	0.018920181
112	0x3d05ce82	0.032667644
113	0xbe56631d	-0.20936246
114	0xbe8756a6	-0.26433295
115	0xbda7f8e2	-0.082017675
116	0x3d640853	0.055672
117	0x3cbc0fcd	0.022956753
118	0xbc61398a	-0.013746629
119	0x3d8ade89	0.067807265
120	0xbdfa87d6	-0.1223294
121	0x3cec26cc	0.028827094
122	0x3c5dea84	0.013544682
123	0x3de28b52	0.110617295
124	0xbdb55bf5	-0.0885543
125	0xbda880d8	-0.082277
126	0xbe10bf98	-0.14135587
127	0xbc4e6a1d	-0.012598542
128	0xbdeee4fc	-0.11664769
129	0xbd261c1a	-0.040554143
130	0x3d24b8c4	0.04021527
131	0x3cda163e	0.026621934
132	0xbdb9e5c1	-0.09077025
133	0xbbb3785b	-0.005476994
134	0xbd698e22	-0.057020314
135	0x3d631e95	0.055449087
136	0x3da85a4b	0.08220347
137	0x3cfd3519	0.030909108
138	0xbdc99074	-0.09842005
139	0x3d7fc931	0.06244773
140	0x3dd50330	0.104009986
141	0x3d015861	0.031578425
142	0x3d5cadea	0.053876795
143	0x3d6152ca	0.055010594
144	0x3e09f34b	0.13471715
145	0x3d44f370	0.048083723
146	0xbd3e35c3	-0.04643799
147	0x3caf736c	0.021417342
148	0x3e14390c	0.14474887
149	0x3ce900b4	0.028442718
150	0x3e4b5f7c	0.19860643
151	0x3c263957	0.010145507
152	0xbdb263bd	-0.0871043
153	0x3d2b105f	0.04176366
154	0x3c99d9e1	0.01878065
155	0xbd585e78	-0.052824467
156	0x3dabb4d4	0.083840996
157	0xbb0c2c35	-0.0021388654
158	0xbd4f4270	-0.05060047
159	0xbd3a274f	-0.045447644
160	0xbd614d5a	-0.05500541
161	0xbd8582d7	-0.06519096
162	0xbd652379	-0.055942032
163	0xbe1112fa	-0.14167395
164	0xbcc8f787	-0.024532093
165	0xbde43b98	-0.11144179
166	0x3af38bab	0.0018581053
167	0x3d75cdf2	0.060010858
168	0xbd1ce304	-0.038302436
169	0xbc894116	-0.016754668
170	0x3ca2e26f	0.019883363
171	0x3c86242e	0.016374674
172	0x3dc0c0ff	0.09411811
173	0x3d314bc9	0.043285165
174	0x3c9ec8fa	0.019382942
175	0xbcd070a1	-0.02544433
176	0xbcc4c8d3	-0.024021542
177	0x3da2da52	0.079517975
178	0x3caff412	0.021478686
179	0xbd522425	-0.051304
180	0xbc3021db	-0.010750259
181	0x3dab5ad2	0.08366932
182	0x3dce2311	0.10065282
183	0xbd083eb7	-0.033262935
184	0xbd512f8a	-0.051070727
185	0x3b27a59b	0.0025580886
186	0x3d8e3ebe	0.06945561
187	0xba4eeba4	-0.00078933896
188	0x3b2d3df1	0.0026434625
189	0x3d95eacf	0.07320177
190	0x3d0138c2	0.03154827
191	0xbdda4e0e	-0.10659419
192	0x3d2ddd1f	0.042447206
193	0xbd68dc86	-0.056850933
194	0xbc9b8c81	-0.018987896
195	0xbc98348c	-0.018579744
196	0x3ccd6160	0.025070846
197	0x3d2fe1e6	0.042940043
198	0xbd3edaba	-0.046595313
199	0x3d893021	0.06698633
200	0xbe300318	-0.1718868
201	0xbdaabf73	-0.08337297
202	0x3c306cc1	0.010768116
203	0x3dc39729	0.09550316
204	0xbc9da425	-0.01924331
205	0x3d57509f	0.05256712
206	0xbcc15d75	-0.023604134
207	0xbb10a072	-0.002206829
208	0xbc6e372f	-0.014539524
209	0x3d5bce8e	0.053663783
210	0x3d2dc1e9	0.042421255
211	0x3d1fb5da	0.038991787
212	0x3d41938b	0.04725985
213	0x3da25243	0.079258464
214	0x3cb35aa3	0.021893805
215	0xbc6814c5	-0.014165108
216	0xbd890f68	-0.06692392
217	0x3d502252	0.05081398
218	0xbe2f9a93	-0.17148809
219	0x3e579c88	0.21055806
220	0x3d94000a	0.0722657
221	0xbd56d287	-0.05244687
222	0x3de0c797	0.10975569
223	0x3dbb7c55	0.09154574
224	0x3cdc25ab	0.02687343
225	0xbc63c16f	-0.013901099
226	0xbd384761	-0.044989947
227	0xbccda61e	-0.025103625
228	0x3d2b7892	0.04186303
229	0x3cb879e9	0.022519069
230	0x3c04735c	0.008084144
231	0xbc989481	-0.0186255
232	0x3bd584c5	0.0065160715
233	0x3d5f1cc9	0.05447081
234	0xbdf3f59d	-0.119120814
235	0xbc8a82de	-0.016908105
236	0xbe0c39a2	-0.1369386
237	0xbd39f440	-0.04539895
238	0xbd05b101	-0.032639507
239	0xbd1dc0ee	-0.03851407
240	0xbe2a4042	-0.16626075
241	0x3dbc8915	0.09205834
242	0x3dc793ce	0.097449884
243	0xbc880ff7	-0.016609175
244	0xbe2fcd53	-0.17168169
245	0xbcf1e9e5	-0.029530475
246	0xbd572217	-0.052522745
247	0x3e1239aa	0.1427981
248	0x3e54c6d3	0.2077897
249	0x3d450981	0.048104767
250	0x3de3c583	0.11121657
251	0x3d2f67fd	0.04282378
252	0xbd9e48c9	-0.077287264
253	0x3d120725	0.035651345
254	0x3dbce52f	0.09223401
255	0xbe02c432	-0.12770155

fc1.bias f4 [64]
0	0xbcdec4d2	-0.02719346
1	0x3d67d767	0.056601908
2	0xbbce12d1	-0.006288864
3	0x3d0f457b	0.03497837
4	0x3d3e4a2b	0.04645745
5	0x3d2b4d77	0.041821923
6	0x3d8f310f	0.06991779
7	0x3cfe5a32	0.031048868
8	0x3d7f4240	0.06231904
9	0x3dedd7a1	0.116133936
10	0x3c9e462f	0.019320576
11	0xbcb5b79e	-0.022182282
12	0xbc2b1ae5	-0.010443424
13	0xbd8a2a61	-0.067463644
14	0x3e1b3055	0.15155156
15	0xbdb1324b	-0.08652171
16	0x3cad56c4	0.021159537
17	0xbd49a458	-0.049228996
18	0xbd4f75c6	-0.050649427
19	0x3dcaa129	0.0989402
20	0xbdb45653	-0.088055275
21	0xbd8f13ce	-0.06986199
22	0x3d49b836	0.049247943
23	0x3bcfb1d6	0.0063383384
24	0x3dd096f6	0.101850435
25	0x3d111f1c	0.03543006
26	0xbd59b527	-0.053151276
27	0x3dcc31a9	0.099704094
28	0x3e01e6e9	0.12685741
29	0x3d5050b6	0.050858222
30	0x3d68c9e7	0.056833174
31	0x3e17bf13	0.14818983
32	0x3d271078	0.04078719
33	0xbe068699	-0.13137282
34	0xbdf459b4	-0.11931172
35	0x3de81006	0.11331181
36	0xbcafddfa	-0.021468151
37	0xbc875088	-0.016517892
38	0x3e18acb6	0.14909634
39	0xbdb88f55	-0.090117134
40	0xbdacb8ae	-0.08433662
41	0xbd75f6eb	-0.060049932
42	0x3d851fb2	0.06500186
43	0x3dabdc0d	0.08391581
44	0xbc076c8a	-0.008265624
45	0x3e0467fd	0.12930293
46	0x3caa49ab	0.02078708
47	0x3d286db0	0.04112023
48	0x3acd7d98	0.0015677689
49	0x3d5ff9ad	0.05468147
50	0xbb103f15	-0.0022010256
51	0xbdbf5330	-0.09342039
52	0x3d9a01a2	0.07519843
53	0x3dd02c13	0.101646565
54	0x3dec03ff	0.115242
55	0x3d61a604	0.055089965
56	0xbd841a80	-0.06450367
57	0xbc0171a9	-0.007900634
58	0x3c8d1ac7	0.017224682
59	0xbd6fe3a8	-0.05856672
60	0x3df381ed	0.11890016
61	0x3ca61ad7	0.02027647
62	0x3dafc4c5	0.08582453
63	0x3c82f56f	0.015986172

fc2.weight f4 [32, 64]
0	0xbc82f7ec	-0.015987359
1	0x3c18a717	0.009317181
2	0xbe35aabb	-0.1774091
3	0x3d97d1de	0.07413076
4	0x3dea2fd8	0.11434907
5	0x3e793a8a	0.24338737
6	0x3e0453c3	0.12922578
7	0xbc4aa72c	-0.012368958
8	0xbc97629f	-0.018479643
9	0xbdcf7afa	-0.10130878
10	0x3e63f4f9	0.22261418
11	0xbe127b75	-0.14304908
12	0xbda85d4c	-0.0822092
13	0x3d0def9d	0.03465234
14	0x3bd1ba08	0.0064003505
15	0xbd15f1e6	-0.036607645
16	0xbd948929	-0.07252724
17	0xbdd9fd2f	-0.10643994
18	0x3dbf80fa	0.09350772
19	0x3e27fb65	0.16404493
20	0x3da1eaf4	0.07906142
21	0xbd444cb2	-0.047924705
22	0x3de89ff0	0.11358631
23	0x3d469d42	0.048489816
24	0x3e5df666	0.21676025
25	0x3de6ef39	0.11276097
26	0x3d62cb97	0.05536994
27	0xbd7cfa2a	-0.061762013
28	0x3e07321c	0.13202709
29	0xbd9ec74c	-0.077528566
30	0xbd29a0c4	-0.041413084
31	0x3e69c673	0.22829609
32	0xbe04f4d3	-0.12984018
33	0xbd55c95c	-0.052193984
34	0xbe0d6058	-0.13806283
35	0x3d66561d	0.056234468
36	0xbb5db934	-0.0033832313
37	0x3d61b016	0.05509957
38	0x3e1543fd	0.14576717
39	0xbe65e138	-0.22449195
40	0xbd40dc65	-0.047085185
41	0x3c64b614	0.013959426
42	0x3e016ad1	0.12638403
43	0x3ea0ffb7	0.31445095
44	0xbdcf2b82	-0.1011572
45	0x3d326221	0.043550614
46	0x3e2286e9	0.15871777
47	0xbc88c229	-0.016694145
48	0xbda11d46	-0.078669116
49	0x3e0df2b7	0.1386212
50	0xbe80d063	-0.25158986
51	0xbda39f4d	-0.079893686
52	0xbd9936d2	-0.07481159
53	0x3a256b6f	0.00063102593
54	0x3e9bb1ce	0.30409092
55	0xbc5d4d0b	-0.013507138
56	0xbdef0df4	-0.11672583
57	0xbda2b22c	-0.0794414
58	0x3e7330dd	0.23749109
59	0x3e327500	0.17427444
60	0xbd0721b1	-0.032991115
61	0xbdf8ca8f	-0.1214801
62	0x3e09f48d	0.13472195
63	0xbd3f0ba2	-0.046641953
64	0xbdb7b093	-0.08969226
65	0xbdd08dd6	-0.10183303
66	0xbe18a97d	-0.14908405
67	0x3e6051e1	0.21906234
68	0x3dfc445e	0.123177275
69	0x3e23b2b9	0.15986146
70	0xbde9b4dd	-0.1141145
71	0x3e3f9d77	0.18712412
72	0x3e8689d9	0.26277044
73	0x3e418921	0.18899967
74	0x3d00c104	0.031434074
75	0x3e65c0ef	0.2243688
76	0x3d001c7f	0.031277176
77	0x3cd9a020	0.026565611
78	0x3ca57b1b	0.020200303
79	0x3c478f03	0.012180093
80	0x3c03f80e	0.008054746
81	0xbd598b82	-0.05311156
82	0x3d2ee7ba	0.04270146
83	0x3de15553	0.110026024
84	0x3df9e53a	0.122019246
85	0x3cbeef2c	0.023307405
86	0x3ddbc18b	0.10730275
87	0xbdbf9987	-0.09355455
88	0xbe125c22	-0.14292958
89	0x3de50dd6	0.111842796
90	0xbccd6984	-0.025074728
91	0xbdae5794	-0.08512798
92	0xbdb27ff0	-0.087158084
93	0xbdc575a7	-0.09641581
94	0x3dc7a36f	0.09747969
95	0xbd0e998b	-0.0348144
96	0xbd8d0e00	-0.06887436
97	0xbd1636c4	-0.036673322
98	0x3d0c067d	0.034185875
99	0x3e1dd0f4	0.1541174
100	0x3d3d5e6b	0.046232622
101	0xbd9fea33	-0.07808342
102	0x3e8c8d2c	0.27451456
103	0x3e82a1ff	0.25514218
104	0xbd7b2d9a	-0.061322786
105	0xbdf610cb	-0.12014922
106	0xbe45c8dd	-0.19314905
107	0xbac4b5e5	-0.0015007822
108	0xbe5364ab	-0.2064387
109	0xbe20fb0d	-0.15720768
110	0xbe51b4d2	-0.20479134
111	0xbdea0f73	-0.11428728
112	0x3e3dbb4f	0.18528484
113	0x3e066752	0.13125351
114	0x3e1e031b	0.15430872
115	0x3d90bb76	0.07067005
116	0x3e9fb218	0.31190562
117	0x3d667d5a	0.05627189
118	0x3e180415	0.14845307
119	0x3e0c01e9	0.13672604
120	0xbe0012a3	-0.1250711
121	0xbd89db1e	-0.067312464
122	0x3e17692c	0.14786214
123	0xbe44c54f	-0.19215892
124	0x3e20a86e	0.15689251
125	0x3e588c4e	0.21147272
126	0x3d2a636e	0.04159873
127	0x3df75dba	0.12078424
128	0x3c3856d5	0.011251171
129	0x3dc3d80c	0.09562692
130	0x3df81c00	0.121147156
131	0x3e3c257f	0.18373679
132	0x3d76de21	0.060270432
133	0x3d97a228	0.07403976
134	0x3e37cd5a	0.17949429
135	0xbdadd3e6	-0.08487682
136	0x3e2e684f	0.17031978
137	0x3e2d2129	0.16907181
138	0xbdc0b4f1	-0.09409512
139	0x3dbf4ca4	0.0934079
140	0x3eb40ad7	0.3516452
141	0xbe3dd0fb	-0.18536751
142	0x3e58638b	0.21131723
143	0xbbfae21c	-0.007656349
144	0x3e1c490c	0.1526224
145	0x3dc1e577	0.09467595
146	0xbd1f0f03	-0.038832676
147	0x3d98191d	0.07426665
148	0xbd78b4d8	-0.06071934
149	0x3dba47fa	0.0909576
150	0x3ddcf6e0	0.10789275
151	0x3e326cab	0.17424266
152	0xbdc7fd93	-0.09765162
153	0x3ddac48a	0.10682018
154	0x3a348387	0.0006886054
155	0x3d8c4609	0.06849296
156	0x3ea73832	0.3266006
157	0x3e4e27f5	0.2013243
158	0x3e14886e	0.14505169
159	0xbe09d128	-0.13458693
160	0xbda428c2	-0.080155864
161	0xbd223356	-0.03959974
162	0x3d94a27e	0.072575554
163	0x3d891b65	0.06694678
164	0xbe127d12	-0.14305523
165	0x3dcf0da5	0.10110024
166	0x3e9ebba4	0.31002533
167	0x3d2d6628	0.042333752
168	0xbdc6633a	-0.09686895
169	0xbb0f7311	-0.0021888653
170	0xbcd856f6	-0.026408654
171	0x3e3deb09	0.1854669
172	0xbe0588c9	-0.1304046
173	0x3ddbf82c	0.107406944
174	0xbe30ddd8	-0.17272127
175	0x3d937970	0.07200897
176	0x3d9e4c6d	0.07729421
177	0x3d6e1e6f	0.058134492
178	0x3d7c63da	0.061618663
179	0xbe24f5af	-0.16109346
180	0x3df9389d	0.12169001
181	0xbe7bf44b	-0.24604909
182	0x3e3d3104	0.18475729
183	0xbda70896	-0.081559345
184	0x3d514f09	0.051100764
185	0xbd130d9f	-0.035901662
186	0xbe08787f	-0.13327216
187	0x3ede57cd	0.43426362
188	0x3e000248	0.1250087
189	0xba727b59	-0.00092499476
190	0x3d8ff782	0.0702963
191	0xbe5fdef5	-0.21862395
192	0x3d3a303d	0.04545616
193	0xbd9fd5c9	-0.07804448
194	0xbde67d96	-0.11254422
195	0x3a978c56	0.0011562209
196	0xbe085ea1	-0.13317348
197	0xbd242dfc	-0.040082917
198	0xbd9996ee	-0.07499491
199	0x3d862283	0.06549551
200	0xbe1bcd86	-0.1521512
201	0x3d0a8f1e	0.033827893
202	0x3da4c3e8	0.08045179
203	0xbd29cdc2	-0.04145599
204	0x3dae3254	0.08505693
205	0xbe161bbb	-0.14659016
206	0x3cf559e5	0.029950092
207	0x3d41dea6	0.047331475
208	0xbe00bd53	-0.12572221
209	0xbd7f9772	-0.06240029
210	0x3b5920b6	0.003313107
211	0x3d3e1bd8	0.046413273
212	0x3dff0dd2	0.12453808
213	0xbd21c388	-0.039493114
214	0xbdffb22f	-0.12485158
215	0xbdd27815	-0.1027681
216	0xbe18e44a	-0.14930835
217	0xbde55b2d	-0.11199031
218	0x3def98b2	0.11699046
219	0xbd3acb35	-0.04560395
220	0xbde57515	-0.11203972
221	0x3ddc8f4b	0.107695185
222	0x3d5822d0	0.052767575
223	0x3d869c9d	0.0657284
224	0x3c882a9f	0.016621886
225	0x3d923fba	0.07141061
226	0x3d726213	0.059175562
227	0xbd64f3c6	-0.055896543
228	0x3d908225	0.07056073
229	0xbde28edc	-0.110624045
230	0x3da3858e	0.07984458
231	0xbd015dde	-0.03158366
232	0xbddfb8ee	-0.109239444
233	0x3dcf3d9c	0.10119173
234	0x3ce763a3	0.028245753
235	0xbc8adf9c	-0.016952328
236	0x3d6d1c36	0.057888232
237	0xbd632cc9	-0.055462632
238	0xbdab54ed	-0.08365808
239	0xbda9f5b0	-0.08298814
240	0xbdfb3945	-0.12266783
241	0xbde04d5a	-0.10952254
242	0x3d3b8471	0.045780603
243	0x3db7dd13	0.089777134
244	0xbce977f0	-0.028499573
245	0x3d2c63c2	0.042087324
246	0x3d806d93	0.062708996
247	0x3cc64711	0.024203809
248	0xbde76db0	-0.11300218
249	0xbd94d97f	-0.072680466
250	0x3cf8157d	0.030283684
251	0xbd7bd7cd	-0.0614851
252	0x3d59b06c	0.053146765
253	0x3cb4f3c0	0.022088885
254	0xbcc0bcba	-0.023527492
255	0xbc346275	-0.011009802

fc2.bias f4 [32]
0	0x3e790f30	0.243222
1	0xbb139830	-0.002252113
2	0x3c0cddac	0.008597773
3	0xbdb14d89	-0.08657367
4	0xbd811d18	-0.06304377
5	0x3c818c81	0.015814068
6	0xbdcadf16	-0.099058315
7	0x3e5984d1	0.21242072
8	0xbdc12762	-0.0943134
9	0x3da089d7	0.07838791
10	0x3cb8da89	0.022565143
11	0xbde60833	-0.112320326
12	0x3df78484	0.12085822
13	0x3d7f8807	0.062385585
14	0x3e46087e	0.19339177
15	0xbdd93d19	-0.106073566
16	0xbdd43ef6	-0.10363571
17	0x3c9dca61	0.01926154
18	0x3d9bb3f5	0.076026835
19	0x3dfbb4dd	0.12290356
20	0x3e01077b	0.1260051
21	0xbc9ad627	-0.018900944
22	0xbcb8ac75	-0.022543171
23	0x3ce559c3	0.027996903
24	0xbe21f4bd	-0.15816016
25	0x3e39dcb8	0.18150604
26	0x3d1d2846	0.038368486
27	0xbd74b561	-0.05974329
28	0xbd6fa58e	-0.058507495
29	0x3b2bde8f	0.0026225185
30	0x3e2b16d2	0.16707924
31	0xbdba1c5f	-0.090874426

fc3.weight f4 [10, 32]
0	0x3a78d0bf	0.0009491555
1	0xbd25ad91	-0.04044873
2	0x3e559c71	0.20860459
3	0xbba37409	-0.0049881977
4	0xbd8782fa	-0.06616779
5	0xbe450089	-0.19238485
6	0xbe098455	-0.13429387
7	0x3d8e3deb	0.06945404
8	0xbe5b3690	-0.21407533
9	0xbe7b52e4	-0.24543339
10	0xbcf7b849	-0.030239241
11	0xbe47c23b	-0.19507687
12	0x3e85105c	0.25989044
13	0x3dc32bd4	0.09529844
14	0x3e277492	0.16353062
15	0xbe10aca6	-0.1412836
16	0x3c26d0b5	0.010181596
17	0x3dc03367	0.09384804
18	0xbe5fbb55	-0.21848805
19	0x3e5fc772	0.21853426
20	0x3cce3dd6	0.02517597
21	0xbe7fc6c5	-0.24978168
22	0x3d02b665	0.031912226
23	0x3e8330c2	0.25623137
24	0xbe8bfa26	-0.27339286
25	0xbe471c86	-0.19444475
26	0x3e531ebb	0.20617191
27	0xbdcd6653	-0.100292824
28	0x3e072ee1	0.13201477
29	0xbe3aa63d	-0.18227477
30	0xbe82ffcb	-0.2558578
31	0xbe0d2cab	-0.1378657
32	0x3e37f21e	0.17963454
33	0x3e422e87	0.18963061
34	0x3e888e2c	0.2667097
35	0x3dca192d	0.09868083
36	0xbbd0c1cf	-0.00637076
37	0x3df09dc5	0.11748842
38	0x3e0f42c7	0.13990317
39	0x3e4c3aab	0.19944255
40	0xbd2e65e5	-0.042577643
41	0xbe1aae2c	-0.15105504
42	0xbe239b6f	-0.15977262
43	0xbda36893	-0.0797893
44	0xbe84664d	-0.258593
45	0xbe98d7c1	-0.29852107
46	0x3e52d961	0.20590736
47	0xbd2ce122	-0.04220689
48	0x3e0c15f7	0.13680254
49	0xbe6e5fb4	-0.23278695
50	0x3e390e20	0.18071795
51	0xbe09dbff	-0.13462828
52	0x3e147761	0.14498664
53	0xbd976bb2	-0.07393588
54	0xbdfc297d	-0.12312601
55	0x3eb1bdf8	0.34715247
56	0xbe3a61b3	-0.18201332
57	0xbd718653	-0.058965992
58	0xbe806724	-0.2507869
59	0xbdcd1d00	-0.10015297
60	0xbeae7ed5	-0.3408114
61	0xbe53e5eb	-0.20693175
62	0x3c612e9a	0.013744021
63	0x3d76beb0	0.060240448
64	0xbdc7a72b	-0.09748682
65	0x3d9a6ba1	0.0754006
66	0x3e824f12	0.2545095
67	0x3cfd6576	0.03093217
68	0xbe16983e	-0.14706513
69	0xbe9fad49	-0.31186894
70	0x3d5f023b	0.054445487
71	0xbcb5e9c3	-0.022206193
72	0xbd3297bf	-0.043601748
73	0x3e7d0bee	0.24711582
74	0xbe103815	-0.14083894
75	0x3e8bc5c6	0.27299327
76	0x3d4dc5aa	0.050237335
77	0xbe15606e	-0.14587566
78	0x3e51aa44	0.20475107
79	0xbdfa4628	-0.122204125
80	0xbd99b611	-0.075054295
81	0x3d961397	0.07327955
82	0xbe653d3c	-0.2238664
83	0xbe8dd78d	-0.27703515
84	0xbe833e7f	-0.25633618
85	0xbd375bc8	-0.044765264
86	0xbdaa792c	-0.08323893
87	0xbe98c416	-0.29837102
88	0x3ce19042	0.027534608
89	0x3dfca77e	0.12336634
90	0x3e34e5bf	0.17665766
91	0xbc0c48ae	-0.00856225
92	0xbe07ddee	-0.13268253
93	0x3e009e7b	0.12560456
94	0xbe7af156	-0.24506125
95	0x3e241278	0.1602267
96	0xbe144cc4	-0.14482409
97	0x3d935c10	0.07195294
98	0xbe5e938f	-0.21735977
99	0xbe130835	-0.143586
100	0xbe002f09	-0.12517942
101	0x3d8b3a89	0.06798274
102	0x3e024153	0.12720232
103	0xbe169cc6	-0.14708242
104	0xbdcb7298	-0.099339664
105	0x3dc0c4cd	0.09412537
106	0xbd22d600	-0.039754868
107	0xbd3c3daa	-0.045957245
108	0xbe4efa92	-0.20212772
109	0x3e910cdf	0.28330132
110	0x3e4719e6	0.19443473
111	0x3b9a3e77	0.0047071534
112	0xbcb87592	-0.022517
113	0xbd32d409	-0.043659244
114	0xbecd74a4	-0.40128052
115	0x3de1336f	0.10996138
116	0x3cdd5710	0.027019054
117	0x3e86dbb3	0.26339492
118	0xbe0efc15	-0.13963349
119	0xbe088dc2	-0.13335326
120	0x3dae5dc3	0.085139774
121	0xbec28c33	-0.3799759
122	0xbe3b7d85	-0.183096
123	0xbd47167b	-0.048605423
124	0xbdb1da50	-0.08684218
125	0xbd023240	-0.031786203
126	0x3de866ca	0.113477305
127	0x3e64104d	0.22271843
128	0x3eab8e83	0.33507165
129	0xbcc84360	-0.02444619
130	0x3d7bf903	0.061516773
131	0x3dc32944	0.09529355
132	0xbd473d9c	-0.04864274
133	0xbe05e80f	-0.13076805
134	0x3d2f6dee	0.042829446
135	0x3e8486af	0.25884005
136	0xbd80e3a8	-0.06293422
137	0x3e5c4810	0.21511865
138	0xbe52c93e	-0.2058458
139	0x3e403804	0.18771368
140	0x3d87e381	0.0663519
141	0xbdac8775	-0.08424274
142	0xbd040201	-0.032228474
143	0xbc961074	-0.018318392
144	0xbd857089	-0.06515605
145	0xbe22b7fd	-0.15890498
146	0xbe216ace	-0.15763399
147	0x3e26c4ae	0.16285965
148	0xbddb25eb	-0.10700592
149	0xbeb314ca	-0.34976798
150	0x3d9e57d6	0.07731597
151	0xbea81139	-0.3282564
152	0xbecf4c9e	-0.40488142
153	0x3e11c11b	0.1423382
154	0xbdd3cf8c	-0.10342321
155	0xbd2ce5af	-0.04221123
156	0x3e806661	0.2507811
157	0xbddd89de	-0.10817312
158	0x3e33a3a0	0.17542887
159	0xbe00fb14	-0.12595779
160	0x3ddbca40	0.107319355
161	0xbcfa4738	-0.030551538
162	0xbded3645	-0.11582617
163	0xbdefeb0c	-0.117147535
164	0x3e136096	0.14392313
165	0xbd533bec	-0.051570818
166	0xbacc863c	-0.001560397
167	0xbe095d58	-0.13414514
168	0xbdfc82a5	-0.12329606
169	0xbd9b3e7e	-0.07580279
170	0xbeb58cbc	-0.35458934
171	0x3d0ea8a3	0.034828793
172	0xbe93f415	-0.28897157
173	0x3e465f2c	0.19372243
174	0xbde02f1b	-0.10946485
175	0x3dede550	0.116160035
176	0x3e7f2167	0.24915086
177	0xbe564a94	-0.20926887
178	0x3e2400c8	0.16015923
179	0x3c8b1438	0.016977414
180	0x3e8012bb	0.2501429
181	0xbe49a217	-0.19690739
182	0x3e5ab55f	0.2135825
183	0xbcff1058	-0.031135723
184	0xbd88f1d5	-0.06686751
185	0xbdedcde8	-0.11611539
186	0x3e2aaf4e	0.16668436
187	0xbe2eefe8	-0.17083704
188	0x3ce804e2	0.02832264
189	0x3d27382b	0.04082505
190	0xbe26440b	-0.16236894
191	0x3d673fcd	0.05645733
192	0xbebdd7ee	-0.37078804
193	0xbde89d29	-0.11358101
194	0x3d7a01c3	0.061036836
195	0xbcd0d351	-0.025491389
196	0xbe268de9	-0.16265072
197	0x3e4d6f43	0.20061974
198	0x3d3827cc	0.04495983
199	0x3dedcc14	0.116111904
200	0x3d903934	0.07042161
201	0x3dbbe94d	0.09175358
202	0x3db3264b	0.08747538
203	0xbe925706	-0.2858202
204	0x3df1043e	0.11768387
205	0xbd818cbb	-0.0632567
206	0xbcb88cd1	-0.022528084
207	0xbe079880	-0.13241768
208	0x3cf9d9e8	0.030499414
209	0xbe8d713a	-0.27625448
210	0x3e1a3330	0.15058589
211	0x3e90a971	0.28254274
212	0xbe159a4a	-0.14609638
213	0x3d3f9f9b	0.04678307
214	0x3e8ec462	0.27884203
215	0xbe7ab564	-0.24483258
216	0xbe1b5aba	-0.15171328
217	0x3e32ee84	0.17473799
218	0x3e0161bc	0.12634939
219	0xbc907f73	-0.017638898
220	0x3e4f8f83	0.20269589
221	0x3ca74fa2	0.020423714
222	0xbec184e2	-0.37796694
223	0x3e2d68ba	0.16934481
224	0x3d95adcb	0.07308539
225	0x3e5f0448	0.21778977
226	0x3c0dd38a	0.008656392
227	0xbe2335b1	-0.1593845
228	0xbe162c81	-0.14665414
229	0xbcfda917	-0.030964417
230	0xbd109c8d	-0.03530555
231	0xbe8bc237	-0.27296612
232	0x3ac94414	0.0015355372
233	0xbddeee37	-0.108852796
234	0xbe0c9876	-0.13730034
235	0x3dcc7e10	0.09984982
236	0x3d861dff	0.0654869
237	0xbe631ce3	-0.22178988
238	0xbe34dc91	-0.17662264
239	0x3dd50a16	0.10402314
240	0x3e8b2996	0.27180165
241	0x3e54a304	0.2076531
242	0xbe5b96c4	-0.21444231
243	0x3e494d1f	0.19658326
244	0xbe2e5b8a	-0.17027107
245	0x3e08ea95	0.13370736
246	0xbdd29163	-0.102816366
247	0x3e098ed3	0.1343339
248	0xbbad16e3	-0.0052822693
249	0xbdf98aed	-0.12184701
250	0x3d3acc21	0.04560483
251	0xbe17900f	-0.14801048
252	0xbe0e02c8	-0.13868248
253	0x3e05db69	0.1307198
254	0x3e85f6b9	0.26164797
255	0xbd812724	-0.063062936

fc3.bias f4 [10]
0	0x3db9f0dd	0.09079144
1	0x3b8eff56	0.0043639345
2	0x3dcc7150	0.0998255
3	0x3e2230d6	0.15838942
4	0x3d04ab1e	0.032389753
5	0xbdd2af2f	-0.1028732
6	0x3e18e640	0.14931583
7	0x3cbca4bf	0.023027776
8	0xbe108edd	-0.14116998
9	0x3d9301f0	0.07178104
