ch6/data/L2FilterPruner_pruned.pth (torch, 242369 bytes, 12 tensors)

conv1.weight f4 [16, 1, 5, 5]
000000 00 00 00 00 00 00 00 80 00 00 00 80 00 00 00 80
       0.0 -0.0 -0.0 -0.0
000010 00 00 00 00 00 00 00 80 00 00 00 80 00 00 00 80
       0.0 -0.0 -0.0 -0.0
000020 00 00 00 80 00 00 00 00 00 00 00 00 00 00 00 00
       -0.0 0.0 0.0 0.0
000030 00 00 00 00 00 00 00 00 00 00 00 80 00 00 00 00
       0.0 0.0 -0.0 0.0
000040 00 00 00 00 00 00 00 80 00 00 00 00 00 00 00 80
       0.0 -0.0 0.0 -0.0
000050 00 00 00 00 00 00 00 00 00 00 00 00 00 00 00 00
       0.0 0.0 0.0 0.0
000060 00 00 00 80 00 00 00 00 00 00 00 80 00 00 00 00
       -0.0 0.0 -0.0 0.0
000070 00 00 00 80 00 00 00 80 00 00 00 80 00 00 00 80
       -0.0 -0.0 -0.0 -0.0
000080 00 00 00 00 00 00 00 80 00 00 00 00 00 00 00 00
       0.0 -0.0 0.0 0.0
000090 00 00 00 80 00 00 00 00 00 00 00 00 00 00 00 00
       -0.0 0.0 0.0 0.0
0000a0 00 00 00 00 00 00 00 00 00 00 00 00 00 00 00 00
       0.0 0.0 0.0 0.0
0000b0 00 00 00 00 00 00 00 80 00 00 00 00 00 00 00 00
       0.0 -0.0 0.0 0.0
0000c0 00 00 00 00 00 00 00 80 d7 62 4c 3e 4c fc b7 3e
       0.0 -0.0 0.1995958 0.35934675
0000d0 66 cf ca 3e ce eb f1 3d 55 09 7d 3d b4 f8 b3 3d
       0.39611357 0.11812554 0.061776478 0.08787671
0000e0 91 a8 b9 3e ce 58 77 3d 5a b5 92 be 6a 54 c7 3d
       0.36261418 0.060387425 -0.28653985 0.097328976
0000f0 a5 a8 8e 3e 47 40 9b 3e b2 fd cb be 7a d4 15 bf
       0.2786304 0.30322477 -0.39841992 -0.5852734
000100 49 7a 08 be 0d 58 d0 bd 67 17 7f bd cb fb 1a be
       -0.13327898 -0.10173044 -0.062278178 -0.15135114
000110 70 d7 a0 be e2 b0 ab 3d 74 d5 07 3e 77 4c 44 be
       -0.31414366 0.08383347 0.1326502 -0.19169794
000120 15 91 46 3e 3e 7d 41 bd 28 a4 21 3e 00 00 00 80
       0.19391282 -0.04723858 0.15785277 -0.0
000130 00 00 00 00 00 00 00 00 00 00 00 00 00 00 00 00
       0.0 0.0 0.0 0.0
000140 00 00 00 80 00 00 00 00 00 00 00 00 00 00 00 00
       -0.0 0.0 0.0 0.0
000150 00 00 00 00 00 00 00 00 00 00 00 80 00 00 00 80
       0.0 0.0 -0.0 -0.0
000160 00 00 00 00 00 00 00 80 00 00 00 80 00 00 00 80
       0.0 -0.0 -0.0 -0.0
000170 00 00 00 00 00 00 00 80 00 00 00 00 00 00 00 80
       0.0 -0.0 0.0 -0.0
000180 00 00 00 80 00 00 00 00 00 00 00 00 00 00 00 80
       -0.0 0.0 0.0 -0.0
000190 00 00 00 00 00 00 00 80 00 00 00 00 00 00 00 00
       0.0 -0.0 0.0 0.0
0001a0 00 00 00 80 00 00 00 00 00 00 00 00 00 00 00 00
       -0.0 0.0 0.0 0.0
0001b0 00 00 00 80 00 00 00 00 00 00 00 00 00 00 00 80
       -0.0 0.0 0.0 -0.0
0001c0 00 00 00 80 00 00 00 00 00 00 00 80 00 00 00 80
       -0.0 0.0 -0.0 -0.0
0001d0 00 00 00 00 00 00 00 00 00 00 00 80 00 00 00 80
       0.0 0.0 -0.0 -0.0
0001e0 00 00 00 00 00 00 00 00 00 00 00 80 00 00 00 80
       0.0 0.0 -0.0 -0.0
0001f0 00 00 00 00 2f 56 96 be ec 72 00 bf d2 a5 56 be
       0.0 -0.29362628 -0.50175357 -0.20961693
000200 e6 35 93 3d 7c 11 8d 3e 9f f1 60 be 57 9e fb be
       0.07188015 0.27552402 -0.21967171 -0.4914424
000210 d7 3c c2 be c1 db 47 be a0 fb a9 bb f2 41 aa 3d
       -0.37937042 -0.19517423 -0.0051874667 0.08313359
000220 bc c7 29 3e 4c 68 cf 3d 59 b4 a6 3d be dd 1b 3e
       0.16580099 0.10127315 0.08139867 0.15221307
000230 51 00 d9 3e 32 b8 da 3e d3 70 1f 3d 75 a0 76 3e
       0.42383054 0.42718655 0.038925957 0.24084647
000240 91 25 b6 3d 8e 30 31 3e f3 84 c9 3e 8c cd 4b 3d
       0.08893884 0.17303678 0.39359245 0.04975657
000250 b6 81 b5 3d c0 4f 90 3d 00 00 00 00 00 00 00 00
       0.08862631 0.07046461 0.0 0.0
000260 00 00 00 00 00 00 00 80 00 00 00 80 00 00 00 00
       0.0 -0.0 -0.0 0.0
000270 00 00 00 00 00 00 00 00 00 00 00 80 00 00 00 80
       0.0 0.0 -0.0 -0.0
000280 00 00 00 80 00 00 00 80 00 00 00 80 00 00 00 00
       -0.0 -0.0 -0.0 0.0
000290 00 00 00 00 00 00 00 80 00 00 00 80 00 00 00 80
       0.0 -0.0 -0.0 -0.0
0002a0 00 00 00 00 00 00 00 80 00 00 00 80 00 00 00 80
       0.0 -0.0 -0.0 -0.0
0002b0 00 00 00 80 00 00 00 80 00 00 00 00 00 00 00 80
       -0.0 -0.0 0.0 -0.0
0002c0 00 00 00 80 00 00 00 00 00 00 00 00 00 00 00 80
       -0.0 0.0 0.0 -0.0
0002d0 00 00 00 80 00 00 00 00 00 00 00 80 00 00 00 80
       -0.0 0.0 -0.0 -0.0
0002e0 00 00 00 80 00 00 00 00 00 00 00 00 00 00 00 00
       -0.0 0.0 0.0 0.0
0002f0 00 00 00 00 00 00 00 80 00 00 00 80 00 00 00 00
       0.0 -0.0 -0.0 0.0
000300 00 00 00 00 00 00 00 00 00 00 00 80 00 00 00 80
       0.0 0.0 -0.0 -0.0
000310 00 00 00 80 00 00 00 00 00 00 00 80 00 00 00 00
       -0.0 0.0 -0.0 0.0
000320 9a be 0b 3d 2b 66 d6 3e d2 68 8d 3e 3c 9c 8a 3e
       0.03411732 0.41874823 0.27619034 0.27072322
000330 c0 a9 69 3e 31 10 0e be e5 da 88 bd 05 00 d5 3d
       0.2281866 -0.13873364 -0.06682376 0.10400394
000340 84 92 37 3e 1a d6 2c bd 89 65 16 be 2b 37 be be
       0.17926985 -0.04219637 -0.1468717 -0.37151465
000350 ff 09 00 be 97 58 ee be 50 0d e2 be a7 50 82 be
       -0.12503813 -0.46551964 -0.44150782 -0.25452158
000360 83 c4 5f be 40 67 2d bf 46 7f 2e bf f4 1f 68 bd
       -0.21852307 -0.6773567 -0.68162954 -0.056671098
000370 de 89 23 3e d5 0d 89 be c6 22 9b be 06 6a 71 3e
       0.15970561 -0.26768366 -0.30299968 0.23575601
000380 86 66 09 3e 00 00 00 80 00 00 00 80 00 00 00 80
       0.13418016 -0.0 -0.0 -0.0
000390 00 00 00 80 00 00 00 00 00 00 00 00 00 00 00 80
       -0.0 0.0 0.0 -0.0
0003a0 00 00 00 80 00 00 00 80 00 00 00 80 00 00 00 00
       -0.0 -0.0 -0.0 0.0
0003b0 00 00 00 00 00 00 00 00 00 00 00 00 00 00 00 00
       0.0 0.0 0.0 0.0
0003c0 00 00 00 00 00 00 00 00 00 00 00 00 00 00 00 00
       0.0 0.0 0.0 0.0
0003d0 00 00 00 00 00 00 00 80 00 00 00 80 00 00 00 80
       0.0 -0.0 -0.0 -0.0
0003e0 00 00 00 80 00 00 00 80 00 00 00 00 00 00 00 80
       -0.0 -0.0 0.0 -0.0
0003f0 00 00 00 00 00 00 00 00 00 00 00 00 00 00 00 80
       0.0 0.0 0.0 -0.0

conv1.bias f4 [16]
000000 00 00 00 00 00 00 00 00 f7 a2 a5 3d 00 00 00 00
       0.0 0.0 0.08087724 0.0
000010 00 00 00 00 7e 82 bc 3e 00 00 00 00 00 00 00 00
       0.0 0.36818308 0.0 0.0
000020 69 08 e5 3e 00 00 00 00 00 00 00 00 00 00 00 80
       0.4473298 0.0 0.0 -0.0
000030 ac 95 1a 3e 00 00 00 80 00 00 00 80 00 00 00 80
       0.15096158 -0.0 -0.0 -0.0

conv2.weight f4 [32, 16, 5, 5]
000000 7b 08 a2 bc 47 92 6d bc 09 7a d6 bc dc f0 2f be
       -0.019779434 -0.014500207 -0.026181238 -0.17181724
000010 a2 91 85 be 3e 71 be bd 1b 19 67 bd 73 a7 32 3d
       -0.26087672 -0.09298943 -0.056420427 0.043616723
000020 52 26 d3 bd 45 b3 44 bd d5 cc e5 bd b7 24 61 3b
       -0.103100434 -0.048022527 -0.11220709 0.003435416
000030 96 20 08 3e 4b cc 50 3e c3 5f 1c 3e 80 7b c5 bd
       0.1329368 0.20390432 0.15270905 -0.096426964
000040 f2 08 c8 bc 37 a0 b0 3d 18 1b 0b 3e f8 07 8a 3e
       -0.024418328 0.086243086 0.13584554 0.26959205
000050 4b 29 a9 bd 80 de 9e bd 57 e2 77 3d 15 71 34 3e
       -0.08259829 -0.07757282 0.06051859 0.17621262
000060 0d 17 74 3e 3b ad df bd 20 7a 4d be 7e 40 be be
       0.23836918 -0.10921713 -0.20066118 -0.3715858
000070 65 6f 98 be 94 42 92 bd 02 a0 85 be c3 d3 4a be
       -0.29772487 -0.07141605 -0.2609864 -0.19807343
000080 3e 05 cf be 31 0f c7 be 60 f5 94 bd b5 ae 04 be
       -0.40433687 -0.38878778 -0.07273364 -0.1295727
000090 4a 03 a1 3d 8a 5c 67 be 62 87 30 be e7 a7 23 bd
       0.078619555 -0.22593895 -0.17239144 -0.039955046
0000a0 07 02 6e 3d c1 58 78 3e 95 ad 60 3e a3 01 88 3e
       0.058107402 0.24252607 0.21941216 0.2656375
0000b0 62 da 30 3e 2e 0e 26 3e f9 09 9f 3e f9 e1 aa 3e
       0.17270806 0.16216347 0.31062296 0.33375528
0000c0 b0 8c 82 3e c8 e7 4f 3e 51 0e 1d bd cd 40 79 3d
       0.2549796 0.20303261 -0.03834373 0.060852814
0000d0 6d b7 f6 bb ac df 34 3d 34 2d 37 3e 2c 11 1b bb
       -0.0075291903 0.044158623 0.17888337 -0.0023661358
0000e0 2d 10 dd 3d 81 8d 9e 3d a8 19 d4 ba 05 dc 1a bd
       0.10794101 0.077418335 -0.0016181963 -0.037807483
0000f0 fe c7 a1 bd e4 7a 89 3d b9 30 3c 3e d9 1c 22 bd
       -0.078994736 0.06712893 0.18377961 -0.039578293
000100 fd 26 07 be 09 7f 2f be 8a a0 a1 bd da 5b 9b bd
       -0.13198467 -0.17138304 -0.078919485 -0.07585879
000110 cd 21 41 be fd 81 91 be 97 a2 01 be de ee dc bd
       -0.1886055 -0.28419486 -0.1265968 -0.10787748
000120 22 c2 64 be a8 54 ab bd dd 73 8c 3d d3 e9 0c 3b
       -0.22339681 -0.08365756 0.06858037 0.0021501675
000130 93 0f 20 bd 43 15 6c 3d bf 54 36 3e 87 6a f1 3d
       -0.039077353 0.057637464 0.17805766 0.117878966
000140 06 e2 13 bd 0f 31 9a bd 25 60 40 bc 51 a5 3d 3d
       -0.036104225 -0.075288884 -0.011741673 0.046300236
000150 d3 d1 1a 3d 9c 0c 9b bc 65 1c c2 bd 28 b7 46 bd
       0.03779776 -0.018926911 -0.09478072 -0.048514515
000160 7c 98 fe bc 48 bc 08 3c c8 54 22 bd c4 52 01 be
       -0.03107857 0.008345671 -0.039631635 -0.12629229
000170 23 ef f0 bd 11 77 e6 bd db cb fc bd 04 f9 22 3b
       -0.11764362 -0.11253179 -0.1234357 0.0024867663
000180 c6 83 af 3c 3c 0c 34 3d eb dd 90 bd 40 08 ea bd
       0.02142514 0.04395698 -0.070735775 -0.11427355
000190 2a ca 2c bb 48 c5 b8 3d 25 20 8f 3d 60 39 9e 3d
       -0.0026365616 0.090220034 0.06988553 0.07725787
0001a0 54 c5 27 bb 5f f5 a4 3d 55 f4 d0 3d 8b 8c 29 3d
       -0.0025599794 0.08054613 0.10202853 0.041393798
0001b0 05 38 5a 3d ba e2 db bc 8d 58 ae bc 80 b0 d6 bc
       0.05327608 -0.02684151 -0.021282459 -0.026207209
0001c0 1c 41 db bc 76 b0 e0 bd 08 e9 a9 bc f2 d1 00 bd
       -0.026764445 -0.10971157 -0.020741 -0.03145022
0001d0 3a d0 f9 bd 5d f0 0c be a2 2a 80 bd e4 58 de 3c
       -0.12197919 -0.13763566 -0.062581316 0.027141996
0001e0 cd 46 c5 3c 8e 53 e9 bc c3 90 5e bd 25 00 ef 3d
       0.024081612 -0.028482225 -0.054337274 0.116699494
0001f0 00 80 9b 3d 69 8f 70 3d 45 cf f0 3d 34 79 1d 3e
       0.075927734 0.058730517 0.117582835 0.15378267
000200 55 5f c2 bd a5 2c 79 be 9b ec d7 3d 61 e3 c9 bc
       -0.094908394 -0.24333437 0.10543176 -0.024644556
000210 40 47 cf 3c b7 77 dd bd 1a 6b 92 bd d6 06 a2 3d
       0.02530253 -0.108138494 -0.07149334 0.0791146
000220 73 7c 8d bc e5 cd c3 3d 48 36 5c 3e 51 03 9e 3e
       -0.017271256 0.09560756 0.21505082 0.30861905
000230 2e b6 fc 3d 65 a6 22 3d 3a 5f 0c 3e 73 ed b7 3e
       0.123394355 0.039709467 0.13708201 0.35923347
000240 96 3e c4 3e 52 2b 18 3e 92 0e 18 3e f8 59 20 3e
       0.38329 0.14860275 0.14849308 0.1565932
000250 5c 05 80 3e 9a f5 7d 3e 99 67 07 3d 5b 9e 32 bd
       0.2500409 0.24800721 0.033057783 -0.04360805
000260 35 ce 1c bc bc cd 0a 3e 40 66 41 3e f0 c3 0c 3d
       -0.009570648 0.13555044 0.18886662 0.034366548
000270 fe fb a7 3d 37 64 8d 3c 21 58 d5 3d b5 95 5a 3e
       0.082023606 0.0172597 0.104172 0.21346171
000280 cb be c7 3d ec 68 89 3d 32 9e 6c bc bb 96 22 bd
       0.09753188 0.067094654 -0.014442014 -0.03969453
000290 96 b1 5f 3c 45 84 36 3d 17 21 a4 3c a2 f2 1e be
       0.01365318 0.044559736 0.02003531 -0.15522245
0002a0 ea 0b a8 be 38 ec af be 97 55 ab 3b 40 17 f4 3d
       -0.3282159 -0.34359908 0.005228709 0.11918497
0002b0 15 9d bb 3b e7 32 44 be 05 de 89 be 2f 9d 94 3d
       0.0057255127 -0.19160043 -0.269272 0.07256543
0002c0 09 c1 3e 39 ce 96 22 bd 8c 8a ca 3c a3 d5 8c bb
       0.00018191723 -0.0396946 0.024724267 -0.0042979284
0002d0 63 d4 92 3c 94 63 81 3d dc d3 72 bd 32 5f 10 bd
       0.01792354 0.06317821 -0.059284076 -0.035247035
0002e0 e1 e3 5d bd 93 1b 1c 3d 39 5c 21 3d 82 21 b6 bc
       -0.0541724 0.038112234 0.03939459 -0.022232775
0002f0 9c d3 82 3c 22 59 be 3c 3b d1 d7 3d c8 bc 34 3d
       0.015970044 0.023235861 0.105379544 0.04412535
000300 15 fe e5 3c 51 66 94 3d e8 fe 9b 3d 4c 71 23 39
       0.028075257 0.07246078 0.07616979 0.00015587098
000310 7d 52 51 3d da ef 2e 3e 19 5f c8 3d 78 52 2b 3e
       0.051104058 0.17083684 0.097837634 0.16730678
000320 15 71 f5 3c 3e 45 82 bd ef 8e 4c bc 27 cc 37 3e
       0.029961148 -0.06360863 -0.01248525 0.17948972
000330 52 c2 81 3e 43 7e 32 3d e0 23 be bc 5b 36 2c 3e
       0.25343567 0.043577444 -0.023210466 0.1681761
000340 8f a1 54 3e 93 e0 35 3e 47 dc 40 3e 66 09 fa 3d
       0.20764755 0.1776145 0.18834029 0.12208824
000350 24 1f f1 3d 04 15 93 3a 9f 1d e1 3d f8 f0 f6 bd
       0.11773518 0.0011221473 0.10991978 -0.1205768
000360 db 06 6e be 1f 3d ba be a1 6b 91 be 0d d5 a2 be
       -0.23244803 -0.36374757 -0.28402427 -0.3180317
000370 6c f1 a5 be f3 af 07 bf eb 02 e0 be 62 40 fb be
       -0.32410753 -0.5300285 -0.43752226 -0.49072558
000380 fc 92 80 be 4c ed 38 3d ea 47 54 3c e6 2d 9f bd
       -0.2511214 0.04514818 0.012956599 -0.07772426
000390 4b 7f 87 bd 83 b1 fe bd f5 99 29 be d3 8b b1 bd
       -0.06616076 -0.124362014 -0.16562636 -0.086692475
0003a0 d0 e8 64 be 05 aa 75 be ae d6 81 be 09 fd b8 bd
       -0.22354436 -0.23990639 -0.253591 -0.090326376
0003b0 33 74 f4 bd dd 21 b4 bd 47 c3 9d bd 7e c6 82 bd
       -0.11936226 -0.087955214 -0.07703262 -0.06385516
0003c0 41 85 00 3d cc 34 96 3c da bf ff 3d 59 e4 f1 3d
       0.03137708 0.018335722 0.12487765 0.11811132
0003d0 75 68 1a 3e 2e e3 12 bb 5e e8 23 3e c1 f2 5e 3e
       0.1507891 -0.0022413242 0.1600661 0.21772291
0003e0 9f c3 42 3e 0b 40 7b 3e 05 62 86 3d aa a8 33 3d
       0.19019936 0.24536149 0.065616645 0.043862022
0003f0 38 4e d9 3d 4f 91 a3 3d 68 16 18 3e bc c9 da 3c
       0.10610622 0.079867 0.14852297 0.026707523

conv2.bias f4 [32]
000000 43 55 fd 3d bb dd 55 3e 00 00 00 00 00 00 00 00
       0.12369778 0.20885365 0.0 0.0
000010 00 00 00 00 00 00 00 00 00 00 00 00 00 00 00 00
       0.0 0.0 0.0 0.0
000020 00 00 00 00 00 00 00 00 00 00 00 00 e8 58 4b 3e
       0.0 0.0 0.0 0.19858134
000030 00 00 00 00 00 00 00 00 00 00 00 80 ad 03 a6 3c
       0.0 0.0 -0.0 0.020265425
000040 00 00 00 00 00 00 00 00 00 00 00 00 8d 3f 0c 3e
       0.0 0.0 0.0 0.13696118
000050 00 00 00 00 00 00 00 00 04 17 c8 bd 00 00 00 00
       0.0 0.0 -0.09770015 0.0
000060 00 00 00 00 00 00 00 00 00 00 00 00 00 00 00 00
       0.0 0.0 0.0 0.0
000070 00 00 00 80 00 00 00 00 56 4a be 3d 00 00 00 80
       -0.0 0.0 0.09291522 -0.0

conv3.weight f4 [32, 32, 5, 5]
000000 00 00 00 00 00 00 00 00 00 00 00 00 00 00 00 80
       0.0 0.0 0.0 -0.0
000010 00 00 00 00 00 00 00 00 00 00 00 00 00 00 00 00
       0.0 0.0 0.0 0.0
000020 00 00 00 80 00 00 00 00 00 00 00 00 00 00 00 00
       -0.0 0.0 0.0 0.0
000030 00 00 00 00 00 00 00 80 00 00 00 80 00 00 00 00
       0.0 -0.0 -0.0 0.0
000040 00 00 00 00 00 00 00 80 00 00 00 80 00 00 00 80
       0.0 -0.0 -0.0 -0.0
000050 00 00 00 00 00 00 00 80 00 00 00 80 00 00 00 80
       0.0 -0.0 -0.0 -0.0
000060 00 00 00 80 00 00 00 80 00 00 00 80 00 00 00 80
       -0.0 -0.0 -0.0 -0.0
000070 00 00 00 80 00 00 00 80 00 00 00 80 00 00 00 80
       -0.0 -0.0 -0.0 -0.0
000080 00 00 00 80 00 00 00 80 00 00 00 80 00 00 00 00
       -0.0 -0.0 -0.0 0.0
000090 00 00 00 00 00 00 00 00 00 00 00 00 00 00 00 00
       0.0 0.0 0.0 0.0
0000a0 00 00 00 00 00 00 00 80 00 00 00 00 00 00 00 00
       0.0 -0.0 0.0 0.0
0000b0 00 00 00 00 00 00 00 80 00 00 00 80 00 00 00 80
       0.0 -0.0 -0.0 -0.0
0000c0 00 00 00 80 00 00 00 80 00 00 00 80 00 00 00 80
       -0.0 -0.0 -0.0 -0.0
0000d0 00 00 00 80 00 00 00 80 00 00 00 80 00 00 00 80
       -0.0 -0.0 -0.0 -0.0
0000e0 00 00 00 80 00 00 00 80 00 00 00 00 00 00 00 00
       -0.0 -0.0 0.0 0.0
0000f0 00 00 00 00 00 00 00 00 00 00 00 00 00 00 00 00
       0.0 0.0 0.0 0.0
000100 00 00 00 00 00 00 00 00 00 00 00 00 00 00 00 00
       0.0 0.0 0.0 0.0
000110 00 00 00 00 00 00 00 00 00 00 00 80 00 00 00 00
       0.0 0.0 -0.0 0.0
000120 00 00 00 00 00 00 00 00 00 00 00 80 00 00 00 80
       0.0 0.0 -0.0 -0.0
000130 00 00 00 80 00 00 00 80 00 00 00 80 00 00 00 80
       -0.0 -0.0 -0.0 -0.0
000140 00 00 00 80 00 00 00 80 00 00 00 80 00 00 00 80
       -0.0 -0.0 -0.0 -0.0
000150 00 00 00 00 00 00 00 80 00 00 00 00 00 00 00 80
       0.0 -0.0 0.0 -0.0
000160 00 00 00 80 00 00 00 00 00 00 00 00 00 00 00 00
       -0.0 0.0 0.0 0.0
000170 00 00 00 00 00 00 00 00 00 00 00 00 00 00 00 80
       0.0 0.0 0.0 -0.0
000180 00 00 00 80 00 00 00 80 00 00 00 00 00 00 00 00
       -0.0 -0.0 0.0 0.0
000190 00 00 00 80 00 00 00 80 00 00 00 80 00 00 00 80
       -0.0 -0.0 -0.0 -0.0
0001a0 00 00 00 80 00 00 00 00 00 00 00 00 00 00 00 80
       -0.0 0.0 0.0 -0.0
0001b0 00 00 00 80 00 00 00 80 00 00 00 00 00 00 00 80
       -0.0 -0.0 0.0 -0.0
0001c0 00 00 00 00 00 00 00 00 00 00 00 00 00 00 00 00
       0.0 0.0 0.0 0.0
0001d0 00 00 00 00 00 00 00 00 00 00 00 00 00 00 00 00
       0.0 0.0 0.0 0.0
0001e0 00 00 00 80 00 00 00 80 00 00 00 00 00 00 00 80
       -0.0 -0.0 0.0 -0.0
0001f0 00 00 00 00 00 00 00 80 00 00 00 80 00 00 00 80
       0.0 -0.0 -0.0 -0.0
000200 00 00 00 80 00 00 00 80 00 00 00 80 00 00 00 80
       -0.0 -0.0 -0.0 -0.0
000210 00 00 00 80 00 00 00 80 00 00 00 80 00 00 00 80
       -0.0 -0.0 -0.0 -0.0
000220 00 00 00 00 00 00 00 80 00 00 00 80 00 00 00 00
       0.0 -0.0 -0.0 0.0
000230 00 00 00 00 00 00 00 80 00 00 00 80 00 00 00 80
       0.0 -0.0 -0.0 -0.0
000240 00 00 00 80 00 00 00 80 00 00 00 80 00 00 00 80
       -0.0 -0.0 -0.0 -0.0
000250 00 00 00 00 00 00 00 00 00 00 00 80 00 00 00 80
       0.0 0.0 -0.0 -0.0
000260 00 00 00 80 00 00 00 80 00 00 00 80 00 00 00 80
       -0.0 -0.0 -0.0 -0.0
000270 00 00 00 80 00 00 00 80 00 00 00 80 00 00 00 80
       -0.0 -0.0 -0.0 -0.0
000280 00 00 00 00 00 00 00 00 00 00 00 00 00 00 00 00
       0.0 0.0 0.0 0.0
000290 00 00 00 00 00 00 00 00 00 00 00 00 00 00 00 00
       0.0 0.0 0.0 0.0
0002a0 00 00 00 00 00 00 00 00 00 00 00 80 00 00 00 80
       0.0 0.0 -0.0 -0.0
0002b0 00 00 00 80 00 00 00 80 00 00 00 00 00 00 00 80
       -0.0 -0.0 0.0 -0.0
0002c0 00 00 00 80 00 00 00 00 00 00 00 00 00 00 00 80
       -0.0 0.0 0.0 -0.0
0002d0 00 00 00 80 00 00 00 80 00 00 00 80 00 00 00 80
       -0.0 -0.0 -0.0 -0.0
0002e0 00 00 00 80 00 00 00 80 00 00 00 00 00 00 00 00
       -0.0 -0.0 0.0 0.0
0002f0 00 00 00 00 00 00 00 00 00 00 00 00 00 00 00 00
       0.0 0.0 0.0 0.0
000300 00 00 00 80 00 00 00 00 00 00 00 00 00 00 00 00
       -0.0 0.0 0.0 0.0
000310 00 00 00 80 00 00 00 80 00 00 00 00 00 00 00 00
       -0.0 -0.0 0.0 0.0
000320 00 00 00 80 00 00 00 00 00 00 00 00 00 00 00 00
       -0.0 0.0 0.0 0.0
000330 00 00 00 80 00 00 00 80 00 00 00 80 00 00 00 80
       -0.0 -0.0 -0.0 -0.0
000340 00 00 00 80 00 00 00 80 00 00 00 80 00 00 00 80
       -0.0 -0.0 -0.0 -0.0
000350 00 00 00 00 00 00 00 80 00 00 00 80 00 00 00 00
       0.0 -0.0 -0.0 0.0
000360 00 00 00 00 00 00 00 00 00 00 00 80 00 00 00 80
       0.0 0.0 -0.0 -0.0
000370 00 00 00 00 00 00 00 00 00 00 00 80 00 00 00 80
       0.0 0.0 -0.0 -0.0
000380 00 00 00 00 00 00 00 80 00 00 00 80 00 00 00 80
       0.0 -0.0 -0.0 -0.0
000390 00 00 00 80 00 00 00 00 00 00 00 80 00 00 00 80
       -0.0 0.0 -0.0 -0.0
0003a0 00 00 00 80 00 00 00 00 00 00 00 00 00 00 00 00
       -0.0 0.0 0.0 0.0
0003b0 00 00 00 00 00 00 00 00 00 00 00 80 00 00 00 00
       0.0 0.0 -0.0 0.0
0003c0 00 00 00 00 00 00 00 80 00 00 00 80 00 00 00 80
       0.0 -0.0 -0.0 -0.0
0003d0 00 00 00 80 00 00 00 80 00 00 00 80 00 00 00 80
       -0.0 -0.0 -0.0 -0.0
0003e0 00 00 00 80 00 00 00 80 00 00 00 80 00 00 00 80
       -0.0 -0.0 -0.0 -0.0
0003f0 00 00 00 80 00 00 00 80 00 00 00 80 00 00 00 00
       -0.0 -0.0 -0.0 0.0

conv3.bias f4 [32]
000000 00 00 00 80 00 00 00 80 00 00 00 00 00 00 00 80
       -0.0 -0.0 0.0 -0.0
000010 00 00 00 80 00 00 00 00 00 00 00 80 00 00 00 80
       -0.0 0.0 -0.0 -0.0
000020 00 00 00 80 00 00 00 00 00 00 00 00 00 00 00 80
       -0.0 0.0 0.0 -0.0
000030 70 19 ef 3d 00 00 00 00 00 00 00 80 6c 1d 79 3c
       0.11674774 0.0 -0.0 0.015204769
000040 ec d6 a1 bd 00 00 00 00 00 00 00 00 00 00 00 80
       -0.07902321 0.0 0.0 -0.0
000050 00 00 00 80 00 00 00 00 a0 ed d6 3d 00 00 00 80
       -0.0 0.0 0.10494542 -0.0
000060 60 fa 0b bd 00 00 00 80 00 00 00 00 b4 04 de 3b
       -0.034174323 -0.0 0.0 0.006775463
000070 c5 1b 71 3c 00 00 00 80 00 00 00 00 00 00 00 80
       0.014716093 -0.0 0.0 -0.0

fc1.weight f4 [64, 288]
000000 5f 39 08 3d 30 e8 fb 3d 5c cd df 3b 9d 82 97 3c
       0.03325784 0.123001456 0.0068299007 0.018494898
000010 fb 44 23 ba f2 a8 a0 3d 57 6f 97 bb d4 83 78 3d
       -0.00062282354 0.07844724 -0.004621427 0.060672596
000020 d6 6a be bc 19 03 84 3c 0c cd c9 bd 98 e8 72 bd
       -0.023244303 0.016114758 -0.09853563 -0.05930385
000030 6f 03 29 bd da 8e e9 3d b5 ca 32 3c 65 de 15 be
       -0.04126304 0.114042 0.010912587 -0.14635618
000040 05 31 43 bb 55 c7 94 bd e5 16 c3 3d f4 cf e3 3c
       -0.0029783857 -0.07264582 0.09525851 0.02780912
000050 d5 f3 87 3d db 37 60 3a aa f7 c2 3c 3a f2 f9 3d
       0.06638304 0.0008553245 0.023799736 0.12204404
000060 5e 2a fe bb d6 ad 97 bd e6 47 e9 ba fe f7 b7 3d
       -0.0077565154 -0.074062034 -0.0017797917 0.08982848
000070 70 70 6f 3d b1 ed 1d 3d 0a 50 1b 3d a2 af 4e bd
       0.058456838 0.03855676 0.037918128 -0.050460465
000080 03 11 04 bd 52 d9 33 bc c2 a0 bb 3d 13 70 89 bd
       -0.032242786 -0.010977106 0.091615215 -0.067108296
000090 53 43 a1 3c da dd b6 bc a8 10 9a 3c d7 41 93 3d
       0.019685423 -0.022322584 0.01880677 0.07190292
0000a0 53 81 2c bd 09 11 86 3d e7 9a 25 3c 24 2f 3b 3b
       -0.04211552 0.06546218 0.010107732 0.0028562034
0000b0 f0 c3 d0 bc e9 5f 1c bd 34 4b 31 3d 81 a7 fd 3c
       -0.025484055 -0.038177405 0.04328461 0.030963661
0000c0 3b 5d 80 3d f3 94 c6 bc 8b cd c2 3c f3 cc cd 3d
       0.06267782 -0.024240946 0.023779651 0.100488566
0000d0 02 d8 e4 bc b8 0a 5c bd 76 16 81 bb 7d 27 c9 bd
       -0.027935032 -0.05372116 -0.003939445 -0.09821985
0000e0 0c 71 8d 3d 0d 7a 90 3d 4f a4 5c ba e8 c6 de 3c
       0.069063276 0.07054529 -0.0008416818 0.027194455
0000f0 2c 50 5a 3d fb dc 25 3d ee 1d 06 be 86 e5 d8 bd
       0.053299114 0.040493947 -0.13097355 -0.10590653
000100 ea d9 50 bd d8 52 c6 3d 4b 68 8c 3c ac ad 6f 3d
       -0.05098907 0.0968377 0.017139575 0.058515236
000110 50 e7 80 3d 13 02 7a 3c 5b d4 4f bd fa a0 10 bc
       0.06294119 0.015259284 -0.050739627 -0.008827442
000120 9b f9 08 3e 53 ee f6 3d 07 fd e8 bc c4 02 3a 3d
       0.13376467 0.120571755 -0.028440965 0.045412794
000130 38 4d 83 bb fc 9f 7c 3d cd d7 85 bd 8a b0 3e 3d
       -0.004007008 0.06167601 -0.06535301 0.04655508
000140 d4 24 b5 bd 95 e4 b4 bd 56 80 77 bd c5 93 03 be
       -0.08844915 -0.08832661 -0.060425125 -0.12849338
000150 32 f3 72 bc fb 18 7c 3d 04 d6 9d ba 22 97 9d bd
       -0.01482849 0.06154726 -0.0012041931 -0.07694842
000160 1d 12 60 bc 5c 33 42 3d 3e 32 45 3d b3 37 4d bc
       -0.013676194 0.04741226 0.048143618 -0.012525487
000170 e8 79 6f bc fc ed b7 3d 60 9e e1 3c 30 73 16 bc
       -0.014616467 0.08980939 0.02754134 -0.009182736
000180 86 66 9a bd 32 d7 85 3d 29 fb 80 bd 2d eb af ba
       -0.07539086 0.06535186 -0.06297905 -0.0013421528
000190 35 e4 34 3d ae 3a 63 3b 56 c9 7f bd 0b 40 d5 3c
       0.044162948 0.0034672427 -0.06244787 0.026031515
0001a0 28 19 4a 3d ac bc 54 3d 09 28 6e 3c 30 19 07 bc
       0.049340397 0.051937744 0.014535912 -0.008245751
0001b0 e0 72 c6 bd 71 7f 11 be 4e e0 3a be d7 64 90 3c
       -0.096898794 -0.14208771 -0.18249628 0.01762621
0001c0 11 54 d0 3d a5 d9 57 be e5 2c 9f be db b4 63 bd
       0.101722844 -0.21079119 -0.3108894 -0.0555924
0001d0 12 50 21 bb cd 0f bc 3c 8a 39 61 bc 89 de 8a 3d
       -0.0024614376 0.022956753 -0.013746629 0.067807265
0001e0 d6 87 fa bd cc 26 ec 3c 84 ea 5d 3c 52 8b e2 3d
       -0.1223294 0.028827094 0.013544682 0.110617295
0001f0 f5 5b b5 bd d8 80 a8 bd 98 bf 10 be 1d 6a 4e bc
       -0.0885543 -0.082277 -0.14135587 -0.012598542
000200 fc e4 ee bd 1a 1c 26 bd c4 b8 24 3d 3e 16 da 3c
       -0.11664769 -0.040554143 0.04021527 0.026621934
000210 c1 e5 b9 bd 5b 78 b3 bb 22 8e 69 bd ef fa 0e 3d
       -0.09077025 -0.005476994 -0.057020314 0.034907278
000220 c2 a2 85 3d db 31 2a 3c e0 71 e4 bd 52 a0 11 3d
       0.06525184 0.010387863 -0.111545324 0.035553284
000230 3c b8 b5 3d 50 16 69 3c 1b f0 11 3d 76 c2 87 3c
       0.088730305 0.014226511 0.035629373 0.016572218
000240 18 ff ca 3d 3b 5a 3e 3d 59 7b 40 bd fd 6d 0b 3d
       0.099119365 0.04647277 -0.046992633 0.03404044
000250 d8 c3 31 3e 40 d7 40 3d 20 6f 4b 3e 89 89 d1 3b
       0.17359865 0.04708028 0.1986661 0.0063945693
000260 b0 42 b3 bd 5f 10 2b 3d e1 d9 99 3c 78 5e 58 bd
       -0.08752954 0.04176366 0.01878065 -0.052824467
000270 d4 b4 ab 3d 35 2c 0c bb 70 42 4f bd 4f 27 3a bd
       0.083840996 -0.0021388654 -0.05060047 -0.045447644
000280 5a 4d 61 bd d7 82 85 bd 79 23 65 bd fa 12 11 be
       -0.05500541 -0.06519096 -0.055942032 -0.14167395
000290 87 f7 c8 bc 98 3b e4 bd ab 8b f3 3a f2 cd 75 3d
       -0.024532093 -0.11144179 0.0018581053 0.060010858
0002a0 04 e3 1c bd 16 41 89 bc 6f e2 a2 3c 2e 24 86 3c
       -0.038302436 -0.016754668 0.019883363 0.016374674
0002b0 ff c0 c0 3d c9 4b 31 3d fa c8 9e 3c a1 70 d0 bc
       0.09411811 0.043285165 0.019382942 -0.02544433
0002c0 d3 c8 c4 bc 52 da a2 3d 12 f4 af 3c 25 24 52 bd
       -0.024021542 0.079517975 0.021478686 -0.051304
0002d0 db 21 30 bc d2 5a ab 3d 11 23 ce 3d b7 3e 08 bd
       -0.010750259 0.08366932 0.10065282 -0.033262935
0002e0 8a 2f 51 bd 9b a5 27 3b be 3e 8e 3d a4 eb 4e ba
       -0.051070727 0.0025580886 0.06945561 -0.00078933896
0002f0 f1 3d 2d 3b cf ea 95 3d c2 38 01 3d 0e 4e da bd
       0.0026434625 0.07320177 0.03154827 -0.10659419
000300 1f dd 2d 3d 86 dc 68 bd 81 8c 9b bc 8c 34 98 bc
       0.042447206 -0.056850933 -0.018987896 -0.018579744
000310 60 61 cd 3c e6 e1 2f 3d df 01 82 bd 4b 1d 5a 3d
       0.025070846 0.042940043 -0.06348013 0.053250592
000320 49 12 36 be e1 74 77 bd d7 b7 b0 3c 8a f8 da 3d
       -0.17780413 -0.0604142 0.021572037 0.10691936
000330 8c f2 40 bc 59 a7 8b 3d 7b 0c 98 bc 72 a0 10 bb
       -0.011776578 0.068190284 -0.018560639 -0.002206829
000340 2f 37 6e bc 8e ce 5b 3d e9 c1 2d 3d da b5 1f 3d
       -0.014539524 0.053663783 0.042421255 0.038991787
000350 8b 93 41 3d 43 52 a2 3d a3 5a b3 3c c5 14 68 bc
       0.04725985 0.079258464 0.021893805 -0.014165108
000360 3a 58 8f bd 05 90 ad 3d 01 9f 28 be 83 6e 3e 3e
       -0.0699925 0.08474735 -0.16466905 0.18596844
000370 fe 38 b4 3d 0e c0 ad bd 3a 5d f1 3d f3 7e 7f 3d
       0.08799933 -0.08483897 0.1178536 0.062376928
000380 4b 5a f9 3b 6f c1 63 bc 61 47 38 bd 1e a6 cd bc
       0.0076096407 -0.013901099 -0.044989947 -0.025103625
000390 92 78 2b 3d e9 79 b8 3c 5c 73 04 3c 81 94 98 bc
       0.04186303 0.022519069 0.008084144 -0.0186255
0003a0 c5 84 d5 3b c9 1c 5f 3d 9d f5 f3 bd de 82 8a bc
       0.0065160715 0.05447081 -0.119120814 -0.016908105
0003b0 a2 39 0c be 40 f4 39 bd 01 b1 05 bd ee c0 1d bd
       -0.1369386 -0.04539895 -0.032639507 -0.03851407
0003c0 42 40 2a be 15 89 bc 3d ce 93 c7 3d 16 f4 39 bd
       -0.16626075 0.09205834 0.097449884 -0.045398794
0003d0 06 83 4a be ee e3 33 bd 4f ad 5f bd 0a 73 04 3e
       -0.19776544 -0.043918543 -0.05460864 0.12934509
0003e0 24 c2 5e 3e ff 25 a1 3d c8 14 f8 3d 34 85 bf 3c
       0.21753746 0.07868575 0.12113339 0.023378946
0003f0 6a 84 58 bd 15 56 28 3d cd 61 d3 3d 66 23 0f be
       -0.052860655 0.04109772 0.103213884 -0.13978347

fc1.bias f4 [64]
000000 dd 72 37 bd 7a 4b 83 3d cf 7f ae bb 57 fc 52 3d
       -0.044787277 0.064108804 -0.0053252946 0.05151018
000010 43 a1 10 3d 85 6d 32 3d 0b 42 a1 3d 85 9a 15 3d
       0.03531004 0.043561477 0.07873925 0.036524314
000020 4e f2 8f 3d 21 8a ff 3d 54 9f a8 3c 5b 1c da bc
       0.07028638 0.12477518 0.020583786 -0.026624849
000030 4f 0d 84 3d 90 25 96 bd ee aa 17 3e 33 f4 a2 bd
       0.06447851 -0.07331383 0.14811298 -0.079567336
000040 29 84 a1 3c 9c 58 5e bd e7 5b 89 bd ea 2b be 3d
       0.01971634 -0.054283723 -0.06706982 0.0928572
000050 53 56 b4 bd c9 c3 a9 3b 9c 51 4f 3d fd 6c 22 bc
       -0.088055275 0.00518081 0.05061494 -0.00991368
000060 a7 8e c4 3d 42 6e ed 3c 27 b5 59 bd 0d 31 e8 3d
       0.09597521 0.02898324 -0.053151276 0.11337481
000070 ff 1d f7 3d 46 89 91 3d f6 d7 6b 3d 4d 56 12 3e
       0.12066268 0.07106261 0.057579003 0.14290734
000080 fa 9f 63 3d e8 dd 02 be 5d b3 e6 bd c0 ea c6 3d
       0.055572487 -0.12779963 -0.112646796 0.09712744
000090 5c 51 95 bc 88 50 87 bc 3e cc 2e 3e 40 64 c0 bd
       -0.018227272 -0.016517892 0.170701 -0.09394121
0000a0 3d 54 ba bd eb f6 75 bd 6e 3a cc 3c e1 e6 c5 3d
       -0.090980984 -0.060049932 0.024930205 0.09663177
0000b0 d5 7b 0e bc 90 49 fa 3d f6 a9 8c 3c 9a ea 72 3d
       -0.008696516 0.12221062 0.017170887 0.059305765
0000c0 0c 50 7b 3b 04 ea 64 3d 83 02 a5 3b fd d6 c3 bd
       0.0038347272 0.055887237 0.0050357 -0.0956249
0000d0 a6 71 bf 3d 83 6a b1 3d 2c 6f e6 3d 93 8b 7e 3d
       0.093478486 0.086628936 0.11251673 0.062144827
0000e0 80 1a 84 bd 79 36 09 bc 98 09 c5 3c fd d2 a2 bd
       -0.06450367 -0.008374804 0.024052426 -0.07950399
0000f0 b1 7f dc 3d d9 b0 6b 3c ad ee 9d 3d 4b c2 82 3c
       0.10766543 0.0143854255 0.077115394 0.015961787

fc2.weight f4 [32, 64]
000000 e6 cf 8c 3c 26 fa 4a bb 85 bf 28 be 21 20 aa 3d
       0.017188977 -0.0030971854 -0.16479309 0.08306909
000010 82 ab e6 3d 66 b3 6a 3e 01 db 21 3e 08 c6 62 39
       0.11263181 0.22919998 0.158062 0.00021626812
000020 4b 8b 90 bd 79 a4 d3 bd 13 f3 58 3e d8 6d 23 be
       -0.07057818 -0.10334105 0.21186475 -0.15959871
000030 4e 45 d4 bd 4a 7d 85 3c c1 15 82 3c 74 1c a1 bc
       -0.10364781 0.016295094 0.015879514 -0.019666888
000040 25 5e c6 bd fa d3 d9 bd d4 27 94 3d 8c 63 10 3e
       -0.096859254 -0.106361344 0.07234159 0.14100474
000050 f4 ea a1 3d 76 ff 1d bd 1f 42 ee 3d cd 8a 00 3d
       0.07906142 -0.038573705 0.11633705 0.03138237
000060 d1 35 5a 3e 6a 72 ed 3d 97 cb 62 3d 9b 67 7b bd
       0.21309592 0.115940884 0.05536994 -0.061378103
000070 0a c7 0e 3e e1 13 bf bc bc 7b 78 bd 5e 78 68 3e
       0.13943115 -0.023324909 -0.060664877 0.22702166
000080 42 fb 13 be 6e 9f bf bc 1a db 27 be e0 e1 2e 3d
       -0.14451316 -0.023391452 -0.16392174 0.04269588
000090 9c 47 77 3c 16 b0 61 3d 5c d6 1e 3e 67 a8 59 be
       0.015092757 0.05509957 0.15511459 -0.21255647
0000a0 a5 20 53 bd 14 b6 64 3c ed 72 fa 3d ed 95 95 3e
       -0.051544804 0.013959426 0.122289516 0.29215947
0000b0 09 fb 5c be 99 a7 01 3d 58 2d 27 3e 3b ba dd bb
       -0.21580137 0.031653974 0.16325891 -0.006766585
0000c0 cb 19 f0 bd 7a ec 11 3e 87 5d 88 be 49 c4 6a bd
       -0.117236696 0.14250365 -0.26633856 -0.0573161
0000d0 13 ce 69 bd 4c ba 0e bc ac d5 9c 3e 03 eb d7 bc
       -0.057081293 -0.008711409 0.3063177 -0.02635718
0000e0 f4 0d ef bd 31 69 83 bd ba 32 69 3e 98 96 02 3e
       -0.11672583 -0.06416548 0.22773257 0.1275276
0000f0 07 7d 66 bd 32 5d bc bd 29 3d 26 3e e7 eb c8 bc
       -0.05627158 -0.09197463 0.16234268 -0.02452655
000100 46 7f bf bd 7f a7 bb bd c2 0b 10 be 2d c3 6a 3e
       -0.09350447 -0.09162807 -0.14066985 0.22926016
000110 08 d0 f9 3d 4a cc 1a 3e d7 f6 ea bd 36 b8 33 3e
       0.12197882 0.15116993 -0.11472862 0.1755074
000120 d4 12 89 3e 7c 7f 3e 3e d3 26 0e 3d 2e 00 6a 3e
       0.26772177 0.18603319 0.034704994 0.22851631
000130 29 b8 d5 bc e0 4c ef 3c be e6 5e bb 1d f3 0d 3d
       -0.026088791 0.029211462 -0.0034012045 0.03465568
000140 9c 50 7d 3c 41 35 6f bd 87 5a 35 3d d6 16 da 3d
       0.015461113 -0.058400396 0.044275787 0.10648887
000150 3a e5 f9 3d 0e 8c 5f 3e df 46 c6 3d ce 87 93 bd
       0.122019246 0.2183077 0.09681486 -0.07203637
000160 d3 25 18 be ac fa b9 3d 84 69 cd bc a2 ef a2 bd
       -0.14858179 0.09081015 -0.025074728 -0.079558626
000170 0a 48 c2 bd 87 c9 06 be 47 99 f1 3d 15 22 46 bd
       -0.094863966 -0.13162814 0.117968135 -0.048372347
000180 d6 93 4e bd 1a 56 3f bd 28 f0 bc 3c 14 af 0d 3e
       -0.050433956 -0.046712972 0.023063734 0.13836318
000190 1c cc 17 3d 33 ea 9f bd e6 36 89 3e df 49 8a 3e
       0.03705989 -0.07808342 0.26799697 0.27009484
0001a0 37 c9 83 bd cb 10 f6 bd a3 85 14 be e6 d6 4c 3c
       -0.06434863 -0.12014922 -0.14504103 0.012502408
0001b0 f7 c6 4b be c8 02 1e be 5d 16 5d be 33 04 f8 bd
       -0.19900118 -0.15430748 -0.21590562 -0.12110176
0001c0 f2 21 46 3e c3 0d ed 3d 16 ab 32 3e 75 94 61 3d
       0.19348887 0.115748905 0.17448077 0.05507322
0001d0 f0 a8 a9 3e 3b 7e 7c 3d b8 8a 00 3e b3 21 1e 3e
       0.33136702 0.06164382 0.12552917 0.15442543
0001e0 a3 12 00 be 5e eb 98 bd 29 39 0c 3e e9 a2 3e be
       -0.1250711 -0.07466768 0.1369368 -0.18616833
0001f0 6c e5 3a 3e 64 a7 5f 3e cf 43 45 3d b0 59 fd 3d
       0.1825158 0.21841198 0.04816037 0.12370622
000200 d2 88 24 3b 50 fc d8 3d 75 82 f0 3d 65 05 2d 3e
       0.0025105965 0.10595 0.11743633 0.16896589
000210 4f 34 69 3d a6 54 99 3d 38 99 2b 3e db c7 91 bd
       0.05693465 0.074868485 0.16757667 -0.071181975
000220 f5 bc 29 3e bc d6 28 3e d0 dc c3 bd 29 9c c1 3d
       0.16575988 0.16488165 -0.09563601 0.09453613
000230 73 0a 52 3e 9e 2b 30 be 97 f0 40 3e 3d c5 19 bd
       0.20511799 -0.17204139 0.18841778 -0.037541617
000240 ca cb 24 3e 8f 1d dc 3d 9a b4 91 bd 1f a8 8b 3d
       0.16093364 0.10747825 -0.07114525 0.06819176
000250 d8 b4 78 bd d1 0f bc 3e f5 41 e9 3d 5f e7 36 3e
       -0.06071934 0.36730817 0.113895334 0.17861699
000260 57 3a c9 bd 45 56 e5 3d 87 83 34 3a bb 7f 7d 3d
       -0.098255806 0.11198095 0.0006886054 0.06188939
000270 fc 9b 9b 3e 80 ae f8 3d 6c 1b 19 3e 24 4d 12 be
       0.30392444 0.12142658 0.14951867 -0.1428724
000280 5d 62 98 bd 5b d4 1b bd ac 60 93 3d 23 25 9c 3d
       -0.07440636 -0.038044315 0.07196173 0.07624271
000290 f0 6d 06 be a5 0d cf 3d f9 f0 88 3e 27 8c 19 3d
       -0.13127875 0.10110024 0.26746348 0.037487175
0002a0 9a ee c2 bd 11 73 0f bb 3f 29 17 bd 8f 1c 43 3e
       -0.09518166 -0.0021888653 -0.03690457 0.19053863
0002b0 b4 08 d7 bd fd 52 d6 3d 17 9b 36 be 03 21 a6 3d
       -0.10499707 0.104650475 -0.178326 0.08111765
0002c0 d0 7f a2 3d 8e 80 65 3d f3 47 2e 3d bc eb 2a be
       0.079345345 0.056030802 0.042549085 -0.16691488
0002d0 bd d2 cf 3d 97 ad 80 be 7f ae 21 3e 60 16 a2 bd
       0.10147617 -0.2513244 0.15789221 -0.07914424
0002e0 09 4f 51 3d fb ca e1 bc 1a d9 d3 bd 6c c2 e7 3e
       0.051100764 -0.027562609 -0.10344143 0.4526552
0002f0 d7 18 05 3e b3 ea 62 bc 9d bb 7e 3d f7 fd 47 be
       0.12997757 -0.013849902 0.06219064 -0.19530474
000300 93 54 34 3d 3c 8a a0 bd ac 93 e1 bd 3f 52 da bb
       0.04402597 -0.07838866 -0.11014494 -0.0066626365
000310 50 1a 08 be 56 0d 20 bd fa 42 a1 bd 63 ea 82 3d
       -0.13291287 -0.03907522 -0.07874103 0.06392362
000320 88 db 1f be 10 27 32 3d a8 76 a1 3d 4e 12 1f bd
       -0.15611088 0.043494284 0.0788396 -0.038835816
000330 90 6b 67 3d bf a8 19 be 09 c0 e0 3c a6 de 41 3d
       0.056499064 -0.15005778 0.02743532 0.047331475
000340 9e f9 06 be aa 25 7d bd cd 0e b7 3b 8e 64 2d 3d
       -0.13181159 -0.061803497 0.005586481 0.042332225
000350 d2 0d ff 3d 5f ca a1 bd 5e d8 ea bd 2d 37 00 be
       0.12453808 -0.07899927 -0.1146705 -0.12521048
000360 19 88 23 be 46 ce e4 bd b2 98 ef 3d fd bf 3e bd
       -0.15969886 -0.11172156 0.11699046 -0.046569813
000370 e6 5a ee bd bc 84 97 3d a7 f7 55 3d 6a d4 2b 3d
       -0.11638431 0.07398364 0.052238133 0.04195062
000380 81 78 d7 3c 5b 3c a5 3d 52 b7 67 3d fe 72 87 bd
       0.026302578 0.080681525 0.056571312 -0.0661373
000390 a9 fa 93 3d dc 8e e2 bd a5 2f 56 3d 69 ae ba bc
       0.07225544 -0.110624045 0.05229153 -0.022788243
0003a0 ca 21 e4 bd 9c 3d cf 3d c7 42 17 3d 0c 6e ca bc
       -0.11139257 0.10119173 0.03692892 -0.024710678
0003b0 07 dc 6b 3d ef 8b 49 bd 3b 0b 80 bd 3b af aa bd
       0.05758288 -0.049205717 -0.06252142 -0.08334204
0003c0 19 dc fa bd c1 44 d8 bd 36 89 de 3c a1 57 d0 3d
       -0.122490115 -0.10559989 0.027165037 0.10172964
0003d0 dc 60 9b bc d9 d3 4a 3d 29 8e 60 3d 57 c3 da 3c
       -0.018967085 0.04951844 0.054823074 0.026704473
0003e0 b0 6d e7 bd 7c 12 81 bd c5 27 63 3c 98 94 80 bd
       -0.11300218 -0.06302354 0.013864462 -0.06278342
0003f0 a3 1e 5d 3d 1a 16 d0 3c 77 50 aa bc de ab 78 bc
       0.053984296 0.025401164 -0.020790322 -0.015177695

fc2.bias f4 [32]
000000 c0 41 67 3e 3f 5f d5 3b ad e9 4d 3c 1f b2 ae bd
       0.22583675 0.0065115984 0.01256792 -0.08530068
000010 18 1d 81 bd e4 e9 b6 3c 16 df ca bd 77 3e 5c 3e
       -0.06304377 0.022328325 -0.099058315 0.21508203
000020 11 47 b3 bd a4 a0 96 3d 5a f4 34 3d d2 4d e4 bd
       -0.08753789 0.073548585 0.044178344 -0.111476555
000030 f4 18 fd 3d c1 f0 8d 3d ee ee 3a 3e 60 ac d6 bd
       0.12358275 0.06930686 0.18255207 -0.10482097
000040 48 52 c6 bd cb 98 d1 3c ff e4 cf 3d 77 df f9 3d
       -0.09683663 0.025585553 0.101510994 0.12200826
000050 d7 59 05 3e 25 53 e2 bc 58 6c f8 bc 1e 5c 0c 3d
       0.13022552 -0.027627537 -0.0303251 0.034267537
000060 4d 82 1c be a3 76 2e 3e 9f e1 25 3d 61 b5 74 bd
       -0.15284081 0.17037444 0.040498372 -0.05974329
000070 40 6c 6d bd 54 23 5f 3b 1a 7d 38 3e 07 cd c0 bd
       -0.057964563 0.0034048157 0.18016472 -0.09414106

fc3.weight f4 [10, 32]
000000 1b c0 e9 3b 27 36 fe bc 5f 50 59 3e 6c 80 d3 3b
       0.0071334965 -0.031031681 0.21222065 0.006454518
000010 fa 82 87 bd b0 0c 49 be 55 84 09 be ec b8 f9 3d
       -0.06616779 -0.19633746 -0.13429387 0.12193474
000020 28 33 5e be 25 7d 89 be 65 16 6e bd 59 fb 54 be
       -0.21699202 -0.2685329 -0.058126826 -0.20799007
000030 4b f5 86 3e 2e 1f d5 3d a9 f9 2b 3e a6 ac 10 be
       0.2635902 0.10406338 0.16794457 -0.1412836
000040 49 06 82 3c 72 72 c1 3d c8 0b 57 be 6c a1 60 3e
       0.015872138 0.09445657 -0.21000588 0.21936578
000050 25 62 ac 3c 1f 0a 95 be 84 f3 bc 3c 9c 5c 66 3e
       0.021042893 -0.29109284 0.023065336 0.22496265
000060 3f b5 92 be 8c 3e 30 be 14 20 64 3e 53 66 cd bd
       -0.28653905 -0.1721136 0.22277862 -0.100292824
000070 72 25 0b 3e 46 ad 2d be 24 62 6e be ad 56 0d be
       0.13588503 -0.1696063 -0.23279625 -0.13802595
000080 59 17 33 3e 15 a4 47 3e 54 00 86 3e 16 ba a1 3d
       0.17489375 0.19496186 0.26172125 0.07896821
000090 cf c1 d0 bb 5f 10 e9 3d c7 42 0f 3e fe 86 4f 3e
       -0.00637076 0.11380076 0.13990317 0.20266339
0000a0 e5 65 2e bd a4 53 0f be 86 ff 52 bc c0 5a e4 bd
       -0.042577643 -0.1399675 -0.012878304 -0.11150122
0000b0 4a c4 95 be 95 2f 9e be bf 37 5e 3e 1a 56 b7 bc
       -0.2925132 -0.30895677 0.21700953 -0.022379924
0000c0 42 b5 00 3e c6 df 75 be 6c 81 30 3e 38 5f 14 be
       0.12569144 -0.24011144 0.1723687 -0.14489448
0000d0 a3 e5 13 3e 2d ce 1b be 99 0f ca bd 60 3a ae 3e
       0.14443068 -0.15215369 -0.09866256 0.34028912
0000e0 07 0e 44 be 01 6a 42 bd 14 b1 75 be 00 1d cd bd
       -0.19145976 -0.047464374 -0.23993331 -0.10015297
0000f0 f0 b6 c1 be 26 7a 48 be d4 2b a3 3c 02 f8 9f 3d
       -0.37834883 -0.19577846 0.01991836 0.078109756
000100 3d 4e f6 bd b8 d5 a0 3d 68 d0 81 3e 07 2e 23 3d
       -0.120266415 0.078532636 0.25354314 0.039838817
000110 3e 98 16 be 6e 24 88 be 3b 02 5f 3d 3e b8 81 bc
       -0.14706513 -0.26590294 0.054445487 -0.015834924
000120 72 31 4c bd 5c e3 72 3e 3f 8b 31 be 16 06 87 3e
       -0.049851842 0.23719543 -0.17338274 0.2637183
000130 7f 9e 72 3d 4c aa 02 be a0 b6 5c 3e 28 46 fa bd
       0.059233185 -0.12760276 0.21554041 -0.122204125
000140 cf 63 c3 bd 36 13 96 3d ac c5 5a be cb d0 8d be
       -0.09540521 0.07327883 -0.21364468 -0.2769836
000150 73 de 81 be ac eb 5a bd 14 c5 73 bd eb db 99 be
       -0.25365028 -0.05344741 -0.05951412 -0.30050597
000160 0f 8d d0 3c ec 4a e9 3d 06 a8 45 3e ae 48 0c bc
       0.025457887 0.11391243 0.19302377 -0.00856225
000170 e1 dc d9 bd bc 32 03 3e 94 15 81 be e1 ed 2a 3e
       -0.106378324 0.12812322 -0.25211775 0.16692306
000180 bc ce 0b be a7 8d 96 3d 2a aa 71 be ed 5c 09 be
       -0.13653082 0.07351237 -0.23600069 -0.13414355
000190 09 2f 00 be 2d 6d 8b 3d 53 41 02 3e 92 b6 eb bd
       -0.12517942 0.06807933 0.12720232 -0.11509432
0001a0 0e 79 f2 bd 14 2d db 3d 1e 39 ca bd 71 64 26 bd
       -0.118394956 0.10701957 -0.098741755 -0.040623132
0001b0 7e 8c 4d be 48 39 93 3e a9 d0 45 3e 77 3e 9a 3b
       -0.20073125 0.2875464 0.19317879 0.0047071534
0001c0 59 8f f6 bb 37 b1 06 bd 5f 69 c2 be 60 f8 05 3e
       -0.0075244126 -0.03288385 -0.37971017 0.13083029
0001d0 f4 e6 05 3d aa 38 4c 3e d2 12 1a be 8b cf 0f be
       0.032690957 0.1994349 -0.15046242 -0.14044015
0001e0 4d 91 af 3d 00 a7 b5 be 7d b0 27 be 7b 16 47 bd
       0.08572636 -0.35478973 -0.16375919 -0.048605423
0001f0 57 aa 46 bd 18 71 22 bd 90 17 f2 3d 5e 74 63 3e
       -0.048502292 -0.039658636 0.118209004 0.2221236
000200 09 da ae 3e 34 07 0f bd 55 94 ab 3d 35 0a a7 3d
       0.34150723 -0.03491898 0.083779015 0.08156244
000210 9c 3d 47 bd 1e ec 21 be ee 6d 2f 3d a1 8e 7d 3e
       -0.04864274 -0.15812728 0.042829446 0.2476144
000220 0e 40 92 bd 52 61 60 3e f1 43 01 be 8d ea 47 3e
       -0.07141124 0.21912125 -0.12623574 0.19523068
000230 38 16 ad 3d 22 0c b5 bd 05 5e f6 bc c2 5b 27 bd
       0.084515035 -0.08840205 -0.030074129 -0.04085899
000240 c1 67 86 bd 7a 6b 19 be 21 13 2b be c8 56 39 3e
       -0.06562758 -0.14982405 -0.16706516 0.1809951
000250 38 cd e4 bd 7c 44 84 be e6 49 ba 3d 96 d2 a9 be
       -0.11171955 -0.258335 0.09096126 -0.33168477
000260 e6 f5 d4 be 1a 2c 1f 3e 68 41 d8 bd af e5 2c bd
       -0.41593856 0.15544167 -0.1055935 -0.04221123
000270 b0 b6 87 3e d6 c5 cc bd c3 82 32 3e 0d 7e e6 bd
       0.26506567 -0.09998672 0.17432694 -0.11254511
000280 db e1 e7 3d 8f b9 97 bc 2e bb 02 be da 2f 06 be
       0.113223754 -0.018521098 -0.12766716 -0.13104191
000290 96 60 13 3e da fb 60 bd 3c 86 cc ba a5 e5 aa bd
       0.14392313 -0.054927684 -0.001560397 -0.083445825
0002a0 69 d1 d4 bd 00 7d 8b bd d9 95 8b be db 8e 24 3d
       -0.10391504 -0.06810951 -0.27262762 0.0401753
0002b0 43 e3 a1 be 2a 2b 4f 3e 50 75 d3 bd cb bc ed 3d
       -0.316187 0.2023131 -0.1032511 0.11608275
0002c0 03 4c 75 3e af be 4c be 6a a0 1f 3e d1 1c 87 3c
       0.23954777 -0.19994615 0.15588537 0.016493233
0002d0 ae 53 83 3e dc 09 59 be b9 83 5a 3e c4 6a a2 bc
       0.2564978 -0.21195167 0.2133931 -0.0198263
0002e0 19 17 47 bd 16 56 ee bd f4 ed 2a 3e e8 ef 2e be
       -0.048606012 -0.11637513 0.16692334 -0.17083704
0002f0 31 8c f5 3c 31 8c 27 3d 03 45 3d be 62 fb 63 3d
       0.029974075 0.04090518 -0.18483357 0.05565966
000300 c3 2e bc be fd 9e fb bd b6 72 73 3d 2d 85 3d bc
       -0.36754426 -0.12286184 0.05943557 -0.011567396
000310 e9 8d 26 be 7b 66 42 3e cc 27 38 3d 4d 1b ca 3d
       -0.16265072 0.18984406 0.04495983 0.098684885
000320 a4 12 75 3d 34 66 d5 3d 05 53 54 3d be 37 83 be
       0.05983223 0.10419884 0.051836986 -0.25628465
000330 c5 0b 03 3e a2 ad 92 bd ee 05 13 bd 80 98 07 be
       0.12797458 -0.07162024 -0.035894327 -0.13241768
000340 f9 a9 10 3d 42 6c 91 be 1b ee 1a 3e bb 12 91 3e
       0.03531835 -0.28402907 0.15129893 0.28334603
000350 cd c4 25 be 5f 49 92 3d c7 66 92 3e f8 1c 57 be
       -0.16188355 0.07142901 0.28594038 -0.21007144
000360 c7 d9 15 be d9 df 4a 3e 18 b2 ff 3d 73 7f 90 bc
       -0.14633857 0.19811954 0.124851406 -0.017638898
000370 1b 31 56 3e 9d f4 a9 3c 97 e0 c6 be 20 84 33 3e
       0.2091717 0.020746524 -0.38843223 0.1753087
000380 f0 51 83 3d d5 25 64 3e fd 63 0b 3c 8e 73 09 be
       0.06412113 0.22280057 0.008507726 -0.13422987
000390 81 2c 16 be 0f 76 5c bc 8d 9c 10 bd 82 eb 86 be
       -0.14665414 -0.013455882 -0.03530555 -0.26351553
0003a0 14 44 c9 3a a6 16 dd bd 2b 24 1b be 03 99 d1 3d
       0.0015355372 -0.107953355 -0.15150516 0.10234263
0003b0 3e 7f 34 3d 93 d5 6a be 5d b0 36 be 79 8d d7 3d
       0.04406666 -0.22933035 -0.17840715 0.10525031
0003c0 8c 19 94 3e 5c 73 5c 3e cf 86 16 be 31 ba 4d 3e
       0.2892574 0.21528381 -0.14699863 0.20090558
0003d0 3b be 23 be 3b 2a 00 3e f7 ca fb bd 18 6b e1 3d
       -0.15990536 0.1251611 -0.12294572 0.11006755
0003e0 b7 93 10 3c 73 16 20 be 9f fc 53 3d 0f 90 17 be
       0.00882428 -0.15633564 0.05175459 -0.14801048
0003f0 0a 51 1a be 51 a1 f5 3d 22 7a 8d 3e 0d 43 64 bd
       -0.15069976 0.11993659 0.27632242 -0.055728007

fc3.bias f4 [10]
000000 a2 82 be 3d a0 61 24 3b 5f 05 c9 3d 44 75 2d 3e
       0.0930226 0.0025082603 0.098154776 0.16939265
000010 0b 2d c2 3c e2 d9 c7 bd 6e e0 1c 3e 7a e2 21 3d
       0.023703119 -0.09758355 0.15319988 0.039522626
000020 7e 7a 1c be 64 4a 9f 3d
       -0.15281102 0.07777861
