ch6/data/L2NormPruner_pruned.pth (torch, 242369 bytes, 12 tensors)

conv1.weight f4 [16, 1, 5, 5]
000000 00 00 00 00 00 00 00 00 00 00 00 00 00 00 00 00
       0.0 0.0 0.0 0.0
000010 00 00 00 00 00 00 00 00 00 00 00 00 00 00 00 00
       0.0 0.0 0.0 0.0
000020 00 00 00 00 00 00 00 00 00 00 00 00 00 00 00 00
       0.0 0.0 0.0 0.0
000030 00 00 00 00 00 00 00 00 00 00 00 00 00 00 00 00
       0.0 0.0 0.0 0.0
000040 00 00 00 00 00 00 00 00 00 00 00 00 00 00 00 00
       0.0 0.0 0.0 0.0
000050 00 00 00 00 00 00 00 00 00 00 00 00 00 00 00 00
       0.0 0.0 0.0 0.0
000060 00 00 00 00 00 00 00 80 00 00 00 00 00 00 00 80
       0.0 -0.0 0.0 -0.0
000070 00 00 00 80 00 00 00 80 00 00 00 80 00 00 00 80
       -0.0 -0.0 -0.0 -0.0
000080 00 00 00 80 00 00 00 80 00 00 00 80 00 00 00 80
       -0.0 -0.0 -0.0 -0.0
000090 00 00 00 80 00 00 00 80 00 00 00 80 00 00 00 80
       -0.0 -0.0 -0.0 -0.0
0000a0 00 00 00 80 00 00 00 80 00 00 00 80 00 00 00 80
       -0.0 -0.0 -0.0 -0.0
0000b0 00 00 00 80 00 00 00 80 00 00 00 80 00 00 00 80
       -0.0 -0.0 -0.0 -0.0
0000c0 00 00 00 80 00 00 00 80 86 b8 31 3e 93 05 a6 3e
       -0.0 -0.0 0.17355546 0.32426128
0000d0 d1 f8 be 3e 2b 3d 28 3e 7e 5a 3b 3e f1 40 61 3d
       0.37299207 0.16429584 0.18296239 0.054993574
0000e0 11 42 b7 3e e9 a7 78 3d 3a f8 3d be 7c 79 64 3e
       0.35792592 0.060707007 -0.18551722 0.22311968
0000f0 41 22 4f 3e 98 9b 75 3e 3b 87 dd be 22 46 09 bf
       0.2022791 0.23985136 -0.43267235 -0.5362264
000100 4c ec 08 be ac c8 49 be 3f 8c 00 be 96 46 3a be
       -0.1337139 -0.19705456 -0.125535 -0.18190989
000110 58 2e a3 be c5 37 53 3b a4 52 ba 3d ba 18 40 be
       -0.31871295 0.0032229286 0.09097794 -0.18759432
000120 41 26 54 3e b4 21 41 bd 2b 97 08 3e 00 00 00 80
       0.20717718 -0.047151282 0.13338916 -0.0
000130 00 00 00 80 00 00 00 80 00 00 00 80 00 00 00 80
       -0.0 -0.0 -0.0 -0.0
000140 00 00 00 80 00 00 00 80 00 00 00 80 00 00 00 00
       -0.0 -0.0 -0.0 0.0
000150 00 00 00 00 00 00 00 80 00 00 00 80 00 00 00 80
       0.0 -0.0 -0.0 -0.0
000160 00 00 00 00 00 00 00 00 00 00 00 80 00 00 00 80
       0.0 0.0 -0.0 -0.0
000170 00 00 00 80 00 00 00 00 00 00 00 00 00 00 00 80
       -0.0 0.0 0.0 -0.0
000180 00 00 00 80 00 00 00 80 00 00 00 80 00 00 00 80
       -0.0 -0.0 -0.0 -0.0
000190 00 00 00 00 00 00 00 00 00 00 00 00 00 00 00 80
       0.0 0.0 0.0 -0.0
0001a0 00 00 00 80 00 00 00 80 00 00 00 80 00 00 00 80
       -0.0 -0.0 -0.0 -0.0
0001b0 00 00 00 80 00 00 00 80 00 00 00 80 00 00 00 80
       -0.0 -0.0 -0.0 -0.0
0001c0 00 00 00 80 00 00 00 80 00 00 00 80 00 00 00 80
       -0.0 -0.0 -0.0 -0.0
0001d0 00 00 00 80 00 00 00 80 00 00 00 80 00 00 00 80
       -0.0 -0.0 -0.0 -0.0
0001e0 00 00 00 80 00 00 00 00 00 00 00 00 00 00 00 80
       -0.0 0.0 0.0 -0.0
0001f0 00 00 00 80 29 82 ab be 4d 83 02 bf 06 32 35 be
       -0.0 -0.33497742 -0.509816 -0.17694864
000200 78 9d ed 3d fe 51 90 3e a4 36 9d be c1 db f1 be
       0.116023004 0.28187555 -0.3070575 -0.4723797
000210 3b da 96 be bc 50 ec bd 17 2a df 3b fa ec 91 3c
       -0.29463372 -0.11538836 0.0068104374 0.017813195
000220 eb a5 2e 3e 0f 74 23 3e fa 34 13 3e b2 b7 34 3e
       0.1705548 0.15962242 0.14375678 0.17648199
000230 ea 73 b7 3e 2b 73 cb 3e 96 c1 97 3d f3 6a 97 3e
       0.35830623 0.39736304 0.074099705 0.29573783
000240 a7 55 df 3d fc b0 97 3d 0f ea ad 3e 82 8f 6b 3d
       0.10905009 0.07406804 0.33967635 0.057509907
000250 e7 f5 01 3e 0c 11 85 3d 00 00 00 80 00 00 00 00
       0.1269146 0.06497392 -0.0 0.0
000260 00 00 00 00 00 00 00 00 00 00 00 80 00 00 00 80
       0.0 0.0 -0.0 -0.0
000270 00 00 00 80 00 00 00 80 00 00 00 80 00 00 00 80
       -0.0 -0.0 -0.0 -0.0
000280 00 00 00 80 00 00 00 80 00 00 00 80 00 00 00 80
       -0.0 -0.0 -0.0 -0.0
000290 00 00 00 80 00 00 00 00 00 00 00 00 00 00 00 80
       -0.0 0.0 0.0 -0.0
0002a0 00 00 00 80 00 00 00 80 00 00 00 00 00 00 00 00
       -0.0 -0.0 0.0 0.0
0002b0 00 00 00 00 00 00 00 00 00 00 00 00 00 00 00 00
       0.0 0.0 0.0 0.0
0002c0 00 00 00 00 00 00 00 00 00 00 00 00 00 00 00 80
       0.0 0.0 0.0 -0.0
0002d0 00 00 00 00 00 00 00 00 00 00 00 00 00 00 00 00
       0.0 0.0 0.0 0.0
0002e0 00 00 00 80 00 00 00 80 00 00 00 00 00 00 00 00
       -0.0 -0.0 0.0 0.0
0002f0 00 00 00 00 00 00 00 80 00 00 00 80 00 00 00 80
       0.0 -0.0 -0.0 -0.0
000300 00 00 00 00 00 00 00 80 00 00 00 80 00 00 00 80
       0.0 -0.0 -0.0 -0.0
000310 00 00 00 80 00 00 00 80 00 00 00 80 00 00 00 80
       -0.0 -0.0 -0.0 -0.0
000320 1a 77 20 ba e4 7d ca 3e 8b 17 87 3e f7 50 75 3e
       -0.0006121263 0.39549172 0.2638515 0.23956667
000330 43 76 28 3e 57 28 2b be 95 7d ae bd 0d 43 ff 3d
       0.16451363 -0.16714607 -0.085200466 0.12463961
000340 a4 c0 37 3e d0 6c a5 bd 87 21 1b be 8a ec cc be
       0.1794458 -0.08077395 -0.15149508 -0.40024215
000350 83 fe 2b be b8 5d f0 be 62 70 d3 be ce 1c 57 be
       -0.16796307 -0.46946502 -0.4129668 -0.21007082
000360 a1 b4 4e be fd bd 36 bf 68 d6 2b bf 55 57 f2 bb
       -0.20186092 -0.7138365 -0.6712403 -0.0073956647
000370 c6 da 1a 3e 7f 10 96 be 7e 1a bc be bc fa 5d 3e
       0.15122518 -0.2930946 -0.36738962 0.21677679
000380 f1 60 16 3e 00 00 00 00 00 00 00 00 00 00 00 80
       0.14685418 0.0 0.0 -0.0
000390 00 00 00 80 00 00 00 80 00 00 00 00 00 00 00 00
       -0.0 -0.0 0.0 0.0
0003a0 00 00 00 00 00 00 00 00 00 00 00 80 00 00 00 80
       0.0 0.0 -0.0 -0.0
0003b0 00 00 00 80 00 00 00 00 00 00 00 80 00 00 00 80
       -0.0 0.0 -0.0 -0.0
0003c0 00 00 00 80 00 00 00 80 00 00 00 80 00 00 00 80
       -0.0 -0.0 -0.0 -0.0
0003d0 00 00 00 80 00 00 00 80 00 00 00 80 00 00 00 80
       -0.0 -0.0 -0.0 -0.0
0003e0 00 00 00 80 00 00 00 80 00 00 00 80 00 00 00 80
       -0.0 -0.0 -0.0 -0.0
0003f0 00 00 00 80 00 00 00 80 00 00 00 80 00 00 00 80
       -0.0 -0.0 -0.0 -0.0

conv1.bias f4 [16]
000000 06 05 79 3e 5a f5 4a 3d 31 9b b4 3d 78 2c 38 bb
       0.24318323 0.04955039 0.08818663 -0.0028102677
000010 f5 22 79 3d 7f 7a 85 3e 88 b9 4c 3e 53 99 a8 3c
       0.060824353 0.2607002 0.1999265 0.020580923
000020 61 8d de 3e 2f 96 50 3d b3 6e b7 3c 7a e3 32 be
       0.4346724 0.050924476 0.022391653 -0.17469588
000030 90 f1 b1 3d 3b 79 a3 bc f7 07 2a 3d 7d e4 d3 bc
       0.086886525 -0.019955268 0.041511502 -0.025865788

conv2.weight f4 [32, 16, 5, 5]
000000 99 c7 eb ba fc 16 64 3b 06 5c 06 bc 56 87 1d be
       -0.0017988562 0.0034803739 -0.008200651 -0.15383658
000010 ac b9 78 be 3f 9e 99 bd 1f 73 1d bd 75 4d 7c 3d
       -0.24289578 -0.07500886 -0.038439866 0.061597306
000020 53 53 ae bd 82 1a f6 bc d5 f9 c0 bd 95 70 af 3c
       -0.085119866 -0.030041937 -0.09422652 0.021415988
000030 1c 8a 1a 3e d0 35 63 3e 48 c9 2e 3e 81 a8 a0 bd
       0.15091747 0.22188497 0.1706897 -0.078446396
000040 b5 f3 d2 bb 37 73 d5 3d 9e 84 1d 3e b7 3c 93 3e
       -0.0064377435 0.10422366 0.1538262 0.2875726
000050 4e 56 84 bd f7 16 74 bd 2b c4 a0 3d 9a da 46 3e
       -0.06461774 -0.059592213 0.07849916 0.19419327
000060 42 40 83 3e 9a 62 c4 bd d5 d4 3f be c5 6d b7 be
       0.25634962 -0.09589119 -0.18733533 -0.35825935
000070 ac 9c 91 be 0a f0 6d bd a6 9a 7d be 79 2e 3d be
       -0.28439844 -0.058090247 -0.24766025 -0.18474759
000080 85 32 c8 be 78 3c c0 be 99 55 73 bd c8 12 ee bd
       -0.39101043 -0.37546134 -0.059407804 -0.11624676
000090 ec 4d bc 3d 3f b7 59 be 17 e2 22 be 93 25 da bc
       0.0919455 -0.21261309 -0.15906559 -0.026629245
0000a0 a4 4b 92 3d 18 ff 82 3e df 52 6e 3e 5c d4 8e 3e
       0.071433336 0.25585246 0.232738 0.27896392
0000b0 ad 7f 3e 3e 79 b3 33 3e b2 dc a5 3e b2 b4 b1 3e
       0.18603392 0.17548932 0.3239494 0.34708172
0000c0 69 5f 89 3e 13 8d 5d 3e 70 c7 e0 bd 11 da 47 bb
       0.26830605 0.21635847 -0.1097554 -0.0030494968
0000d0 99 3e 0d bd c6 8f dc 3c 41 3f 35 3e 20 ef 77 bb
       -0.034483526 0.026924025 0.1769991 -0.0037831739
0000e0 80 26 e8 3d c6 fe 75 3d 9e f1 d2 bc be 24 91 bd
       0.11335468 0.060057424 -0.025749978 -0.07087086
0000f0 31 f6 53 bd fc 1c 99 3d 17 7d 2b 3e 79 d9 5d bd
       -0.05174846 0.074762315 0.16746937 -0.054162476
000100 21 a8 e1 bd 0e a7 ff bd 69 1b 9c bc 02 52 76 bd
       -0.11018396 -0.12483035 -0.019056039 -0.060136802
000110 dc 94 48 be 8b b6 75 be e9 42 26 be 94 c9 af bd
       -0.19588035 -0.23995416 -0.16236462 -0.0858337
000120 97 da 89 be dd 71 34 be cb 19 e2 bc 06 e9 88 3c
       -0.26924583 -0.1762156 -0.02760019 0.016712677
000130 4b d3 c8 bc 9d dd 93 3d 39 3e 45 3e c2 9e 07 3e
       -0.024514815 0.07220004 0.19262017 0.13244155
000140 31 78 b0 bc 37 bc 78 bd 1d de 38 3b 33 4b 79 3d
       -0.021541687 -0.06072637 0.0028208562 0.06086273
000150 b5 77 56 3d 2a 03 8f bb 6a 49 a4 bd 47 11 0b bd
       0.052360255 -0.004364391 -0.08021815 -0.033952024
000160 a0 4c 87 bc fa a9 bb 3c b4 5d cd bc 8e d2 e4 bd
       -0.01651603 0.0229082 -0.025069095 -0.111729726
000170 28 1c d3 bd 16 a4 c8 bd e0 f8 de bd eb aa 8b 3c
       -0.10308105 -0.09796922 -0.10887313 0.017049273
000180 c9 67 13 3d 1d b2 6f 3d fb 15 66 bd 45 35 cc bd
       0.03598765 0.05851947 -0.056173306 -0.09971098
000190 77 75 50 3c 51 3a d8 3d 2f 95 ae 3d 69 ae bd 3d
       0.012723318 0.10557998 0.08524548 0.09261782
0001a0 a7 b6 51 3c 69 6a c4 3d 5f 69 f0 3d b8 76 68 3d
       0.012799895 0.095906086 0.11738848 0.056753844
0001b0 1f 91 8c 3d 6d 1d 3c bc 0f 12 c2 bb ff b8 31 bc
       0.06863617 -0.011481625 -0.005922563 -0.010847329
0001c0 35 da 3a bc 6d 3b c1 bd e9 53 b0 bb e2 cf 83 bc
       -0.011404564 -0.09435163 -0.0053810966 -0.016090337
0001d0 31 5b da bd a9 6b fa bd 18 6b 41 bd 9c 16 2e 3d
       -0.10661925 -0.12227566 -0.047221273 0.04250203
0001e0 8c 8d 21 3d 25 ff 56 bc 98 a6 1f bd 8f 3a 07 3e
       0.03944163 -0.013122355 -0.038977236 0.13205932
0001f0 09 f5 ba 3d e5 7d 81 3d af b7 1a 3e 30 d8 42 3e
       0.09128768 0.063228406 0.15109132 0.19027781
000200 9b 96 c5 bc 70 40 11 be 96 97 5d 3d d0 df b3 bc
       -0.024119666 -0.14184737 0.05409964 -0.021957308
000210 4c 98 34 3d 3b 15 d2 bd 36 d5 90 bd 0b 65 9e bc
       0.044090554 -0.10257956 -0.07071917 -0.01933529
000220 7b 6a 9d bd dd 7f bb 3c 22 49 c6 3d db b8 46 3e
       -0.07686325 0.022888118 0.09681918 0.19406454
000230 76 3c 22 3d 45 94 b4 bc ae bd 84 3d 00 01 88 3e
       0.03960844 -0.022043357 0.06481491 0.26563263
000240 03 a5 9c 3e 01 cc 72 3d ce fb b7 3d 4d 6e db 3d
       0.30594644 0.059276585 0.08983575 0.107143976
000250 f5 d8 5d 3e ca 48 6c 3e be f0 5b 3d 83 2a bc bc
       0.21664794 0.23074642 0.053696387 -0.02296949
000260 69 56 35 3c 07 f0 1f 3e 8b 88 56 3e 14 4d 61 3d
       0.011067965 0.15618907 0.20950525 0.055005148
000270 97 40 d2 3d 3e 3b 1b 3d c2 9c ff 3d ff b7 6f 3e
       0.10266226 0.037898295 0.12481071 0.23410033
000280 65 03 f2 3d 85 ad b3 3d c1 0c cb 3b 4f 1b 9c bc
       0.11817054 0.087733306 0.0061965887 -0.01905599
000290 88 75 0c 3d b7 86 85 3d c0 99 26 3d 57 d0 09 be
       0.034291774 0.065198354 0.04067397 -0.13458382
0002a0 d3 7a 9d be 21 5b a5 be 9b e7 d3 3c eb 2d 0f 3e
       -0.3075777 -0.32296088 0.025867274 0.1398236
0002b0 77 f9 d7 3c 9d 10 2f be b6 99 7e be 9d 5b 9f 3d
       0.026364071 -0.17096181 -0.24863324 0.07781146
0002c0 56 dc b1 3b f4 19 0d bd 5f 84 f5 3c 0c 85 78 3a
       0.0054278774 -0.03444858 0.029970346 0.0009480275
0002d0 f5 cd bd 3c 03 22 8c 3d f5 56 5d bd d0 c4 f5 bc
       0.023169497 0.06842425 -0.054038007 -0.030001074
0002e0 f9 66 48 bd 7b 98 31 3d 21 d9 36 3d dd 27 8b bc
       -0.048926327 0.043358307 0.044640664 -0.016986782
0002f0 2b cd ad 3c d7 52 e9 3c a9 8f e2 3d af 39 4a 3d
       0.021215996 0.028481884 0.11062557 0.049371418
000300 f4 7b 08 3d bf 24 9f 3d 57 bd a6 3d da 01 b1 3b
       0.033321336 0.07770681 0.081415825 0.005401832
000310 6d cf 66 3d ff 4e 34 3e 87 1d d3 3d 9d b1 30 3e
       0.05635016 0.1760826 0.10308366 0.17255254
000320 49 9b 1d bd 53 8b 05 be c9 da 6e bd e6 6a 2a 3e
       -0.03847817 -0.13041429 -0.05831412 0.16642341
000330 ad a9 89 3e 27 74 92 3d f7 00 48 bb 5b 3e 3a 3e
       0.26887265 0.071510606 -0.0030518153 0.18187849
000340 78 cb 6a 3e 06 16 18 3e bf 41 12 3e b3 22 df 3d
       0.2292918 0.14852151 0.14282893 0.1089529
000350 54 e8 21 3e 35 45 27 3d fb c6 61 3d 73 d3 fa bd
       0.15811282 0.040837485 0.055121403 -0.12247362
000360 41 d5 36 be 15 95 8d be a2 fb 6b be fe 0e 91 be
       -0.17854787 -0.27652803 -0.23045209 -0.2833175
000370 96 40 86 be 82 aa e2 be 6a aa af be 3c 3d d5 be
       -0.2622115 -0.44270712 -0.34309703 -0.4164828
000380 b9 7b 0d be fc 64 6e 3d 9a 13 d5 3c fb 71 84 bd
       -0.13816728 0.058201775 0.026010323 -0.064670525
000390 e2 86 59 bd 8e f5 e3 bd f1 3b 1c be de cf 96 bd
       -0.05310715 -0.1113082 -0.15257241 -0.07363866
0003a0 cb 8a 57 be 01 4c 68 be 59 4f 76 be 14 41 9e bd
       -0.21049039 -0.22685243 -0.24053706 -0.077272564
0003b0 3e b8 d9 bd e8 65 99 bd 5a 07 83 bd 48 15 50 bd
       -0.106308445 -0.0749014 -0.063978866 -0.050801545
0003c0 f6 fc 35 3d 30 92 00 3d f1 3d 0d 3e 33 50 06 3e
       0.044430695 0.031389415 0.1379316 0.13116531
0003d0 79 c6 27 3e 79 26 31 3c 63 46 31 3e c5 50 6c 3e
       0.16384305 0.010812395 0.17312007 0.23077686
0003e0 a3 21 50 3e 03 4f 84 3e 5e 9f a9 3d 5a 23 7a 3d
       0.20325331 0.2584153 0.0828235 0.06106887
0003f0 96 8b fc 3d a8 ce c6 3d 15 b5 29 3e 91 df 33 3d
       0.123313114 0.09707385 0.16572984 0.04391438

conv2.bias f4 [32]
000000 e3 d3 ad 3d a6 da 09 3e 44 6c 18 bb b8 a5 c3 3d
       0.0848768 0.13462314 -0.002325789 0.09553093
000010 e4 18 40 bb 99 0e 03 3d e2 98 a8 3d 94 29 c8 ba
       -0.002931171 0.031996343 0.08232285 -0.001527118
000020 cd bf b2 bb e3 1f 1d 3d c4 f2 c8 3d 99 53 18 3e
       -0.0054549933 0.038360488 0.09811929 0.1487564
000030 6b 08 92 bb 04 ef 27 bb 8f 67 03 bc 9a 28 64 3d
       -0.00445657 -0.0025624642 -0.008020296 0.055702783
000040 54 d1 8e 3d b8 7b 25 3d 44 97 68 bb 5b d0 bc 3d
       0.0697352 0.04040119 -0.0035490552 0.09219428
000050 ba 31 90 3d 1b dd 52 3b 5e 50 e1 3c b5 98 36 bb
       0.070407346 0.0032175246 0.027504142 -0.0027862017
000060 3e 20 b9 3d 05 5b 0e bc e2 6d 15 3d 79 af a3 ba
       0.09039353 -0.008688693 0.036481746 -0.0012488208
000070 13 9f 94 bc 74 81 3f bb 10 9b f6 3c 5c 6e cb bc
       -0.018142259 -0.0029221447 0.030103236 -0.024832897

conv3.weight f4 [32, 32, 5, 5]
000000 c2 1e d4 3a 80 ed 65 bc e0 a0 f1 3c c8 a5 1a bd
       0.0016183483 -0.014033675 0.029495656 -0.037755758
000010 88 c6 dd 3b 2b 79 52 3d 9f d6 e4 3d b7 eb 5c 3d
       0.0067680515 0.051385086 0.11173748 0.053935733
000020 86 0c e0 39 04 66 8b 3d bf d6 98 3d 91 f9 b9 3d
       0.0004273394 0.06806567 0.074628346 0.09080804
000030 7e f1 03 bb b9 2e 89 bd 46 a7 0c be ee 93 0d bc
       -0.0020132954 -0.06698365 -0.13735685 -0.008641226
000040 07 e2 26 3c d5 5c 18 bd b1 81 7f be d8 73 93 be
       0.010185725 -0.037197907 -0.24951817 -0.2879932
000050 a4 a6 23 3d 8b 50 0f bd 2e c0 9c be bc 6c 81 be
       0.039953843 -0.03498892 -0.3061537 -0.2527827
000060 89 5d 99 bd eb b1 d7 bc 2a 81 6a bd 6f 67 72 be
       -0.074885435 -0.026329955 -0.057252087 -0.2367227
000070 35 41 03 be 41 56 b1 bc 62 99 e2 3c a5 21 2d bd
       -0.12817843 -0.021647574 0.02766103 -0.042268414
000080 cb 97 15 bd a3 51 20 bd a1 f5 27 bd d0 4f 89 3d
       -0.036521714 -0.039140355 -0.041005734 0.06704676
000090 51 aa 12 bd e9 96 fb 3b 58 ed b0 3d 30 15 b6 3d
       -0.035806958 0.007677902 0.0863902 0.0889076
0000a0 9a 10 8b bd 7b 9a 48 3c 3e 5f f8 3c c4 62 d3 bb
       -0.06790276 0.012243862 0.030318853 -0.0064509828
0000b0 a4 ca 1d 3d 08 4a de bd e5 6d c3 3c 39 a6 4e bc
       0.03852333 -0.10853964 0.023856113 -0.012612873
0000c0 0e e4 b3 bd b7 6b 0b be 71 4f a0 bd 59 de 21 bd
       -0.08783732 -0.13615309 -0.07827652 -0.039518688
0000d0 4d 76 76 3b b9 d9 8a 3b 7a 11 a2 bb ca 7c b8 bc
       0.0037607134 0.0042373803 -0.004945931 -0.022520442
0000e0 e8 b3 79 3c 07 e0 4d 3c 27 dd b4 3d 9d 0c 85 3d
       0.015240647 0.012565619 0.08831244 0.064965464
0000f0 b0 1c 2a 3d 41 d0 5e 3d 1b ed 62 3d 9f 0a 90 3d
       0.041531265 0.054397825 0.055401903 0.07033276
000100 99 75 c9 3d 38 e2 95 3c 0a 2c ce 3c 2d f7 e8 3d
       0.09836883 0.018296346 0.025167484 0.1137527
000110 4d 80 b4 3d d3 d7 68 3d 42 52 4e bd e4 94 04 3d
       0.08813534 0.05684645 -0.050371416 0.032368556
000120 d8 18 50 3d b4 fc 61 3d 09 49 63 bb 2f 3b fd bd
       0.050804943 0.055172637 -0.0034680984 -0.12364804
000130 20 f1 d6 3c a7 73 b8 bb 3c fb cb 38 24 12 e7 bd
       0.026238024 -0.005629021 9.72659e-05 -0.11282757
000140 a8 9b 2b bd 32 68 18 bc 6e ff 6a bd 46 98 31 3c
       -0.041896492 -0.009302186 -0.057372503 0.0108395275
000150 62 27 60 3d 7c 2e 22 3c 00 1f a6 3d 69 48 f7 3c
       0.05472506 0.009898778 0.081113815 0.030185895
000160 ca 3a 06 3d 44 b0 a3 3d 02 7a b7 3d 6c 1d 5c 3d
       0.03277091 0.079926044 0.08958818 0.053738996
000170 9e 4e 1a 3d 6e 01 8f 3d 2e 97 94 3d 79 e7 87 3c
       0.03767263 0.069826946 0.07255398 0.016589867
000180 02 73 8b bd 9c 3e ce bc 6e ab de 3d 52 d0 2e 3e
       -0.068090454 -0.025176339 0.10872541 0.17071655
000190 8c 6d ae bc 21 25 48 bd b9 a4 06 be 66 12 ea bc
       -0.02129247 -0.048863534 -0.13148774 -0.028573226
0001a0 c0 1d ad bc 67 54 f1 3c d3 d9 51 3d d3 7f 6c 3c
       -0.02113235 0.029459191 0.051233124 0.014434773
0001b0 38 a0 ed 3b c9 ef fb 3b db 11 34 3d f8 c9 93 3c
       0.0072517656 0.0076884967 0.04396234 0.018040642
0001c0 d5 f0 a6 3d 74 1e 6d 3d a5 ba eb 3d 8c 1b 6b 3d
       0.08151404 0.05789037 0.11510209 0.057399318
0001d0 25 02 0d 3d 00 45 06 3d 3f 12 cc 3d 31 bc 26 3d
       0.034425873 0.032780647 0.09964418 0.040706817
0001e0 05 bd 2c bc 50 7b de bc 6f bb 92 3d cc 75 12 ba
       -0.010543113 -0.02715841 0.07164656 -0.0005587011
0001f0 25 4a 1a 3d 50 43 c5 bd d3 b8 ca 3b 90 e7 24 bd
       0.037668366 -0.096319795 0.0061865835 -0.040259898
000200 62 6f 4b bd 36 f6 66 bd a6 2a 2e bd 5b ea bb ba
       -0.04966677 -0.05638715 -0.04252114 -0.0014336811
000210 1a 2c a2 3c 03 40 cb 3b 5e 89 36 3c d9 cb b1 3c
       0.01979642 0.006202699 0.011141149 0.021703647
000220 51 b5 87 3d 8f 0e 06 3d 54 da 9e 3c 1d d3 0e 3d
       0.0662638 0.032728728 0.019391216 0.034869302
000230 d7 eb 86 3d 31 bf e3 3c ab 64 68 3c 35 d8 c7 3a
       0.06587952 0.027801128 0.014184157 0.001524693
000240 7b b6 c5 3c b5 26 be bc 4a b8 0a bd 02 0b 06 bd
       0.024134865 -0.023211816 -0.033867158 -0.03272534
000250 a2 3d a3 3d b1 55 11 3e 42 24 0c be d9 ae df bd
       0.0797074 0.14192845 -0.13685706 -0.109220214
000260 18 61 1b be 4a 8c 3e be e3 c3 d1 bd 0d 81 a3 bc
       -0.15173757 -0.18608204 -0.102424406 -0.019958997
000270 27 1f 09 3d 07 42 9d 3c 54 0f 15 bc bc 0b ed 3b
       0.033476975 0.019196523 -0.009097893 0.007234065
000280 ae 5c 88 3d 61 bb e9 3d d5 a2 bd 3d 6b 0a be 3d
       0.06658302 0.11412693 0.09259573 0.09279331
000290 ff 55 80 3d e0 bf 1e 3e b7 9f a3 3d 68 8a 7a 3d
       0.062664025 0.15502882 0.079894476 0.06116715
0002a0 37 f3 87 3d 88 6e 55 3d d9 50 88 3c 89 17 a4 bc
       0.066381864 0.052107364 0.016640114 -0.020030754
0002b0 64 88 46 bc e9 d4 de 3c 49 ca a0 3d 41 13 32 be
       -0.012117479 0.027201133 0.07851083 -0.17390157
0002c0 f8 01 48 3c f6 85 36 3d e7 ae ec 3c 97 19 4e be
       0.012207501 0.04456135 0.028891994 -0.20126949
0002d0 c2 74 98 bd f6 68 56 3c a8 4d f3 bc 95 1c a5 3a
       -0.07444145 0.013086548 -0.029700115 0.0012597019
0002e0 02 3c 40 bd df db b6 bc ca 9b 0c 3d 20 f3 0c 3d
       -0.046932228 -0.02232164 0.03432826 0.03441155
0002f0 78 ff 61 3d aa ac 45 3d f2 0d 79 3d c8 60 63 3d
       0.055175275 0.04826037 0.060804315 0.05551222
000300 24 1d 26 3c 25 ca 05 3d 60 18 81 3d 3c 67 5f 3d
       0.010138784 0.032663483 0.06303477 0.05454181
000310 fc 0a 16 bd a8 f9 3e 3c 84 0a 91 3d ab be 07 3e
       -0.03663157 0.011656202 0.07082084 0.13256328
000320 4b 6e 9f 3c 53 58 06 3e 68 db b2 3d 82 0c 36 3d
       0.019461771 0.1311963 0.08733255 0.044445522
000330 b8 3b 4a be ec dc fb bd 40 76 4a bd 48 f4 bf bd
       -0.19749343 -0.12297997 -0.04942918 -0.09372765
000340 b5 ba 94 bd 36 58 3a be f2 82 1d bc 6e e6 d2 ba
       -0.07262174 -0.18197712 -0.009613739 -0.0016090402
000350 fc d7 ec 3c b0 dd 97 3c db cd b2 3c cc ec 9a 3d
       0.028911583 0.018538326 0.021826675 0.07564697
000360 4d 5c af 3d e6 2b 4c 3d 03 a4 77 3a 58 f2 99 3c
       0.08562527 0.049846552 0.0009446742 0.018792316
000370 0a 3b ea 3d 04 2d 3c 3d 1d 74 82 bd e8 fb b5 bb
       0.11437042 0.045941368 -0.06369803 -0.005553711
000380 b4 fc 1f 3d 98 0d 44 3c 92 de 06 3b 68 4a a3 39
       0.039059356 0.011966132 0.002057944 0.0003114522
000390 51 26 25 bd ad bc 71 3d 79 de 85 3c 7a 95 85 3c
       -0.040319744 0.059017826 0.016341435 0.016306628
0003a0 de 26 9e 3c 4d 4b 2e 3d 50 10 a6 3d d0 79 f6 3d
       0.019305643 0.04255228 0.0810858 0.12034953
0003b0 11 c8 73 3d 0e b4 a9 3d 08 7e f6 3c c8 d6 f2 3d
       0.05951697 0.08286296 0.030089393 0.118573725
0003c0 a3 ed 70 3d 18 6e c9 3c 6c 9f ca bc ae 03 6d bc
       0.058820378 0.02458863 -0.024734221 -0.014466209
0003d0 cc de ab bc 76 43 1a be e4 33 05 be 3f e4 65 bd
       -0.020980261 -0.15064797 -0.13008076 -0.056125876
0003e0 72 90 03 bd 02 80 65 bc 42 9e d5 bd f6 26 25 be
       -0.032120176 -0.01400757 -0.10430576 -0.16128144
0003f0 b4 18 71 be f2 ee a2 be 33 f2 a9 be 86 04 2e 3d
       -0.2354458 -0.31822926 -0.33192596 0.042484783

conv3.bias f4 [32]
000000 f9 e4 a7 3c f0 0d 00 bd b4 4a d4 ba df e0 ad bc
       0.020494925 -0.03126329 -0.001619658 -0.021225391
000010 cb c3 b4 bc 68 8a 59 bb d4 2c 30 bd 7f 36 8e bc
       -0.022066018 -0.0033194069 -0.0430115 -0.01735997
000020 27 c7 ac bc b6 28 12 3c 26 79 39 ba dd fb fe ba
       -0.021091057 0.008920839 -0.00070752425 -0.0019453723
000030 72 9e 8c 3d fd f8 f8 bb 11 d5 45 bb 35 ae df 3a
       0.068661585 -0.007598041 -0.0030186812 0.0017065468
000040 8f cb 8a bc ea 5d a5 3d 5a 82 ed 3b 0a c2 4b bb
       -0.016942767 0.08074553 0.007248205 -0.0031090998
000050 cd c8 a5 b9 ab fe 43 bb cd e8 f0 3d 41 fd 58 bd
       -0.0003162086 -0.0029906433 0.11763153 -0.052975897
000060 e2 1a 94 3c e5 da 09 bc 1d 34 12 bb ec b0 70 bd
       0.018079225 -0.008414005 -0.0022308894 -0.058762476
000070 89 92 69 3c db e9 42 bc b1 45 b7 bb 31 6c 3b bc
       0.014256128 -0.011896576 -0.0055930247 -0.011439369

fc1.weight f4 [64, 288]
000000 42 30 54 3d 1f 11 07 3e 77 73 dd 3b 39 e1 e3 bd
       0.051803835 0.13190125 0.0067581492 -0.11126942
000010 20 54 10 3c f4 08 53 3d b3 db 39 bd 77 db 1b 3e
       0.008809119 0.05152221 -0.045375537 0.15220438
000020 f9 60 ac bc 90 a4 52 3d 28 dc 97 bd 19 af c1 bd
       -0.021042334 0.05142647 -0.07415038 -0.09457225
000030 8b ba 2e bc 01 99 17 3e 2d c4 63 bc ab 8a 3e be
       -0.0106645925 0.1480446 -0.013901752 -0.18607585
000040 9f 73 5e bd 8f 18 4e be cb fb 98 3d 06 8d ed 3b
       -0.054309484 -0.20126556 0.07469901 0.0072494773
000050 40 b1 3b 3d e9 6a a1 bc ff 57 54 3b 1f d7 cf 3d
       0.045823336 -0.019704299 0.0032401083 0.10148453
000060 5b f7 e7 bc f1 c8 c1 bd 33 01 b7 bc fe f7 b7 3d
       -0.02831619 -0.09462155 -0.022339439 0.08982848
000070 70 70 6f 3d b1 ed 1d 3d 0a 50 1b 3d a2 af 4e bd
       0.058456838 0.03855676 0.037918128 -0.050460465
000080 03 11 04 bd 52 d9 33 bc c2 a0 bb 3d 13 70 89 bd
       -0.032242786 -0.010977106 0.091615215 -0.067108296
000090 53 43 a1 3c da dd b6 bc a8 10 9a 3c d7 41 93 3d
       0.019685423 -0.022322584 0.01880677 0.07190292
0000a0 53 81 2c bd 09 11 86 3d e7 9a 25 3c 24 2f 3b 3b
       -0.04211552 0.06546218 0.010107732 0.0028562034
0000b0 f0 c3 d0 bc 78 bf 38 bd 9b eb 14 3d 48 e8 c4 3c
       -0.025484055 -0.045104474 0.036357503 0.024036542
0000c0 e6 5a 64 3d 1e 54 ff bc 56 0e 8a 3c 21 9d bf 3d
       0.05575075 -0.03116804 0.016852539 0.09356142
0000d0 92 cb 0e bd 5c 6a 78 bd 76 16 81 bb 7d 27 c9 bd
       -0.03486211 -0.060648307 -0.003939445 -0.09821985
0000e0 0c 71 8d 3d 0d 7a 90 3d 4f a4 5c ba e8 c6 de 3c
       0.069063276 0.07054529 -0.0008416818 0.027194455
0000f0 2c 50 5a 3d fb dc 25 3d ee 1d 06 be 86 e5 d8 bd
       0.053299114 0.040493947 -0.13097355 -0.10590653
000100 ea d9 50 bd d8 52 c6 3d 4b 68 8c 3c ac ad 6f 3d
       -0.05098907 0.0968377 0.017139575 0.058515236
000110 50 e7 80 3d 13 02 7a 3c 5b d4 4f bd fa a0 10 bc
       0.06294119 0.015259284 -0.050739627 -0.008827442
000120 9b f9 08 3e 53 ee f6 3d 07 fd e8 bc c4 02 3a 3d
       0.13376467 0.120571755 -0.028440965 0.045412794
000130 38 4d 83 bb fc 9f 7c 3d cd d7 85 bd 8a b0 3e 3d
       -0.004007008 0.06167601 -0.06535301 0.04655508
000140 d4 24 b5 bd 75 9e ce bd 0b 7a 95 bd ab 70 10 be
       -0.08844915 -0.10088817 -0.072986685 -0.1410548
000150 eb 60 e0 bc 4c a5 48 3d dc 89 61 bc 03 51 b7 bd
       -0.027389964 0.048985764 -0.013765778 -0.08950999
000160 57 f0 d6 bc 9d bf 0e 3d 03 46 24 3d 5c 74 a8 bc
       -0.02623765 0.034850705 0.04010583 -0.020563297
000170 76 95 b9 bc de 77 a7 3d dc c5 9f 3c 1a 12 8d bc
       -0.022654276 0.0817716 0.019503526 -0.017220546
000180 a4 dc aa bd 29 c2 6a 3d 46 71 91 bd 2d eb af ba
       -0.08342865 0.05731407 -0.07101683 -0.0013421528
000190 35 e4 34 3d ae 3a 63 3b 56 c9 7f bd 0b 40 d5 3c
       0.044162948 0.0034672427 -0.06244787 0.026031515
0001a0 28 19 4a 3d ac bc 54 3d 09 28 6e 3c 30 19 07 bc
       0.049340397 0.051937744 0.014535912 -0.008245751
0001b0 1b c2 b3 bd 6b 93 06 be 18 a2 38 be 54 f6 9d 3d
       -0.08777257 -0.13142173 -0.18030584 0.07712999
0001c0 cf ab 99 bd 7d 3d 1f be 33 b4 d8 bd 12 46 11 3d
       -0.07503473 -0.155508 -0.10581245 0.035467215
0001d0 a6 11 a1 3d 74 c2 44 3c 5a 4b ca bc c9 e5 68 3d
       0.07864694 0.012009252 -0.024694134 0.056859765
0001e0 bf 79 08 be 37 78 92 3c 66 35 2a 3b b0 1f cc 3d
       -0.13327692 0.017879589 0.002597177 0.099669814
0001f0 97 c7 cb bd 7a ec be bd 98 bf 10 be 1d 6a 4e bc
       -0.09950178 -0.09322448 -0.14135587 -0.012598542
000200 fc e4 ee bd 1a 1c 26 bd c4 b8 24 3d 3e 16 da 3c
       -0.11664769 -0.040554143 0.04021527 0.026621934
000210 c1 e5 b9 bd 5b 78 b3 bb 22 8e 69 bd ff ba 8b 3d
       -0.09077025 -0.005476994 -0.057020314 0.06822776
000220 90 cb 4b 3d 2b 3e 90 3d c8 4d 76 bd a3 35 d0 3d
       0.04975468 0.070431076 -0.06013277 0.101664804
000230 a0 13 f8 3d 65 13 03 3d 4f de 28 bc cb 39 13 bc
       0.12113118 0.032000918 -0.010306909 -0.008985947
000240 e2 1d 0e 3e 52 f1 de 3c 30 77 68 bc 00 cf 85 3d
       0.13878587 0.02721468 -0.014188573 0.06533623
000250 12 4b 37 3e 8a c2 56 3d a8 64 51 3e 07 6b 08 3d
       0.17899731 0.05243162 0.20448554 0.033305194
000260 d5 e0 8c bd 15 86 df 3d 05 c0 78 3c 07 8e d8 bd
       -0.06878821 0.10914246 0.0151825 -0.105739646
000270 6c c5 b7 3d ec 3d 98 bd 09 d8 ca bd 91 47 b4 bd
       0.08973202 -0.07433686 -0.09904487 -0.08802713
000280 ad 1e ec bd 4c 5e af bd 7b 5e 8a bd 54 f9 1c be
       -0.115292884 -0.085629076 -0.06756302 -0.15329486
000290 52 15 14 bd 49 08 fc bd 5e f4 1f bc 64 34 46 3d
       -0.036153145 -0.12306268 -0.0097628515 0.048389807
0002a0 90 7c 4c bd 14 74 e8 bc ef 5e 07 3c 2e 24 86 3c
       -0.04992348 -0.028375663 0.00826238 0.016374674
0002b0 ff c0 c0 3d c9 4b 31 3d fa c8 9e 3c a1 70 d0 bc
       0.09411811 0.043285165 0.019382942 -0.02544433
0002c0 d3 c8 c4 bc 52 da a2 3d 12 f4 af 3c 25 24 52 bd
       -0.024021542 0.079517975 0.021478686 -0.051304
0002d0 db 21 30 bc d2 5a ab 3d 11 23 ce 3d b7 3e 08 bd
       -0.010750259 0.08366932 0.10065282 -0.033262935
0002e0 8a 2f 51 bd 9b a5 27 3b be 3e 8e 3d a4 eb 4e ba
       -0.051070727 0.0025580886 0.06945561 -0.00078933896
0002f0 f1 3d 2d 3b 05 d3 66 3d d2 d8 70 3c 4b cf fc bd
       0.0026434625 0.056353588 0.0147001315 -0.123442255
000300 1e b5 d1 3c 85 ef 96 bd dd c8 12 bd db 1c 11 bd
       0.025599059 -0.073699035 -0.03583609 -0.03542791
000310 7e b8 06 3c b0 be d5 3c e4 b3 66 bd 65 65 1b 3d
       0.008222697 0.026091903 -0.0563239 0.037938494
000320 09 10 29 be 89 1e bb bc b0 59 b5 3c a6 1d da 3d
       -0.16510023 -0.022841709 0.022137493 0.10650186
000330 b2 21 c6 3c 1d 92 80 3d e4 11 4f bc 72 a0 10 bb
       0.024185989 0.06277869 -0.012638543 -0.002206829
000340 2f 37 6e bc 8e ce 5b 3d e9 c1 2d 3d da b5 1f 3d
       -0.014539524 0.053663783 0.042421255 0.038991787
000350 8b 93 41 3d 43 52 a2 3d a3 5a b3 3c c5 14 68 bc
       0.04725985 0.079258464 0.021893805 -0.014165108
000360 23 c9 3a bd b4 c3 8e 3d ce 99 14 be 94 f9 91 3e
       -0.045601975 0.06970921 -0.14511797 0.28510725
000370 d9 98 92 3d ca 3a a4 bd bd 52 e7 3d 89 f9 bb 3d
       0.071580596 -0.080190256 0.11295078 0.091784544
000380 d4 5c 1f 3d 6f c1 63 bc 61 47 38 bd 1e a6 cd bc
       0.038906887 -0.013901099 -0.044989947 -0.025103625
000390 92 78 2b 3d e9 79 b8 3c 5c 73 04 3c 81 94 98 bc
       0.04186303 0.022519069 0.008084144 -0.0186255
0003a0 c5 84 d5 3b c9 1c 5f 3d 45 ac 00 be 9a 0e c0 bc
       0.0065160715 0.05447081 -0.12565716 -0.023444463
0003b0 17 eb 12 be 35 ba 54 bd f3 76 20 bd df 86 38 bd
       -0.14347492 -0.051935393 -0.03917594 -0.045050498
0003c0 b7 f1 30 be 16 26 af 3d d0 30 ba 3d 2f 3c 02 bc
       -0.17279707 0.08552186 0.090913415 -0.007948919
0003d0 ae 2a 32 be 70 c7 52 bd f6 70 f0 bd 62 ce bb 3d
       -0.17399094 -0.05145973 -0.117402956 0.09170224
0003e0 bf a5 43 3e da 10 f4 3d d2 67 eb 3d 64 ca bd 3d
       0.19106196 0.11917277 0.114944115 0.092671186
0003f0 72 bc 5a bd c1 6e 14 3d 97 65 10 3e 3d 64 0e be
       -0.05340237 0.036238436 0.14101253 -0.13905425

fc1.bias f4 [64]
000000 ba bc bd bc a9 90 ad 3c be 47 f4 3c d6 84 f7 bc
       -0.02316128 0.021187143 0.029819366 -0.030214708
000010 56 6d 40 3d 1b f9 1e bc 2b 57 86 3d 5a 29 fe bb
       0.04697927 -0.009702946 0.06559595 -0.0077563943
000020 dd bb ca 3c 62 6d f4 3d 62 a3 65 3d 0e 19 c9 3b
       0.024747783 0.119349256 0.056064017 0.00613702
000030 2e d2 06 bc d7 93 36 bd 3f f4 be 3d df 13 a5 bd
       -0.008228822 -0.044574585 0.0932393 -0.08060431
000040 ba f6 27 3d 99 f5 60 bc d9 d9 49 bc d0 ac 8b 3c
       0.04100678 -0.01373043 -0.012320005 0.017050177
000050 53 56 b4 bd d5 ff 61 bd ff d3 db 3c f4 55 11 bd
       -0.088055275 -0.05517562 0.026834486 -0.035482362
000060 10 88 a3 3d 9d 2e 32 3d 27 b5 59 bd f2 23 a1 3d
       0.07984936 0.043501485 -0.053151276 0.07868184
000070 79 fa a8 3d fd af 1e 3d 01 c9 8d 3d 20 25 9d 3d
       0.08250899 0.038742054 0.06923104 0.07673097
000080 37 b0 a6 3c 94 9b 6b bd 3b c1 c9 bc ec d7 1b 3d
       0.020347698 -0.057521418 -0.024628272 0.038047716
000090 06 b3 9a 3c 88 50 87 bc 07 3b 12 3e 0a ac 2c bd
       0.018884193 -0.016517892 0.1428033 -0.042156257
0000a0 49 3a d4 bc eb f6 75 bd 37 3e 99 3d d5 65 24 3c
       -0.025906699 -0.060049932 0.0748257 0.010034044
0000b0 58 31 78 bd b7 3b d8 3d a5 eb c5 3b 25 89 cd 3d
       -0.060593933 0.10558265 0.006040054 0.10035924
0000c0 7d e5 47 bc 90 50 66 3c ba 46 7b 3c cf 8c 2f bd
       -0.01220071 0.0140572935 0.015336687 -0.042858895
0000d0 2c eb db 3c b9 6b e7 3d 63 62 82 3d 93 d0 c9 3d
       0.026845537 0.11299843 0.06366422 0.098542355
0000e0 7c 1d 9a bd dd 61 11 ba 0a 3e 22 3d 94 08 63 bd
       -0.07525155 -0.0005545894 0.039609946 -0.055428103
0000f0 b3 dc f0 3d 93 9e a6 3b ab 01 bb 3d de 27 31 bc
       0.11760845 0.0050848215 0.091311775 -0.010812728

fc2.weight f4 [32, 64]
000000 fb 6e b2 bd d3 0f d2 bc b1 ac 16 be 6e b9 20 bc
       -0.08712574 -0.025642311 -0.14714314 -0.009809835
000010 e9 d9 f9 3d 21 1e 5e 3e 0b 29 24 3e 81 24 ea bc
       0.12199766 0.21691181 0.16031282 -0.02858186
000020 aa 47 8d 3d dd ab 7a bd 98 48 32 3e 47 06 01 be
       0.068984345 -0.061199058 0.17410505 -0.12600051
000030 c6 88 ae bd 3b b8 b1 3d 0e 6c 33 bc b3 aa a7 bc
       -0.08522181 0.08677717 -0.010951055 -0.020467138
000040 55 dc bc bd 39 dd 44 be 8c 5f f1 3d 73 83 e9 3d
       -0.092217125 -0.19225015 0.11785802 0.11402025
000050 f4 ea a1 3d 9a a2 1f 3c 40 9d 9f 3d c3 58 45 3d
       0.07906142 0.009743357 0.07793665 0.048180353
000060 b1 f2 2f 3e 61 5b 20 3e 97 cb 62 3d 58 68 b6 bd
       0.17182423 0.15659858 0.05536994 -0.08906621
000070 bc ae 04 3e 04 62 3a be 4e 6d d3 bd 54 9d 58 3e
       0.12957281 -0.18201452 -0.103235826 0.21153766
000080 ca dc d4 bd dd fd 08 bd 3a 71 10 be 60 f7 ba 3d
       -0.10393675 -0.033445228 -0.14105693 0.09129214
000090 fc 9c a2 3c 16 b0 61 3d 7d 6e 7e 3e e6 5f 1b be
       0.019850247 0.05509957 0.24846835 -0.15173301
0000a0 df 2f 89 bd 14 b6 64 3c e9 ed bb 3d ee bb a3 3e
       -0.06698584 0.013959426 0.09176237 0.31979316
0000b0 57 83 8f be 3f 6b a9 bc 19 6f 03 3e 7e 65 3a bc
       -0.28029892 -0.020681022 0.12835349 -0.011376737
0000c0 4d 67 7b bd 42 4d 34 3e 00 fb 46 be 2a 41 9e bd
       -0.061377812 0.17607597 -0.19431686 -0.07727273
0000d0 74 20 a4 bc ec 7c 65 bd 4d 8c 97 3e 17 b8 cb bc
       -0.020035006 -0.056027338 0.29599229 -0.024868054
0000e0 53 84 dc bd df bc f7 bd f5 07 62 3e 05 1e 1d 3e
       -0.10767426 -0.12096571 0.22073348 0.15343483
0000f0 50 a7 d1 bd 75 0a 82 bd 31 0d 1c 3e d9 ab 17 3c
       -0.102369905 -0.06349651 0.15239407 0.00925728
000100 8f af d5 bd 8b 53 ff bd ba ed 33 be 0f bd e3 3d
       -0.10433876 -0.124671064 -0.17571154 0.111200444
000110 0c 2c de 3d 5b 95 14 3e 82 28 17 bd 2a fc 1f 3e
       0.10848245 0.145101 -0.036903866 0.15623537
000120 2c 05 57 3e d4 db 33 3e e0 87 b3 3c 19 95 59 3e
       0.20998067 0.17564327 0.021915376 0.21248282
000130 f2 c9 33 3e 0f 6f bf 3c 88 74 6a bd 1d f3 0d 3d
       0.17557505 0.023368387 -0.05724004 0.03465568
000140 0f de 16 3d b6 34 06 bd 29 29 31 3d 61 bc 8e 3d
       0.036832865 -0.032765113 0.043252144 0.06969524
000150 3a e5 f9 3d 8e a8 e8 bc 26 b4 95 3d 83 11 04 be
       0.122019246 -0.028400686 0.07309751 -0.12897305
000160 ed 24 35 be 8c a1 91 3d 84 69 cd bc 5c 0b ab bd
       -0.17689867 0.07110891 -0.025074728 -0.08351776
000170 82 78 78 ba 47 2e d0 bd bb bf b1 3d f3 6f 02 be
       -0.0009478406 -0.10165077 0.08679148 -0.12738018
000180 53 86 a4 bc 67 d1 1d 3b ab af 1a 3d ed e8 e3 3d
       -0.020083582 0.0024081112 0.037765186 0.111284114
000190 6f d9 a3 3c 33 ea 9f bd 28 1a 24 3e b4 fa 56 3e
       0.020001141 -0.07808342 0.16025603 0.20994073
0001a0 64 91 8a bd cb 10 f6 bd 08 8a eb bd 77 7e 21 bd
       -0.06766012 -0.12014922 -0.11500937 -0.039427247
0001b0 6a 00 09 be 7b 2f 1d be e7 2e 1a be f9 dc 98 bd
       -0.13379064 -0.15350144 -0.15056954 -0.07464022
0001c0 26 6a 56 3e 8b c4 12 3e 99 b6 94 3d fc 42 7a 3d
       0.2093893 0.14332788 0.0726139 0.061099038
0001d0 de 39 ae 3e 9c b9 c5 3d 49 61 bf 3d 78 1d 00 3e
       0.34028524 0.09654543 0.093447275 0.12511241
0001e0 10 79 f7 bd 6c ac b2 bd d0 c1 0a 3e c0 6e 13 be
       -0.12083638 -0.08724293 0.13550496 -0.14397717
0001f0 48 6a 46 3e 7a 5a 31 3e dc c4 c1 3d 7f dd 0f 3e
       0.1937648 0.1731967 0.09461376 0.14049338
000200 e2 0a a4 3c 5e 6b 0f 3e db 06 ec 3d a4 40 a9 bc
       0.02002472 0.14005801 0.11524745 -0.020660706
000210 a7 5d b1 3d f6 56 9d 3d cf ef d6 3d 2c 8a ba bd
       0.08660441 0.07682602 0.104949586 -0.091083854
000220 5f 58 53 3e af 10 46 3e 7c f8 b1 bd 78 b6 c2 3d
       0.2063918 0.19342302 -0.08689973 0.095074594
000230 9c 2e 6f 3e 83 ff 17 be d3 36 44 3e f4 05 24 bd
       0.23357624 -0.14843564 0.19161539 -0.04004474
000240 42 5d 09 3e e0 6f 1a 3e 87 40 2b bc 1e f0 36 3d
       0.13414481 0.1508174 -0.010452396 0.044662587
000250 d8 b4 78 bd 45 6a 40 3e a8 b8 cd 3d 77 ca c0 3d
       -0.06071934 0.18790539 0.10044986 0.09413617
000260 67 f9 f4 bd ae ae e1 3d 87 83 34 3a a4 fc a2 3d
       -0.11961632 0.11019646 0.0006886054 0.079583436
000270 6e 91 aa 3e 62 51 30 3e 13 03 f6 3d 73 4b 5f be
       0.3331408 0.17218545 0.12012305 -0.21806125
000280 99 18 3e bd 2b f3 02 bd 33 95 f0 3d 5f 92 b0 3d
       -0.046410177 -0.031970184 0.117472075 0.08621668
000290 69 79 19 be a5 0d cf 3d 50 4f c3 3d 54 61 89 3d
       -0.1498772 0.10110024 0.09536612 0.06708017
0002a0 35 a2 c2 bd 11 73 0f bb 0a c3 40 3d 25 80 14 3e
       -0.09503595 -0.0021888653 0.047061004 0.14502008
0002b0 b8 1a 8b be 42 a5 b1 3d 30 8c 61 be b3 06 f5 3d
       -0.27168822 0.086740986 -0.22026134 0.119641684
0002c0 9b 0c a4 3d da b4 c0 3d 48 12 0c 3d b5 33 00 bd
       0.08010217 0.09409495 0.03419712 -0.03129931
0002d0 d7 b7 14 3e f3 f2 87 be d6 0c 11 3e 69 5a 15 be
       0.14523254 -0.26552543 0.14165053 -0.1458527
0002e0 a0 0b 4d 3d 40 3c e5 bc 81 71 a6 bd 02 2a e0 3e
       0.050059915 -0.027982831 -0.08127118 0.4378205
0002f0 65 f7 43 3e c0 92 41 3d 77 ac c5 3d 9c 22 0b be
       0.19137342 0.047259092 0.09652036 -0.13587421
000300 94 09 14 3d 04 8f 9b bd 99 fd df bd 70 3c 55 3c
       0.036141947 -0.075956374 -0.10937042 0.013014898
000310 ac 9f 14 be 9d 37 1a bd 88 24 93 bd 3f b8 5a 3d
       -0.14514035 -0.037650693 -0.07184702 0.053398367
000320 60 d9 fd bd 2a 46 23 3d bb 86 98 3d fd 1a 63 bd
       -0.123949766 0.039861836 0.07447573 -0.05544566
000330 e2 38 c5 3d 5c 3d 18 be a5 a8 df 3c a6 de 41 3d
       0.0962999 -0.14867157 0.027302096 0.047331475
000340 43 8d 06 be 26 eb a9 bd 4d 35 2c 3a f9 0b 41 3d
       -0.13139825 -0.08296804 0.0006569222 0.04713056
000350 d2 0d ff 3d 88 c3 21 bd 45 14 02 be 88 99 df bd
       0.12453808 -0.039493114 -0.12703045 -0.10917956
000360 50 f2 1e be 99 de ed bd b2 98 ef 3d b9 53 20 bd
       -0.15522122 -0.11614723 0.11699046 -0.039142344
000370 0e 3e df bd 60 6f e7 3d a1 74 41 3d 73 6d 56 3d
       -0.10900508 0.1130054 0.047230367 0.052350473
000380 49 33 67 3c 41 ea 84 3d d1 d2 42 3d 88 d2 92 bd
       0.014111348 0.06489993 0.04756433 -0.07169062
000390 07 aa 8b 3d dc 8e e2 bd 8e 85 a3 3d 6e 3b 14 bd
       0.068195395 -0.110624045 0.07984458 -0.03618949
0003a0 91 43 e8 bd 9c 3d cf 3d 77 fd dc 3c a9 2c 1d bd
       -0.11341012 0.10119173 0.02697633 -0.03837267
0003b0 0c ec 60 3d 63 be 38 bd 05 18 88 bd ea 5d bf bd
       0.05491261 -0.045103442 -0.06645206 -0.093440846
0003c0 94 23 fc bd 85 00 e6 bd 0f 64 b1 3c 86 fe db 3d
       -0.123114735 -0.11230568 0.021654157 0.10741906
0003d0 30 56 bb bb d3 36 5d 3d aa 5c 77 3d 3b 94 94 3c
       -0.0057170615 0.054007363 0.060391106 0.018137088
0003e0 b0 6d e7 bd 74 e8 8d bd 4f 2b 56 3c a2 3f 18 bd
       -0.11300218 -0.069291025 0.013071849 -0.03717006
0003f0 7a d1 3b 3d 71 05 b8 3c 31 4f b7 bc 36 59 44 3c
       0.04585407 0.022463532 -0.022376629 0.01198416

fc2.bias f4 [32]
000000 35 81 3f 3e 84 79 09 bd b6 e8 13 bc e9 5b bb bd
       0.18701632 -0.033563152 -0.009027651 -0.0914839
000010 ed 8e 9b bd 1c 94 8a 3c 55 7d bf bd 5f ce 32 3e
       -0.0759562 0.016916327 -0.09350077 0.17461537
000020 d2 0d a7 bd 3c 33 c2 3d dd 55 2a 3d f0 1c b5 bd
       -0.08156933 0.094824284 0.04158579 -0.0884341
000030 92 25 ae 3d d1 5a d9 3d 65 6a 47 3e 0e 2c a7 bd
       0.0850326 0.10613025 0.1947418 -0.081627
000040 aa 56 bd bd e3 fb 83 bb 7d f9 af 3d a6 8e 8b 3d
       -0.092450455 -0.00402783 0.08592508 0.068143174
000050 28 4c 0e 3e 69 f2 51 bd ba 75 9f bc fd a1 e9 3c
       0.13896239 -0.05125657 -0.019465316 0.028519625
000060 3d 9a db bd 5b 03 12 3e 5f 24 93 3d 27 21 8c bd
       -0.10722778 0.14259093 0.071846716 -0.06842261
000070 ac 96 e0 bd 66 0e 0e 3c 30 78 f6 3d 88 7a db bc
       -0.109662384 0.008670425 0.12034643 -0.026791826

fc3.weight f4 [10, 32]
000000 c6 8a 87 3c 5b 42 d0 bd 49 c8 65 3e 14 3e 5c bc
       0.016545665 -0.10168906 0.22439684 -0.013442535
000010 fa 82 87 bd e7 0f 65 be 70 33 0f be 8b 5c fb 3d
       -0.06616779 -0.22369348 -0.13984466 0.122735105
000020 93 69 4f be b0 a6 85 be bd b6 22 bd b8 ad 5b be
       -0.20255117 -0.26103735 -0.039725054 -0.21452987
000030 6e fd 8f 3e 19 52 bb 3d 7e 4f 1c 3e 25 26 7d be
       0.2812304 0.09146518 0.15264699 -0.24721582
000040 77 a0 4f bb fe 4e cc 3d 02 c0 8e be dc 6c 58 3e
       -0.0031681338 0.09976004 -0.27880865 0.21135277
000050 d1 c9 ec bc 13 17 c2 be ec f8 6d 3d 4a 8d 6b 3e
       -0.028904827 -0.3790823 0.05809872 0.23003116
000060 73 f1 aa be e0 c1 4b be 7f c6 6a 3e 53 66 cd bd
       -0.33387336 -0.19898176 0.22927283 -0.100292824
000070 6c c9 0b 3e 46 ad 2d be a7 70 54 be c2 52 2c be
       0.13651055 -0.1696063 -0.20746098 -0.16828445
000080 00 00 47 3e 48 12 48 3e 10 1c 83 3e 2d 19 ca 3d
       0.19433594 0.19538224 0.25607347 0.09868083
000090 86 a6 8c bc 22 bf 19 3e c7 42 0f 3e 33 08 2d 3e
       -0.017169248 0.15014318 0.13990317 0.16897659
0000a0 e5 65 2e bd d3 5a ab bd e4 09 a0 bc e0 9a a4 bd
       -0.042577643 -0.08366933 -0.019535966 -0.080373526
0000b0 71 bb 9d be 0d 66 a8 be 86 d1 4a 3e 81 0c 70 bc
       -0.3080707 -0.3289036 0.1980649 -0.014651419
0000c0 b5 85 ea 3d be 9b 7e be 82 8c 25 3e ba 1b d0 bd
       0.11451284 -0.24864098 0.1616688 -0.101615384
0000d0 87 14 29 3e 45 af ec bd 86 58 14 be 53 32 98 3e
       0.16511737 -0.115568675 -0.14486894 0.29725894
0000e0 2a 1e 33 be db 00 c4 bd ea 77 58 be 00 1d cd bd
       -0.17491975 -0.09570476 -0.21139494 -0.10015297
0000f0 b9 5e be be 26 7a 48 be 04 08 0d 3c 34 1b 32 3d
       -0.37181643 -0.19577846 0.008607868 0.043482974
000100 74 95 05 be 5c 09 bf 3d 72 be 84 3e 0f 6f 2f 3d
       -0.13045293 0.09327957 0.25926548 0.042830523
000110 a5 96 23 be 64 fd 86 be 50 46 48 3d 13 94 e7 bc
       -0.15975435 -0.26365197 0.04889518 -0.02826885
000120 71 b3 fc bc 58 b1 75 3e 56 c1 2f be 88 2f 90 3e
       -0.030847283 0.23993433 -0.17163596 0.28161263
000130 12 81 8e 3d 73 cf 16 be b5 ad 53 3e 33 ac 84 be
       0.06958212 -0.14727573 0.20671733 -0.25912628
000140 64 27 3d bd 66 49 92 3d 68 c6 a3 be 30 3c 92 be
       -0.046180144 0.07142906 -0.3198731 -0.28561544
000150 0b 79 74 be c3 68 01 be e4 7a e1 bd 52 15 66 be
       -0.23874299 -0.1263762 -0.11009768 -0.2246907
000160 e3 65 d3 3c a7 54 8a 3d 30 b3 5a 3e ae 48 0c bc
       0.02580542 0.067544274 0.21357417 -0.00856225
000170 a9 cf c9 bd 97 2a 09 3e 7f fe 77 be 69 5b 21 3e
       -0.09854061 0.13395153 -0.24218176 0.15757526
000180 29 ce 13 be e3 28 80 3d 81 42 5f be 68 8b fd bd
       -0.14434113 0.062577985 -0.21802713 -0.12380105
000190 32 76 09 be 2f 80 14 3d 2c 23 f9 3d 2c 5a 65 bd
       -0.13423994 0.036255058 0.12164912 -0.055994198
0001a0 e6 92 e5 bd 88 46 cb 3d 1d 95 0c bd cf 00 c0 bc
       -0.11209659 0.09925562 -0.034321893 -0.023437886
0001b0 9a a1 74 be ed 0d 91 3e c6 53 48 3e ba 3e e9 bd
       -0.23889771 0.28330937 0.19563207 -0.11388917
0001c0 4c 1d b9 bc 99 bf 3d bd 9b 8b ba be 27 da cf 3d
       -0.022596978 -0.0463253 -0.36434636 0.10149031
0001d0 67 09 32 bc 50 9a f4 3d 8b f0 bc bd fe 81 98 be
       -0.0108664995 0.11943495 -0.092255674 -0.29786676
0001e0 89 26 9e 3d 29 c4 c4 be 4e 4d 34 be 7b 16 47 bd
       0.07722194 -0.38430908 -0.17607614 -0.048605423
0001f0 cf 2c 86 bd 3c db 13 bd b2 2a cf 3d 40 25 6e 3e
       -0.06551515 -0.03609775 0.10115565 0.23256397
000200 aa f6 a0 3e dc aa a0 bc 68 ae 9f 3c 6f d3 9e 3d
       0.3143819 -0.019612722 0.019492343 0.077551715
000210 9c 3d 47 bd 70 5f 92 be ee 6d 2f 3d 40 ec 45 3e
       -0.04864274 -0.28588438 0.042829446 0.19328403
000220 a8 e3 80 bd 1f 39 4b 3e 72 da 7d bd 92 5e 36 3e
       -0.06293422 0.19846009 -0.061975904 0.17809513
000230 38 f8 84 bb c7 f6 0a be a0 fd cb bd 45 d0 6c bc
       -0.0040579103 -0.135707 -0.099604845 -0.014453952
000240 74 f4 1b bd 0a 44 25 be d5 16 1a be 4d 84 12 3e
       -0.038074926 -0.16139236 -0.15047772 0.14308281
000250 a7 5e ee bd 9a 61 8f be 3a 44 c1 3d 82 fa a8 be
       -0.11639147 -0.28004152 0.09436841 -0.33003622
000260 45 3c cf be 7c 0f 3a 3e 19 cf e1 bd 91 8e f5 bc
       -0.4047567 0.1816997 -0.11025829 -0.029975208
000270 e5 09 67 3e d6 c5 cc bd 34 75 3e 3e 54 94 a9 bd
       0.22562368 -0.09998672 0.18599397 -0.082802445
000280 9b ab c4 3d 45 52 4a bd ff c0 19 be 05 40 00 be
       0.09603044 -0.049394865 -0.15015028 -0.12524422
000290 96 60 13 3e 61 f1 35 bd 96 ff e8 bb c4 0c 5b bd
       0.14392313 -0.04441965 -0.0071105463 -0.05347897
0002a0 cb 04 e4 bd 45 c6 07 be e7 eb a1 be d1 f2 79 3c
       -0.11133727 -0.13259228 -0.31625292 0.015255646
0002b0 a3 ab a3 be c4 b4 38 3e ab 12 df bd 1f 23 28 3e
       -0.31966886 0.18037707 -0.108922325 0.16419648
0002c0 a7 36 73 3e 53 c5 57 be 11 19 25 3e fa 8e 25 bb
       0.23751317 -0.21071367 0.16122843 -0.0025262223
0002d0 19 c2 69 3e 35 06 e8 bd f8 42 3e 3e 66 a7 62 bd
       0.22827949 -0.11329309 0.18580234 -0.055335425
0002e0 25 45 b0 bd 72 0e 96 bd c2 2d 1a 3e 8e fd 2e be
       -0.08606938 -0.07326974 0.15056518 -0.17088911
0002f0 33 a0 2f 3d 31 8c 27 3d b7 70 3e be 77 88 36 3d
       0.042877387 0.04090518 -0.18597685 0.044563737
000300 2b 2a b2 be 96 fe d1 bd ab f4 9f 3d 19 dd ed bb
       -0.34797797 -0.102536365 0.078103386 -0.007259023
000310 e9 8d 26 be d4 21 2d 3e 99 eb 4e 3d 22 25 0f 3e
       -0.16265072 0.16907436 0.050517652 0.13979009
000320 34 39 90 3d 14 56 10 3e 9f 10 06 bc 32 fa 65 be
       0.07042161 0.14095336 -0.008182674 -0.22458723
000330 e5 a1 e6 3d 95 ce 7c bd f5 87 ea bc 60 be 30 be
       0.11261348 -0.06172045 -0.028629282 -0.17260122
000340 1e 79 25 3c 0f 33 83 be fa a2 ed 3d b4 ef 80 3e
       0.010099677 -0.25624892 0.11603351 0.2518288
000350 5c e4 1e be c9 7a 99 3c 95 73 87 3e e3 46 9f be
       -0.155168 0.018735306 0.2645537 -0.3110877
000360 6c ea 17 be 9e 11 4c 3e 0f 34 cd 3d 73 7f 90 bc
       -0.14835519 0.19928595 0.10019695 -0.017638898
000370 35 19 34 3e 9d f4 a9 3c 9a 84 a4 be d4 48 30 3e
       0.1758774 0.020746524 -0.32132417 0.17215282
000380 65 1a 4c 3d 97 f5 48 3e e2 9c 4f bc 65 8e ff bd
       0.04982986 0.19624935 -0.012671681 -0.124783315
000390 e3 da 08 be 78 95 c8 bc 2e 57 27 bd 92 dd 6a be
       -0.13364749 -0.024485335 -0.040854625 -0.22936085
0003a0 14 44 c9 3a 2b 20 de bd de b7 59 be bc 7d a5 3d
       0.0015355372 -0.10845979 -0.21261546 0.080806226
0003b0 d8 a9 c2 3b c1 57 41 be 96 f3 17 be d8 c0 98 bd
       0.005940657 -0.18881132 -0.14839014 -0.07458657
0003c0 82 6a 83 3e 30 51 60 3e d1 01 8c bd 9b b2 51 3e
       0.25667197 0.2190597 -0.06836284 0.20478289
0003d0 1a d5 f6 bd 12 0f 17 3e 49 e9 65 bd d3 e4 3d 3e
       -0.12052365 0.14751843 -0.05613068 0.18544321
0003e0 28 02 77 3c 18 c4 2c be 06 b8 32 bc f7 97 18 be
       0.015076198 -0.16871679 -0.010908132 -0.1490172
0003f0 ec cb 80 be 6f ee fd 3d 67 93 83 3e 5a 83 4b bd
       -0.2515558 0.12398993 0.25698397 -0.049685813

fc3.bias f4 [10]
000000 19 59 3a 3d 8b c5 f6 bc 0b d1 32 3e bf 75 50 3e
       0.045495126 -0.030123493 0.17462556 0.20357417
000010 b3 8d f6 bc 05 91 76 bd 5b 61 15 3e 19 56 8b b9
       -0.030096864 -0.060196895 0.1458792 -0.00026576294
000020 88 7b 12 be a2 41 95 3d
       -0.14304936 0.07287909
