ch6/data/lenet.pth (torch, 242369 bytes, 12 tensors)

conv1.weight f4 [16, 1, 5, 5]
00000000: 11ae 253c 15e1 bdbd 3c76 e5bc e071 9dbd
00000010: ca34 403c d3ff 23be 823a 8dbe 6013 8dbe
00000020: 518a 34be 23b2 453e e0bb 263e 64de 253e
00000030: aed2 6b3c deef 003e c772 52be 8a59 bb3e
00000040: bcb1 963d b9a4 95bd 8bc0 173e b772 91be
00000050: 471f 863e edd7 9c3e 6a41 cd3c 63a7 143e
00000060: c1cb 79be f37b cc3c 2f45 72bd c1fd bd3c
00000070: 3d4d e0be 94f6 c6be 1cdc 17bd 4d19 2bbc
00000080: 43b7 7a3e 7621 44be 8053 783d aeeb 3f3d
00000090: c089 1ebc 56ef b23e 317a 823d cdb1 833e
000000a0: 4350 f23d ec72 ab3d 93ce bf3e 85fa 673d
000000b0: b981 f13d 4e65 1ebe f7ff 403c c3ab a83b
000000c0: f08c e63d 8591 d5bd 2b03 2e3e 7dd6 8f3e
000000d0: 9b6f 923e 9f36 9d3d a22e 953d e3cb b93c
000000e0: 3b0e 7b3e 87db 9a3a 517a 46be 1412 183e
000000f0: f96e 453e f84d 663e c3a0 adbe 2963 dabe
00000100: fc9e 17be 3a4b 29be 2f07 84bd 1b07 94bd
00000110: 5840 7cbe ffb7 a73c ab62 f93d 84f9 28be
00000120: 0900 683e 8530 c7bc 53e4 293e 08f6 d7bd
00000130: e119 103e 7d95 643e 8c2e 483e 513e f23d
00000140: 2c5e b2bd 657b df3d fd83 2c3d cf1a 753e
00000150: 2127 783e d41f 0e3e 0659 50be fa5c 0bbe
00000160: 3b4e d33d d28a bbbc 76dc 2bbe 9b24 98be
00000170: 8e3a 773d 0715 b7bd fee3 cd3c 285f 00be
00000180: ef8f 62be f268 163e 3f63 383e 4938 1ebe
00000190: d4ac 743b 7f71 cfbd a331 3f3d 8227 193e
000001a0: 8533 09bd 8a53 eb3c cb82 fd3d 4235 4e3e
000001b0: e48b 63bd 5bc2 0e3e 76c8 8d3c 53b3 76bd
000001c0: 58e7 a2bd 1235 003e ab8b 0ebd 4df1 d8bd
000001d0: 9beb 8d3d 51a5 a83d b052 17be 3201 63be
000001e0: fa27 3f3d 7b30 903d 82fc 11be aee6 31be
000001f0: 86e2 0c3d 7d4e 82be 09e0 c8be 7a8f e4bd
00000200: 5ff1 cd3d 4a83 913e cacc 6ebe 0984 a4be
00000210: 0ab0 84be 6506 20be 51dd c63c e541 d6bc
00000220: 91a4 093e a952 823d 10dd 993d 381c 3f3e
00000230: df88 823e f939 8b3e 85f1 5cbd c793 4f3e
00000240: 7a2f 833d d9c0 d43b 4752 823e adb8 0fbd
00000250: 152f 223c e595 2ebd b4cc 763e e307 3e3e
00000260: d29b a53e 23bb f5bd c69a 3ebe 3a04 723e
00000270: 8cba 453e 77f7 8f3e aa13 83bd 2db5 50be
00000280: 0a52 b0bd 74f4 1cbe fb66 ebbd 2a76 793e
00000290: 6aea 6b3c a32c 0fbe cff5 96be d323 6cbe
000002a0: a74b 933d 1323 a6bd 01c2 8abd 5c86 33be
000002b0: f9df 86bc c099 02be c1f1 e53d bcb0 3ebe
000002c0: a74b d0bd 8565 1a3e b286 ef3d 63ea 1fbe
000002d0: f270 17bd e710 5c3e b499 17be 1cbd c2bd
000002e0: 2c63 49be 8e62 423e 6607 d23d 7bc5 4b3e
000002f0: 9a28 2f3e bb02 17be 49a5 06bd be15 d93c
00000300: 04af 513d 02c6 5a3e c3bc 7abd 8eb4 55bd
00000310: 82e7 a3bd e6d2 453e dc15 00be f918 293e
00000320: 3f1a abbc ba93 bb3e af81 4e3e 5c2b 0e3e
00000330: 2799 2b3d 9344 07be 95fd bcbd 8aa8 b53d
00000340: dda6 f43d 060c 20be 0b2e a1bd 4698 b0be
00000350: 6fc0 03be cd45 c0be 078c d0be 400f 54be
00000360: 4458 17be 785c 16bf cab5 21bf 1a2e 9cbd
00000370: 90d4 ef3d 3fc7 90be 0f1f b0be dc7d 243e
00000380: 7e9b a83d c24e 16bd b62a 35be 60f9 2bbd
00000390: c00f 78be 239d 073e e65c 6b3d 8bb5 56be
000003a0: 2e66 2bbd ff9f c2bb 736c 45be e266 123e
000003b0: 97c2 5f3e 655f ca3e b750 b43d 1612 233e
000003c0: 27a7 8e3d 47b8 823e 547b 903e a4e5 933d
000003d0: 77e3 6d3e 22b8 29bc 8df6 52be 91fc fdbd
000003e0: 982b e8bd a813 e7bd 2b91 1b3e df4b 0cbe
000003f0: 6b2f 5b3d 7033 2e3e d3f5 103e d2c0 c0ba
0.010112301 -0.092714466 -0.02801048 -0.076877356 0.011731336 -0.16015558 -0.275837 -0.27553844
-0.17630889 0.19306235 0.16282606 0.16198117 0.014393492 0.12591502 -0.20551597 0.3659175
0.07358119 -0.07306809 0.14819543 -0.28407833 0.26195738 0.30633488 0.025055606 0.14516978
-0.24394132 0.024961447 -0.05914801 0.023192288 -0.43808928 -0.3886 -0.037075147 -0.010443044
0.24483971 -0.1915339 0.060626507 0.04685562 -0.009676397 0.34948224 0.063709624 0.2572159
0.11831715 0.08371529 0.3746229 0.0566354 0.11792321 -0.15468332 0.011779777 0.0051474287
0.112573504 -0.10428146 0.16993396 0.2809333 0.28600773 0.07676434 0.07284285 0.022680229
0.24517147 0.0011814692 -0.19382598 0.14850646 0.19280614 0.2249068 -0.33911714 -0.42653778
-0.14806741 -0.16532603 -0.06446683 -0.07227918 -0.2463392 0.020473478 0.121770225 -0.16501433
0.22656263 -0.024315128 0.16591005 -0.105449736 0.14072372 0.2232265 0.19549006 0.11828292
-0.08709368 0.109122075 0.04211806 0.23936008 0.24233676 0.13879329 -0.2034646 -0.13609686
0.10317656 -0.022893343 -0.16783318 -0.29715428 0.060358576 -0.089395575 0.02513313 -0.12536299
-0.22125219 0.14688471 0.1800661 -0.15451159 0.003733446 -0.101290695 0.046678197 0.14956477
-0.0334964 0.028726358 0.123784624 0.20137504 -0.055553332 0.13941328 0.017307501 -0.06022961
-0.079542816 0.12520245 -0.034801167 -0.105928995 0.06929704 0.082346566 -0.14777637 -0.22168425
0.046668984 0.07040497 -0.1425648 -0.17373154 0.034395717 -0.25450507 -0.39233425 -0.111601785
0.100558035 0.28420478 -0.23320308 -0.32131985 -0.25915557 -0.1562744 0.024275454 -0.026154468
0.13441683 0.063634224 0.075128675 0.18663108 0.2549505 0.27192667 -0.05394127 0.20271216
0.0640554 0.006492716 0.25453398 -0.03508823 0.009898921 -0.04262342 0.24101526 0.18557696
0.32345444 -0.11998584 -0.18613729 0.23634425 0.19309443 0.28118488 -0.06400235 -0.20381613
-0.08609398 -0.15327626 -0.11494251 0.24361482 0.01439915 -0.13981871 -0.29484412 -0.23060541
0.07192164 -0.081121586 -0.067752846 -0.17531723 -0.01646422 -0.12753963 0.112277515 -0.18622106
-0.101706795 0.15077789 0.11695613 -0.15616755 -0.036972947 0.21490823 -0.14804727 -0.09508726
-0.19666737 0.18982908 0.102553174 0.19899552 0.17105332 -0.14747135 -0.032872472 0.026499625
0.0511923 0.21364596 -0.061215173 -0.052174143 -0.08003141 0.19318733 -0.12508339 0.16513433
-0.020886539 0.36636144 0.20166658 0.13883728 0.041894104 -0.13209753 -0.092280544 0.08870037
0.11945889 -0.15629587 -0.0787011 -0.34491175 -0.12866376 -0.37553254 -0.40731832 -0.20708942
-0.14779764 -0.58734846 -0.63168013 -0.07625981 0.11710465 -0.28277013 -0.34398696 0.16063637
0.08232783 -0.036696203 -0.17692074 -0.04198587 -0.24224758 0.13243537 0.05746164 -0.2096769
-0.041845493 -0.005939483 -0.19279651 0.14297059 0.21851574 0.39525905 0.08804458 0.15924868
0.069654755 0.25531217 0.28219092 0.07221535 0.23231302 -0.010358842 -0.20601864 -0.12401689
-0.1133644 -0.11283046 0.15192096 -0.13700818 0.05351202 0.1701181 0.14156274 -0.0014705902

conv1.bias f4 [16]
00000000: 39a4 763e e2a0 533d 15c9 523c 9f76 143d
00000010: accc c03d 0a24 6c3e 63c7 843e 49aa fb3c
00000020: 2cd5 b13e d394 8c3d 3f6e 753d 7ae3 32be
00000030: c345 6f3d 3b79 a3bc 7edc 87bb 7de4 d3bc
0.24086083 0.0516671 0.0128653245 0.03624594 0.09414038 0.23060623 0.2593337 0.030720847
0.3473295 0.068643235 0.059919592 -0.17469588 0.05841614 -0.019955268 -0.0041461578 -0.025865788

conv2.weight f4 [32, 16, 5, 5]
00000000: 7b08 a2bc 4792 6dbc 097a d6bc dcf0 2fbe
00000010: a291 85be 3e71 bebd 1b19 67bd 73a7 323d
00000020: 5226 d3bd 45b3 44bd d5cc e5bd b724 613b
00000030: 9620 083e 4bcc 503e c35f 1c3e 807b c5bd
00000040: f208 c8bc 37a0 b03d 181b 0b3e f807 8a3e
00000050: 4b29 a9bd 80de 9ebd 57e2 773d 1571 343e
00000060: 0d17 743e 3bad dfbd 207a 4dbe 7e40 bebe
00000070: 656f 98be 9442 92bd 02a0 85be c3d3 4abe
00000080: 3e05 cfbe 310f c7be 60f5 94bd b5ae 04be
00000090: 4a03 a13d 8a5c 67be 6287 30be e7a7 23bd
000000a0: 0702 6e3d c158 783e 95ad 603e a301 883e
000000b0: 62da 303e 2e0e 263e f909 9f3e f9e1 aa3e
000000c0: b08c 823e c8e7 4f3e a13d c6bc 8a95 b73d
000000d0: 6f3b 8f3d d326 c73d 1659 493e 0dcd 143d
000000e0: 3ac3 213e 9ec4 d33d 15a3 463c 8fe5 11bc
000000f0: 54d2 c3bc 2e90 b33d d70f 243e 1b23 f7bc
00000100: 626f bbbd f8af 92bd d288 bf3c de53 efbc
00000110: 6088 f6bd 4f96 25be 9a17 f6bd 864e acbb
00000120: 61ab 3abe 9ec6 80bd b346 3b3d d3e9 0c3b
00000130: 930f 20bd 4315 6c3d bf54 363e 876a f13d
00000140: 06e2 13bd 0f31 9abd 2560 40bc 51a5 3d3d
00000150: d3d1 1a3d 9c0c 9bbc 651c c2bd 28b7 46bd
00000160: 7c98 febc 48bc 083c c854 22bd c452 01be
00000170: 23ef f0bd 1177 e6bd dbcb fcbd 04f9 223b
00000180: c683 af3c 3c0c 343d ebdd 90bd 4008 eabd
00000190: 2aca 2cbb 48c5 b83d 2520 8f3d 6039 9e3d
000001a0: 54c5 27bb 5ff5 a43d 55f4 d03d 8b8c 293d
000001b0: 0538 5a3d bae2 dbbc 8d58 aebc 80b0 d6bc
000001c0: 1c41 dbbc 76b0 e0bd 08e9 a9bc f2d1 00bd
000001d0: 3ad0 f9bd 5df0 0cbe a22a 80bd e458 de3c
000001e0: cd46 c53c 8e53 e9bc c390 5ebd 2500 ef3d
000001f0: 0080 9b3d ff2b 8c3c d505 593d 5ea4 b63d
00000200: 95b7 96bd 55aa 02be 41ef d2bd fa94 26be
00000210: ea31 5abd dc98 12be d165 82bd 7181 0abe
00000220: 7f59 20be a6aa 87bd 3215 063d 4f88 2c3e
00000230: 84c8 8bbc b63f 74bd 6093 6bba 75d8 473e
00000240: bdde 7f3e 32a1 e03c dc46 413d c234 4c3d
00000250: 2205 1f3e eb2a 153e 9967 073d 5b9e 32bd
00000260: 35ce 1cbc bccd 0a3e 4066 413e f0c3 0c3d
00000270: fefb a73d 3764 8d3c 2158 d53d b595 5a3e
00000280: cbbe c73d ec68 893d 329e 6cbc bb96 22bd
00000290: 96b1 5f3c 4584 363d 1721 a43c a2f2 1ebe
000002a0: ea0b a8be 38ec afbe 9755 ab3b 4017 f43d
000002b0: 159d bb3b e732 44be 05de 89be 2f9d 943d
000002c0: 09c1 3e39 ce96 22bd 8c8a ca3c a3d5 8cbb
000002d0: 63d4 923c 9463 813d dcd3 72bd 325f 10bd
000002e0: e1e3 5dbd 931b 1c3d 395c 213d 8221 b6bc
000002f0: 9cd3 823c 2259 be3c 3bd1 d73d c8bc 343d
00000300: 15fe e53c 5166 943d e8fe 9b3d 4c71 2339
00000310: 7d52 513d daef 2e3e 195f c83d 7852 2b3e
00000320: 8c97 643c 9839 8bbd de6e 21bd 8180 103e
00000330: a1ab 5f3e 949e f03d 6284 0e3d a92d 4c3e
00000340: a238 443e 803a 013e 2a5a 333e 3719 0a3e
00000350: 409f 223e c756 023c a55d f13c e8e0 57bd
00000360: feb8 adbd c718 41be 7712 0fbe d398 47be
00000370: 6eec 64be f170 a8be 3e1b 47be 07fa 8dbe
00000380: 5308 55bd 4ced 383d ea47 543c e62d 9fbd
00000390: 4b7f 87bd 83b1 febd f599 29be d38b b1bd
000003a0: d0e8 64be 05aa 75be aed6 81be 09fd b8bd
000003b0: 3374 f4bd dd21 b4bd 47c3 9dbd 7ec6 82bd
000003c0: 4185 003d cc34 963c dabf ff3d 59e4 f13d
000003d0: 7568 1a3e 2ee3 12bb 5ee8 233e c1f2 5e3e
000003e0: 9fc3 423e 0b40 7b3e 0562 863d aaa8 333d
000003f0: 384e d93d 4f91 a33d 6816 183e bcc9 da3c
-0.019779434 -0.014500207 -0.026181238 -0.17181724 -0.26087672 -0.09298943 -0.056420427 0.043616723
-0.103100434 -0.048022527 -0.11220709 0.003435416 0.1329368 0.20390432 0.15270905 -0.096426964
-0.024418328 0.086243086 0.13584554 0.26959205 -0.08259829 -0.07757282 0.06051859 0.17621262
0.23836918 -0.10921713 -0.20066118 -0.3715858 -0.29772487 -0.07141605 -0.2609864 -0.19807343
-0.40433687 -0.38878778 -0.07273364 -0.1295727 0.078619555 -0.22593895 -0.17239144 -0.039955046
0.058107402 0.24252607 0.21941216 0.2656375 0.17270806 0.16216347 0.31062296 0.33375528
0.2549796 0.20303261 -0.024199309 0.08964069 0.06993758 0.09724202 0.1966289 0.036328364
0.1579713 0.10340236 0.012123843 -0.008904829 -0.023904003 0.087677345 0.16021667 -0.030168107
-0.09152104 -0.071624696 0.02338067 -0.029214796 -0.1203773 -0.1617062 -0.120162204 -0.005258384
-0.18229438 -0.06287883 0.04572172 0.0021501675 -0.039077353 0.057637464 0.17805766 0.117878966
-0.036104225 -0.075288884 -0.011741673 0.046300236 0.03779776 -0.018926911 -0.09478072 -0.048514515
-0.03107857 0.008345671 -0.039631635 -0.12629229 -0.11764362 -0.11253179 -0.1234357 0.0024867663
0.02142514 0.04395698 -0.070735775 -0.11427355 -0.0026365616 0.090220034 0.06988553 0.07725787
-0.0025599794 0.08054613 0.10202853 0.041393798 0.05327608 -0.02684151 -0.021282459 -0.026207209
-0.026764445 -0.10971157 -0.020741 -0.03145022 -0.12197919 -0.13763566 -0.062581316 0.027141996
0.024081612 -0.028482225 -0.054337274 0.116699494 0.075927734 0.017110823 0.052984077 0.08918069
-0.07359234 -0.12760289 -0.1029954 -0.16267768 -0.053270258 -0.14316124 -0.06367076 -0.1352594
-0.1565914 -0.066243455 0.032735057 0.16848873 -0.017063387 -0.059631072 -0.0008986499 0.19516166
0.24987312 0.027420614 0.047186717 0.049855 0.15529302 0.14567153 0.033057783 -0.04360805
-0.009570648 0.13555044 0.18886662 0.034366548 0.082023606 0.0172597 0.104172 0.21346171
0.09753188 0.067094654 -0.014442014 -0.03969453 0.01365318 0.044559736 0.02003531 -0.15522245
-0.3282159 -0.34359908 0.005228709 0.11918497 0.0057255127 -0.19160043 -0.269272 0.07256543
0.00018191723 -0.0396946 0.024724267 -0.0042979284 0.01792354 0.06317821 -0.059284076 -0.035247035
-0.0541724 0.038112234 0.03939459 -0.022232775 0.015970044 0.023235861 0.105379544 0.04412535
0.028075257 0.07246078 0.07616979 0.00015587098 0.051104058 0.17083684 0.097837634 0.16730678
0.013952147 -0.067980945 -0.03941237 0.1411152 0.21842815 0.117489964 0.03479422 0.19939293
0.19162229 0.12619972 0.17514864 0.13486181 0.15881062 0.00795526 0.029463599 -0.05270472
-0.0848255 -0.18857108 -0.13971888 -0.19491892 -0.22355816 -0.32898667 -0.19443986 -0.27729818
-0.05200989 0.04514818 0.012956599 -0.07772426 -0.06616076 -0.124362014 -0.16562636 -0.086692475
-0.22354436 -0.23990639 -0.253591 -0.090326376 -0.11936226 -0.087955214 -0.07703262 -0.06385516
0.03137708 0.018335722 0.12487765 0.11811132 0.1507891 -0.0022413242 0.1600661 0.21772291
0.19019936 0.24536149 0.065616645 0.043862022 0.10610622 0.079867 0.14852297 0.026707523

conv2.bias f4 [32]
00000000: 4f78 853d 6a53 d83d f5f2 c23c 7eb2 023e
00000010: dec2 be3c 2327 953d 3163 c73d 3fa1 ce3d
00000020: 8d7d b23c 97e8 953d f404 9e3d d887 ed3d
00000030: 9802 913c 3bd4 933c 8f67 03bc bdc4 933d
00000040: d851 d93c 087d 6f3d f89a 5e3c 0c33 783d
00000050: 6bdd a63d 9b62 6d3c 0cfc 563d 5580 1a3d
00000060: dc0d 163e e0c6 d03a c1eb 9b3d 4a4b 1b3d
00000070: 139f 94bc bae0 f63c d220 873b fdf0 ccbb
0.06517088 0.10562785 0.023797492 0.12763402 0.02328628 0.07282855 0.09735716 0.10089349
0.021788383 0.073197536 0.077157885 0.11598176 0.017701432 0.018045535 -0.008020296 0.07215259
0.026528284 0.05846885 0.013586752 0.060595557 0.08147701 0.014488841 0.052486464 0.037720043
0.14653724 0.001592841 0.07613326 0.037913598 -0.018142259 0.030136455 0.0041237855 -0.006254314

conv3.weight f4 [32, 32, 5, 5]
00000000: 917c a83c 3de1 243d 80d5 f83c 8327 5ebc
00000010: 6523 043d 4c65 393d 3151 c23d fb58 493d
00000020: ca45 a9ba 7ad7 bb3c 524d a53d 48ef 643d
00000030: 462e 043d 095e 06bd 42f8 0dbe 17a6 f33c
00000040: c564 cd3c ccb6 18ba dfe2 46be d282 46be
00000050: 9cb4 463c 3240 21bd cfd8 70be 8489 72be
00000060: 49b0 97bd 09e3 73bd abb9 91bd 4560 26be
00000070: 418c cbbd f33e 9bba 61cf b7bb a53f 15bb
00000080: 2c52 14bd f08f 97bc 5a70 c8bc ddd9 8e3d
00000090: d4cb ac3c 94f4 cc3b eb44 853d 9bec 893d
000000a0: 1ef2 173d 0a71 67bc 3ae5 4b3d a64a 8f3c
000000b0: c1b3 9f3c 9399 7fbd e07e 57bd e15c 2ebd
000000c0: c0a0 49bd 444d 06be 2824 c0bd c787 61bd
000000d0: ee07 41bc a138 39bc 27d7 a7bc c1e7 1bbd
000000e0: a631 9eb9 8215 43bb 7008 953d d26f 4a3d
000000f0: 8fe6 d43c c426 1f3d b343 233d d36b 603d
00000100: e3a0 a93d 197c 343b 8ab2 1d3c 7422 c93d
00000110: 97ab 943d 602e 293d d6fd 86bd fbd6 893c
00000120: 756f 103d 4b53 223d e7bb 9bbc 6d4d 21be
00000130: 9c36 fabb d5cd 21bd 6159 0abd eb38 16be
00000140: 802d 9bbd 69d9 30bd 5edf babd 99b2 bcbc
00000150: 19d0 aa3c 7e67 c4bc 987e 413d 12b3 71bb
00000160: ed92 90ba 22a1 3c3d 9934 643d 2bbc a23c
00000170: ebf4 783b 6943 133d ee6e 1e3d 4897 8dbc
00000180: b8d2 d0bd b6de 71bd b84b 993d 8220 0c3e
00000190: 0b69 26bd abab 8bbd 5471 1abe 803b 44bd
000001a0: 22c1 25bd cfdf 253c 9ba7 023d a292 a0bb
000001b0: f1f8 45bc 21d1 3ebc 46bf c93c 0aaa a9ba
000001c0: 67af 7e3d 2cec 1d3d 8121 c43d 4ce9 1b3d
000001d0: bb3f 773c 164b 5c3c 1d79 a43d f413 af3c
000001e0: 08c3 f4bc f46f 3ebd 9644 563d 33f8 a2bc
000001f0: dc2f 963c 1805 06be 4d6d e8bc a03a 99bd
00000200: 877e acbd f141 babd 2bdc 9dbd 136d 13bd
00000210: d0de 71bc 804b e8bc d2d6 bfbc 619f 52bc
00000220: dfdc 013d e7e7 efba 5082 78bc 53ac a239
00000230: f849 003d 8271 ddbb 2ae9 a6bc 004f 07bd
00000240: 28ca 2abc 26a1 6cbd fe22 8cbd 5bcc 89bd
00000250: 7ded 383d 9be4 db3d e694 2fbe 1848 13be
00000260: bcd1 3ebe edfc 61be 9e52 0cbe 4683 5fbd
00000270: e873 94ba bd86 7cbc 8c06 33bd 7a42 e0bc
00000280: 9df6 023d 07da a23d fb82 6d3d 2852 6e3d
00000290: 83d2 e53c 789e f63d bb7c 393d 5b8f d93c
000002a0: bd23 023d 9657 8f3c 8534 93bc 85ce 5fbd
000002b0: d364 3fbd 33c2 f2bb e0d1 333d b87a 4fbe
000002c0: 8f3a 87bc 38d0 813c b7ab 3939 0f81 6bbe
000002d0: 9c43 d3bd 0d07 80bc 9844 6fbd bee9 e0bc
000002e0: eeec 9abd a50b 51bd acef b73b 54aa ba3b
000002f0: 3ec3 d83c a01d a03c 2f70 033d dc85 db3c
00000300: 022d 98bc af62 813b f292 0c3d c492 d33c
00000310: 6ad4 85bd bbbe 8bbc 5077 2c3d 6bae d43d
00000320: b282 b2bb e5ac d93d 5baf 7f3d 050a a03c
00000330: 96bd 63be 5270 17be e03e 98bd 03f8 f2bd
00000340: 70be c7bd 14da 53be 3c68 0dbd 683d d9bc
00000350: fe23 833b 1dc5 d0bb e808 4abb 24d2 4f3d
00000360: 25b1 783d cd48 cc3c e251 c4bc 7e72 c8bb
00000370: 4f37 b73d 094b ac3c d877 b5bd fa8d f9bc
00000380: ccd4 673c d451 aebc c97c ffbc b9e5 06bd
00000390: 4fa9 96bd b620 d33c 2a7a 8abc 29c3 8abc
000003a0: 7063 64bc fb7b 183c 31f4 433d 9a63 b23d
000003b0: 8037 d73c ad3b 4b3d 4fd4 4ebb 92c0 ae3d
000003c0: a282 d13c fdd4 0dbc 017c 6dbd 396d 43bd
000003d0: b61b 5ebd 744e 3cbe e23e 27be 4508 b7bd
000003e0: 64de 85bd 4f8c 41bd 63f1 b3bd bd72 07be
000003f0: b05b 21be 0a5c 3bbe 7fd0 69be 9875 933c
0.02056721 0.040253866 0.030375242 -0.013559225 0.032260317 0.04526262 0.09488142 0.049157124
-0.0012914476 0.022929896 0.08071388 0.05589226 0.032270692 -0.032804523 -0.13864234 0.029742284
0.025072465 -0.00058255787 -0.19422482 -0.19385841 0.012128022 -0.039367862 -0.23520206 -0.2368527
-0.074066706 -0.05954269 -0.071154915 -0.16247661 -0.09938861 -0.0011844322 -0.0056094383 -0.002277353
-0.036211178 -0.018501252 -0.024467636 0.06975148 0.021093287 0.006254742 0.06507286 0.06734582
0.037096135 -0.014126072 0.049779154 0.01749165 0.019494893 -0.06240232 -0.05261123 -0.042569045
-0.04922557 -0.13115412 -0.09381896 -0.055061128 -0.011781676 -0.011305005 -0.020488335 -0.038062815
-0.000301731 -0.0029767458 0.07277 0.049423046 0.025988845 0.03885533 0.039859485 0.05479033
0.0828264 0.0027539788 0.009625087 0.098210245 0.07259291 0.041303992 -0.06591384 0.016826143
0.035262544 0.039630216 -0.019010497 -0.15752192 -0.0076359045 -0.039502937 -0.033776645 -0.1467015
-0.07577038 -0.04317609 -0.09124635 -0.02303438 0.020851182 -0.02397513 0.04723987 -0.0036880416
-0.0011030115 0.046052106 0.055714224 0.019865116 0.003798778 0.03595296 0.03868001 -0.01728405
-0.101964414 -0.059050284 0.07485145 0.13684276 -0.04062752 -0.068198524 -0.15082294 -0.047908306
-0.04046739 0.010124161 0.031898122 -0.0049002925 -0.012083278 -0.01164654 0.02462734 -0.0012944352
0.062178995 0.03855531 0.09576703 0.038064286 0.015090878 0.013445636 0.08030913 0.02137182
-0.029878154 -0.046493486 0.052311502 -0.019893741 0.018333368 -0.1308788 -0.028372431 -0.07481885
-0.08422571 -0.090946086 -0.07708009 -0.035992693 -0.014762595 -0.028356314 -0.023417864 -0.012855382
0.03170478 -0.0018303365 -0.015167788 0.0003102744 0.031320542 -0.006757916 -0.020374853 -0.033034325
-0.010424174 -0.05777087 -0.06842612 -0.06728431 0.04514836 0.107369624 -0.17146644 -0.1438297
-0.18634695 -0.2206914 -0.13703391 -0.05456855 -0.0011326047 -0.0154129835 -0.043707415 -0.027375448
0.03197347 0.07951742 0.05798624 0.05818382 0.028054481 0.12041944 0.045284968 0.026557615
0.031772364 0.017497819 -0.01796938 -0.05464031 -0.046727013 -0.0074084043 0.043901324 -0.20261657
-0.016507415 0.015846357 0.00017706944 -0.2299845 -0.1031563 -0.015628362 -0.058415025 -0.027455207
-0.07564722 -0.051036496 0.005613288 0.005696574 0.026460286 0.019545376 0.03208941 0.026797228
-0.018576149 0.0039485316 0.034319825 0.02582682 -0.065346554 -0.01705872 0.042105973 0.1038483
-0.005447709 0.1062868 0.06242309 0.019536028 -0.2224029 -0.1478894 -0.074338675 -0.11863711
-0.0975312 -0.20688659 -0.034523234 -0.026518539 0.0040020933 -0.006371154 -0.0030828062 0.050737515
0.060715813 0.024937058 -0.023964826 -0.006117164 0.08946096 0.021031873 -0.08860749 -0.030463208
0.014149856 -0.021279253 -0.031187432 -0.032933924 -0.07356512 0.025772434 -0.016903955 -0.016938763
-0.013939723 0.009306903 0.0478403 0.08710404 0.026271582 0.049617458 -0.0031559651 0.085328236
0.025574986 -0.008656737 -0.057979587 -0.047711585 -0.054225646 -0.18389302 -0.16332582 -0.08937124
-0.06536558 -0.04725295 -0.08786275 -0.13227363 -0.15757632 -0.18296829 -0.22833441 0.018000409

conv3.bias f4 [32]
00000000: e89b 4fbc 1ea1 14bd 39cd 0e3d dfe0 adbc
00000010: cbc3 b4bc 0823 a43c d42c 30bd 7f36 8ebc
00000020: 27c7 acbc 847f 8e3d 8b5c 3c3b ddfb feba
00000030: e340 ab3c 14f2 b23b 11d5 45bb b358 cbbb
00000040: 566b 253c f579 fa3c bce5 0f3d 0ac2 4bbb
00000050: cdc8 a5b9 210c 073d ec97 e73d 41fd 58bd
00000060: 871c 403d e5da 09bc 1541 813d f1ee 5ebd
00000070: 8355 8dba dbe9 42bc 389e ce3c 316c 3bbc
-0.012671448 -0.036286466 0.034863684 -0.021225391 -0.022066018 0.020036235 -0.0430115 -0.01735997
-0.021091057 0.069579154 0.0028741683 -0.0019453723 0.020904964 0.005460987 -0.0030186812 -0.006205642
0.010096392 0.030575732 0.0351312 -0.0031090998 -0.0003162086 0.03297055 0.11308274 -0.052975897
0.046902206 -0.008414005 0.063112415 -0.05442709 -0.0010782931 -0.011896576 0.025221929 -0.011439369

fc1.weight f4 [64, 288]
00000000: 5f39 083d 30e8 fb3d 5ccd df3b 9d82 973c
00000010: fb44 23ba f2a8 a03d 576f 97bb d483 783d
00000020: d66a bebc 1903 843c 0ccd c9bd 98e8 72bd
00000030: 6f03 29bd da8e e93d b5ca 323c 65de 15be
00000040: 0531 43bb 55c7 94bd e516 c33d f4cf e33c
00000050: d5f3 873d db37 603a aaf7 c23c 3af2 f93d
00000060: 5e2a febb d6ad 97bd e647 e9ba fef7 b73d
00000070: 7070 6f3d b1ed 1d3d 0a50 1b3d a2af 4ebd
00000080: 0311 04bd 52d9 33bc c2a0 bb3d 1370 89bd
00000090: 5343 a13c dadd b6bc a810 9a3c d741 933d
000000a0: 5381 2cbd 0911 863d e79a 253c 242f 3b3b
000000b0: f0c3 d0bc e95f 1cbd 344b 313d 81a7 fd3c
000000c0: 3b5d 803d f394 c6bc 8bcd c23c f3cc cd3d
000000d0: 02d8 e4bc b80a 5cbd 7616 81bb 7d27 c9bd
000000e0: 0c71 8d3d 0d7a 903d 4fa4 5cba e8c6 de3c
000000f0: 2c50 5a3d fbdc 253d ee1d 06be 86e5 d8bd
00000100: ead9 50bd d852 c63d 4b68 8c3c acad 6f3d
00000110: 50e7 803d 1302 7a3c 5bd4 4fbd faa0 10bc
00000120: 9bf9 083e 53ee f63d 07fd e8bc c402 3a3d
00000130: 384d 83bb fc9f 7c3d cdd7 85bd 8ab0 3e3d
00000140: d424 b5bd 95e4 b4bd 5680 77bd c593 03be
00000150: 32f3 72bc fb18 7c3d 04d6 9dba 2297 9dbd
00000160: 1d12 60bc 5c33 423d 3e32 453d b337 4dbc
00000170: e879 6fbc fced b73d 609e e13c 3073 16bc
00000180: 8666 9abd 32d7 853d 29fb 80bd 2deb afba
00000190: 35e4 343d ae3a 633b 56c9 7fbd 0b40 d53c
000001a0: 2819 4a3d acbc 543d 0928 6e3c 3019 07bc
000001b0: 6ac4 d6bd 507f abbd d205 77bd b840 bbbb
000001c0: 9d38 143d 48f6 04be a081 c1bd 03fa 953b
000001d0: 5ad4 e93d cd0f bc3c 8a39 61bc 89de 8a3d
000001e0: d687 fabd cc26 ec3c 84ea 5d3c 528b e23d
000001f0: f55b b5bd d880 a8bd 98bf 10be 1d6a 4ebc
00000200: fce4 eebd 1a1c 26bd c4b8 243d 3e16 da3c
00000210: c1e5 b9bd 5b78 b3bb 228e 69bd 7241 693c
00000220: 8499 573c 5990 ee3b 565c 5dbd 966a bf3d
00000230: 8132 603d ba7d 573b 35cb 153c 7503 dbbc
00000240: 8aee 143e b77e 40bc 122c e5bc 3ced 393c
00000250: 9c25 d53d f817 253c 343f 333e a1c2 c7bb
00000260: e03e 38bd 5f10 2b3d e1d9 993c 785e 58bd
00000270: d4b4 ab3d 352c 0cbb 7042 4fbd 4f27 3abd
00000280: 5a4d 61bd d782 85bd 7923 65bd fa12 11be
00000290: 87f7 c8bc 983b e4bd ab8b f33a f2cd 753d
000002a0: 04e3 1cbd 1641 89bc 6fe2 a23c 2e24 863c
000002b0: ffc0 c03d c94b 313d fac8 9e3c a170 d0bc
000002c0: d3c8 c4bc 52da a23d 12f4 af3c 2524 52bd
000002d0: db21 30bc d25a ab3d 1123 ce3d b73e 08bd
000002e0: 8a2f 51bd 9ba5 273b be3e 8e3d a4eb 4eba
000002f0: f13d 2d3b cfea 953d c238 013d 0e4e dabd
00000300: 1fdd 2d3d 86dc 68bd 818c 9bbc 8c34 98bc
00000310: 6061 cd3c e6e1 2f3d e26b 9abd 6ac8 a63c
00000320: 469f dbbd a760 04bd c393 2bbd 27e4 7a3d
00000330: a78b d73c 411f 1d3c 1d44 ae3c 72a0 10bb
00000340: 2f37 6ebc 8ece 5b3d e9c1 2d3d dab5 1f3d
00000350: 8b93 413d 4352 a23d a35a b33c c514 68bc
00000360: b93f e9bc b285 393d 0bb4 0bbe 0234 3a3e
00000370: a1a2 633a 6db3 03be 1b17 ed3d ea08 ab3d
00000380: fca8 9f3c 6fc1 63bc 6147 38bd 1ea6 cdbc
00000390: 9278 2b3d e979 b83c 5c73 043c 8194 98bc
000003a0: c584 d53b c91c 5f3d 9df5 f3bd de82 8abc
000003b0: a239 0cbe 40f4 39bd 01b1 05bd eec0 1dbd
000003c0: 4240 2abe 1589 bc3d ce93 c73d 9a64 d03d
000003d0: aab6 51bd 4b46 e5bc 5c2a ccbd 77b6 133e
000003e0: a943 e33d b1af 8b3d 4c4a 043e bdae 6e3d
000003f0: 3f07 95bd ed57 d339 7a74 bb3d a0df 05be
0.03325784 0.123001456 0.0068299007 0.018494898 -0.00062282354 0.07844724 -0.004621427 0.060672596
-0.023244303 0.016114758 -0.09853563 -0.05930385 -0.04126304 0.114042 0.010912587 -0.14635618
-0.0029783857 -0.07264582 0.09525851 0.02780912 0.06638304 0.0008553245 0.023799736 0.12204404
-0.0077565154 -0.074062034 -0.0017797917 0.08982848 0.058456838 0.03855676 0.037918128 -0.050460465
-0.032242786 -0.010977106 0.091615215 -0.067108296 0.019685423 -0.022322584 0.01880677 0.07190292
-0.04211552 0.06546218 0.010107732 0.0028562034 -0.025484055 -0.038177405 0.04328461 0.030963661
0.06267782 -0.024240946 0.023779651 0.100488566 -0.027935032 -0.05372116 -0.003939445 -0.09821985
0.069063276 0.07054529 -0.0008416818 0.027194455 0.053299114 0.040493947 -0.13097355 -0.10590653
-0.05098907 0.0968377 0.017139575 0.058515236 0.06294119 0.015259284 -0.050739627 -0.008827442
0.13376467 0.120571755 -0.028440965 0.045412794 -0.004007008 0.06167601 -0.06535301 0.04655508
-0.08844915 -0.08832661 -0.060425125 -0.12849338 -0.01482849 0.06154726 -0.0012041931 -0.07694842
-0.013676194 0.04741226 0.048143618 -0.012525487 -0.014616467 0.08980939 0.02754134 -0.009182736
-0.07539086 0.06535186 -0.06297905 -0.0013421528 0.044162948 0.0034672427 -0.06244787 0.026031515
0.049340397 0.051937744 0.014535912 -0.008245751 -0.10486682 -0.08373892 -0.060308285 -0.005714502
0.036186803 -0.12984574 -0.09448552 0.004576923 0.11417456 0.022956753 -0.013746629 0.067807265
-0.1223294 0.028827094 0.013544682 0.110617295 -0.0885543 -0.082277 -0.14135587 -0.012598542
-0.11664769 -0.040554143 0.04021527 0.026621934 -0.09077025 -0.005476994 -0.057020314 0.014236795
0.01315916 0.007280391 -0.054043137 0.093465015 0.054735664 0.0032881335 0.009142687 -0.026735047
0.1454412 -0.011748961 -0.027975116 0.011348065 0.10407564 0.010076515 0.17504579 -0.0060961996
-0.044981837 0.04176366 0.01878065 -0.052824467 0.083840996 -0.0021388654 -0.05060047 -0.045447644
-0.05500541 -0.06519096 -0.055942032 -0.14167395 -0.024532093 -0.11144179 0.0018581053 0.060010858
-0.038302436 -0.016754668 0.019883363 0.016374674 0.09411811 0.043285165 0.019382942 -0.02544433
-0.024021542 0.079517975 0.021478686 -0.051304 -0.010750259 0.08366932 0.10065282 -0.033262935
-0.051070727 0.0025580886 0.06945561 -0.00078933896 0.0026434625 0.07320177 0.03154827 -0.10659419
0.042447206 -0.056850933 -0.018987896 -0.018579744 0.025070846 0.042940043 -0.07540108 0.020359237
-0.10723738 -0.032318737 -0.041888963 0.06125274 0.026311709 0.009589971 0.021272713 -0.002206829
-0.014539524 0.053663783 0.042421255 0.038991787 0.04725985 0.079258464 0.021893805 -0.014165108
-0.028472768 0.045293517 -0.136429 0.18183902 0.00086835964 -0.12861414 0.11576673 0.083513096
0.019489758 -0.013901099 -0.044989947 -0.025103625 0.04186303 0.022519069 0.008084144 -0.0186255
0.0065160715 0.05447081 -0.119120814 -0.016908105 -0.1369386 -0.04539895 -0.032639507 -0.03851407
-0.16626075 0.09205834 0.097449884 0.10175438 -0.051199593 -0.02798762 -0.09969017 0.14425074
0.110968895 0.0682062 0.12918967 0.058272112 -0.07276773 0.00040310566 0.091530755 -0.13073587

fc1.bias f4 [64]
00000000: 4cf9 58bb 10c5 9c39 cc51 ed3c 7653 b7bc
00000010: 277c cf3b f89b ed3b a78e 463d d8a2 86bb
00000020: 7614 cabb 4ec4 7e3d 5f48 373d 2fd0 bf3b
00000030: acbe 54bd 7acd 24bd d508 bb3d dd5a 9cbd
00000040: ead1 2f3c 9f40 f9bc 76cf 98bc 2fc8 5fbc
00000050: 5356 b4bd 68f6 81bd b171 e83c 4a53 f2bc
00000060: 4a62 8d3d fc57 cd3c 27b5 59bd 79b0 903d
00000070: 5b4a cc3c b1ff a33c 830b 5f3d 1721 a23d
00000080: 620b ce3c e4f5 2bbd f4d8 c4bc 14ac 183c
00000090: 6407 b33c 8850 87bc ed26 853d ccd9 02bc
000000a0: 3848 c53b ebf6 75bd 8d78 de3c 9b3a 34bc
000000b0: 7e33 0abd a462 b53d d9df 39bc af20 9c3d
000000c0: ac9f 9abc 4eb1 7bbb 6798 6a3c 03bd 5cbd
000000d0: c150 0fbd e3e0 933d 116a 4d3d 29f0 a53d
000000e0: 801a 84bd 3a23 d43c a09e e43c d049 9fbd
000000f0: 306a a33d f42b a4bc 912f 273d 6dd7 f6bb
-0.0033107577 0.00029901462 0.028969668 -0.022378664 0.006331939 0.007251259 0.048475888 -0.004108768
-0.00616699 0.06219893 0.044746753 0.005853675 -0.05193965 -0.04023502 0.09132544 -0.07634518
0.0107312 -0.030426322 -0.018653613 -0.013658567 -0.088055275 -0.063458264 0.028374525 -0.029580731
0.06903513 0.025066368 -0.053151276 0.070649095 0.0249378 0.020019384 0.054454338 0.07916468
0.025151912 -0.041982546 -0.024029233 0.00931837 0.02185411 -0.016517892 0.06501565 -0.007986497
0.006020572 -0.060049932 0.027157092 -0.011000301 -0.033740513 0.08856705 -0.011344873 0.076234214
-0.018874966 -0.0038405242 0.014318562 -0.053891193 -0.034989122 0.07220628 0.05014998 0.081024475
-0.06450367 0.025895704 0.02790767 -0.077777505 0.07979238 -0.02004049 0.040816847 -0.007533005

fc2.weight f4 [32, 64]
00000000: 5440 b0bd cb17 c3bc 2a98 00be d39a 7ebc
00000010: 89b7 d33d 7733 ff3d 9f75 013e b098 33bd
00000020: 5f81 d93b 1d73 99bd ac6a 0f3e fb0e 99bd
00000030: 0794 e9bd 3a7f e43c 5401 53bd 9626 a1bc
00000040: fce2 d8bd 9224 c8bd 2c90 fd3d 6792 283d
00000050: f4ea a13d 8820 59bd ad01 2c3d 464b 923c
00000060: b273 e13d 54ac ec3d 97cb 623d 251b b7bd
00000070: 2477 e73d 63f0 cbbd d2ae abbd bf68 0f3e
00000080: 747d ddbd 5337 25bd cfc8 c6bd cb15 b23c
00000090: 18f6 1d3d 16b0 613d 4655 c43d 1295 9dbd
000000a0: cda5 7dbd 14b6 643c 89f4 e33d ae3e 423e
000000b0: 0f4f 84be d4d6 b7bb d116 e33d 5d5e 59bc
000000c0: 19de 97bd e8e8 0a3e 4ecb 19be 1901 50bd
000000d0: 4e38 1fbc 8add 65bd 5e5e 4f3e a0d7 fcbc
000000e0: f40d efbd f1cd d7bd 40e7 343e 4e64 bb3d
000000f0: 98e6 b6bc 1644 11bc 2df3 d03d 6ffe 343c
00000100: 0af0 c0bd 91a9 07be 8486 b5bd 7828 d43d
00000110: 0897 dc3d 96c5 e93d 29e1 463b 9e85 0b3e
00000120: a7e3 1c3e a90d 0e3e 9a0d 3c3d 4217 053e
00000130: 89ee cdbd 691c 523c 07af 13bd 1df3 0d3d
00000140: 9e62 e13c 2ba1 22bd 0689 433d 540d 063d
00000150: 3ae5 f93d 5ace f33c 8fb6 9e3d ba0f 92bd
00000160: 0055 11be c94e 9d3d 8469 cdbc ea80 9d3c
00000170: 82be aabc 5c2a a7bd 3d64 123d 6226 9dbd
00000180: 7601 cfbc ff35 93bd 612d 723c d06f e63d
00000190: 8bdd 973c 33ea 9fbd 458c d63d f9e9 c93d
000001a0: 0943 cfbd cb10 f6bd aae9 c7bd 3b7d 8a3b
000001b0: 4338 73bd 3fe5 f3bd fcb9 ddbd 33c0 9dbd
000001c0: ab36 233e 363d b73d c2d8 fa3c 6f8d 993d
000001d0: df66 5f3e cc26 0f3e 5f41 703d 5b8a f93d
000001e0: a312 00be c480 a0bd d26f e53d 6178 d7bd
000001f0: 773e 043e 62f8 193d 2e9e b73d 62cd d83d
00000200: 38bf 933c d3d4 073e 8fa8 d63d e466 bdbc
00000210: c699 853d c9a2 d63c c86f 8d3d 972a afbd
00000220: 09bf 033e 3c6e e33d 0d61 8fbd 4584 453d
00000230: 3b86 853d 7631 e1bd 11bc fd3d 3dc5 19bd
00000240: 94ea ad3d a665 b43d 21e0 153d ded5 783d
00000250: d8b4 78bd 64d1 af3d b55f 613d c9e5 a73d
00000260: 1819 a1bd 0cf0 a93d 8783 343a 8fae 653d
00000270: a95c 813e 46c3 da3d 4a4a c03d d380 2abe
00000280: 0101 90bd f68e 74bd 8265 c23d 2c88 27bc
00000290: 9d5f 10be a50d cf3d 21d8 7b3c b70d cbbc
000002a0: 004f cebd 1173 0fbb 5054 cb3d f445 eb3d
000002b0: cc7e 4bbe 93de 9a3d 9e70 34be 6a6d 923d
000002c0: c0d3 c03d ce26 633d 01a0 083d 3253 cc3c
000002d0: 28ff da3d 10ee 3ebe 65b2 a23d e9f8 c9bd
000002e0: 094f 513d 6148 1dbd bac6 c6bd cd3c 8a3e
000002f0: 3a92 243e 8ab9 f43c 8417 af3d d4af fcbd
00000300: b60c 4f3d dedc 80bd 488c dabd 703c 553c
00000310: 3d9a fcbd 9e6d f6bc 8441 8bbd 4811 8c3d
00000320: 1445 04be b638 473d 5e46 ae3d 0d2a 27bd
00000330: e238 c53d 9319 01be 90b2 dd3c a6de 413d
00000340: 878c 0abe c177 91bd a8a7 563c c810 663d
00000350: d20d ff3d 88c3 21bd 509f edbd 5e8c eabd
00000360: 0330 15be f36a cebd b298 ef3d 4dea 49bd
00000370: 0e3e dfbd 606f e73d e4ad 643d 25ec 533d
00000380: f14c b03c 864d 9c3d c442 863d 633b 86bd
00000390: 93e8 9d3d dc8e e2bd 8e85 a33d fbce eabc
000003a0: f11a d0bd 9c3d cf3d e351 2d3d bf78 c3bc
000003b0: 54e0 463d 3b64 47bd 6a72 55bd 3eca cabd
000003c0: 5453 d8bd 00a5 c9bd 296b e13c de65 f43d
000003d0: 61c5 853a 28e8 883d a868 7d3d b16c f33c
000003e0: b06d e7bd 5fb8 8cbd ad40 033d a23f 18bd
000003f0: 13e5 8a3d 4f5c bf3c 699b 08bc 3659 443c
-0.086060196 -0.023815056 -0.12558046 -0.015539843 0.10337741 0.12460988 0.12642525 -0.043846786
0.0066377367 -0.07492659 0.14005536 -0.074735604 -0.11405187 0.027892698 -0.05151494 -0.01967172
-0.10590169 -0.097726 0.12381014 0.041155245 0.07906142 -0.05300954 0.041993786 0.017858159
0.11008395 0.115563065 0.05536994 -0.08940724 0.11302021 -0.099579595 -0.08382954 0.14004801
-0.10814944 -0.040335964 -0.0970627 0.021738907 0.03856477 0.05509957 0.09586577 -0.076944485
-0.061925698 0.013959426 0.11130626 0.18969223 -0.25841567 -0.0056103263 0.11088336 -0.013267127
-0.07415409 0.13565409 -0.15018961 -0.050782297 -0.009718014 -0.05611948 0.20250842 -0.030864537
-0.11672583 -0.10537327 0.1766634 0.09149991 -0.022326753 -0.008866331 0.10202632 0.01104699
-0.09420784 -0.13248278 -0.088635474 0.10359281 0.107709944 0.1141464 0.0030346608 0.1362519
0.15321217 0.13872398 0.04591141 0.12997153 -0.100552626 0.012824156 -0.03605559 0.03465568
0.027512845 -0.039704483 0.047738098 0.032727554 0.122019246 0.029761482 0.07749664 -0.07131906
-0.14192581 0.07681043 -0.025074728 0.01922651 -0.020842794 -0.08162376 0.035740126 -0.076733366
-0.025269251 -0.07188033 0.014781327 0.11251795 0.018538257 -0.07808342 0.10475973 0.0985908
-0.10120208 -0.12014922 -0.09761365 0.0042263544 -0.059379827 -0.119089596 -0.10826489 -0.07702675
0.15938823 0.08947222 0.030620936 0.074976794 0.21816586 0.13979644 0.058656093 0.12184592
-0.1250711 -0.0783706 0.11202969 -0.10521007 0.12914453 0.037590392 0.08965717 0.10586049
0.018035516 0.1326478 0.10481369 -0.023120351 0.065234706 0.026200669 0.06906086 -0.08553045
0.12865843 0.1110501 -0.07000933 0.048221845 0.06519743 -0.10995762 0.123893864 -0.037541617
0.08492008 0.088084504 0.0365907 0.060750835 -0.06071934 0.0858486 0.055022914 0.08198125
-0.078661144 0.082977384 0.0006886054 0.056074675 0.25266007 0.10681777 0.093891695 -0.16650705
-0.070314415 -0.05970665 0.09492017 -0.010225337 -0.14098974 0.10110024 0.015371353 -0.024786813
-0.10073662 -0.0021888653 0.09928191 0.11487952 -0.19872588 0.07561984 -0.17621085 0.07149775
0.09415388 0.05545693 0.033355717 0.024942014 0.106931984 -0.18645501 0.07944182 -0.09861929
0.051100764 -0.038399104 -0.09705873 0.26999512 0.16071406 0.029873628 0.08549407 -0.12338224
0.05054923 -0.06292127 -0.10671288 0.013014898 -0.12334106 -0.030081566 -0.067996055 0.06839234
-0.12916976 0.04863807 0.08509515 -0.040811587 0.0962999 -0.12607412 0.027062684 0.047331475
-0.1353017 -0.07102919 0.013101496 0.056168348 0.12453808 -0.039493114 -0.11602652 -0.11452554
-0.14569096 -0.10078993 0.11699046 -0.049295712 -0.10900508 0.1130054 0.055829898 0.051738877
0.021521064 0.07631974 0.06555703 -0.06554296 0.07710376 -0.110624045 0.07984458 -0.02866315
-0.10161389 0.10119173 0.04231442 -0.023861287 0.04855378 -0.04867957 -0.052111067 -0.09901856
-0.105627686 -0.098459244 0.027516918 0.11933492 0.0010205918 0.06684905 0.061867386 0.029714914
-0.11300218 -0.068711035 0.0320441 -0.03717006 0.06781974 0.023359446 -0.008337834 0.01198416

fc2.bias f4 [32]
00000000: e395 0d3e 1393 79bd c9a1 99bd 0153 b6bd
00000010: 181d 81bd 1a4a a0bc 16df cabd c1bd 0b3e
00000020: d20d a7bd 8b17 c93d 1831 d33a 959c adbd
00000030: 119a a33d 6950 f93d adb8 213e ed87 c7bd
00000040: 5f33 d1bd 3386 90bb fd80 983d e272 5f3d
00000050: b2fa db3d c7d3 82bd 3925 22bd 7c31 48bc
00000060: 0714 cfbd fe34 fd3d f994 233d 61b5 74bd
00000070: 13d6 dabd 660e 0e3c f12f ce3d ab19 66bd
0.13826708 -0.060931277 -0.07501561 -0.089025505 -0.06304377 -0.019566584 -0.099058315 0.13646604
-0.08156933 0.098189436 0.0016112654 -0.08477131 0.0798837 0.1217354 0.15793104 -0.09742723
-0.102148764 -0.004410529 0.074464776 0.05455292 0.10741176 -0.063880496 -0.03958628 -0.012218829
-0.10111242 0.12363623 0.039936993 -0.05974329 -0.10685363 0.008670425 0.10067738 -0.056176823

fc3.weight f4 [10, 32]
00000000: 1d19 c73c f663 cfbc ecee 1b3e 667e aebb
00000010: fa82 87bd 276a 09be 5584 09be 500a fd3d
00000020: 9369 4fbe d22e 31be 831d ad3a 388c 03be
00000030: 1828 5d3e 2595 393d 119d c23d a6ac 10be
00000040: 11be 8d3c 3774 853d 34ce 67be 330f 3b3e
00000050: 5086 d2bb 9bcc 03be f2cc 8a3d 1838 f23d
00000060: 90d3 57be d76b 1fbe 3804 1b3e 5366 cdbd
00000070: 4ac4 c13d 46ad 2dbe aa4f 21be f513 08be
00000080: aa6b 2f3e 5396 193e 7b1a 4f3e 2d19 ca3d
00000090: cfc1 d0bb 3ec4 36bc c742 0f3e 3e1f 0f3e
000000a0: e565 2ebd 046a 86bd 391d 56bd e1c1 87bd
000000b0: 94f2 48be f458 49be 8d88 2e3e 6574 06bd
000000c0: ba29 cc3d 238f 4abe 3289 093e d84e 7cbd
000000d0: a960 143e 5f65 09be 03f4 c8bd 4877 583e
000000e0: cd73 00be ffb0 bcbd 33ea 0ebe 001d cdbd
000000f0: 5974 4dbe 267a 48be a19e 3b3b 3994 443d
00000100: 7f41 93bd 6505 773d 0eba 543e bc4b 5e3d
00000110: 3e98 16be 001b 28be 3b02 5f3d d406 2c3c
00000120: 71b3 fcbc c8fb 503e 5df7 f9bd 4abb 693e
00000130: e1ba 093d e7ad ecbd a390 263e 2846 fabd
00000140: 71be 96bd 4c0b 103d 94c4 75be cb2e 7abe
00000150: 126d 55be 2f2f e43c dd59 b7bd 26d4 08be
00000160: 4118 9ebb bde6 293d 9fbd 1d3e ae48 0cbc
00000170: 5dd7 83bd 972a 093e 62e9 52be ac01 f23d
00000180: 2867 d8bd 05e8 243d 95bb 2bbe 6fba 02be
00000190: 092f 00be a936 833c 5341 023e 7f6e 233c
000001a0: e692 e5bd a715 a43d 098f 92bd 26ba 20bd
000001b0: fbf9 49be 33d0 5d3e 1617 103e 773e 9a3b
000001c0: a73c f6bc f55c 7bbd fd49 84be 3f6d d13d
000001d0: e740 d3bc 05e3 0e3e 19f0 8abd 16ca dabd
000001e0: bc8f 933c 6e70 6fbe 9f42 20be 7b16 47bd
000001f0: 1e51 03bd 3cdb 13bd 8fcb 9c3d e24b 3c3e
00000200: 9e43 843e c778 e2bb dadc 153d 6fd3 9e3d
00000210: 9c3d 47bd 28f2 05be ee6d 2f3d 0c8e 0e3e
00000220: a8e3 80bd 6715 223e ff6c 52bc e508 123e
00000230: 46b7 ad3c 0f38 8dbd ae95 39bd e22c f9bc
00000240: 4fa9 a8bc 1fa5 10be f5dd ddbd aeb7 073e
00000250: a364 a8bd bf9a 37be 95d4 823d 969f 6dbe
00000260: 39de 8bbe de8b 003e 6580 8ebd afe5 2cbd
00000270: 5fee 2a3e d6c5 ccbd 52a5 103e ee2b 28bd
00000280: 7917 a13d fc6b 0abd 29d9 f3bd d050 dbbd
00000290: 9660 133e 3cac 1fbd 3c86 ccba eebd 3bbd
000002a0: cb04 e4bd 04c0 88bd 8b1b 16be a43f 39bc
000002b0: 6770 60be 3311 203e c962 8dbd 50e5 ed3d
000002c0: 7c45 463e d6c0 2abe 9b99 d83d f676 103b
000002d0: 3dd3 3b3e 2dea 3d3c fec8 ff3d 211c 8fbc
000002e0: cf9c b8bd 6aa6 9bbd 917c c53d e8ef 2ebe
000002f0: 4a80 923c 318c 273d 2831 18be 6876 da3b
00000300: 8e4c 8dbe 331a e5bd e92f 1d3d ba17 80bc
00000310: e98d 26be 6627 f03d cc27 383d b238 083e
00000320: 3439 903d 6e63 eb3d 5ec5 aebc b5b3 61be
00000330: 6f72 dc3d c3c6 e6bc 968c 75bc 8098 07be
00000340: b6c4 92bc 1611 5fbe 3b85 c73d ae81 5c3e
00000350: 5315 edbd d271 943d f5e8 693e cca7 58be
00000360: 6c16 f4bd 00db 113e 27d6 cb3d 737f 90bc
00000370: ee91 0e3e 9df4 a93c 9410 88be 66d6 173e
00000380: 4623 333d 12c3 153e b3f9 c5bc 249e 01be
00000390: 812c 16be 649b 7abd 8d9c 10bd ec04 26be
000003a0: 1444 c93a d1c2 c0bd 3b00 ecbc 6e6d bb3c
000003b0: 02c0 4d3d 3673 11be d004 e7bd 87d2 d73d
000003c0: e522 3d3e 1efe 203e cba3 73bd 96a6 173e
000003d0: dc99 dfbd 613d 2d3e 2663 b4bd cc8d 053e
000003e0: df88 babc a3fe 0dbe 7854 4a3d 0f90 17be
000003f0: cfb9 20be 6fee fd3d 1b08 3f3e 32c6 65bd
0.024303967 -0.02531622 0.1522786 -0.0053251265 -0.06616779 -0.134194 -0.13429387 0.123554826
-0.20255117 -0.17303017 0.0013207648 -0.12846458 0.21597326 0.04530825 0.09502614 -0.1412836
0.017302545 0.06516307 -0.22637254 0.18267517 -0.0064247027 -0.1287102 0.067773715 0.11827105
-0.21076798 -0.15568481 0.15138328 -0.100292824 0.09461267 -0.1696063 -0.15753046 -0.13288863
0.17130914 0.1499875 0.20224945 0.09868083 -0.00637076 -0.011155186 0.13990317 0.13976762
-0.042577643 -0.065631896 -0.052273963 -0.06628776 -0.19623786 -0.19662839 0.17044277 -0.032825846
0.09968896 -0.19781165 0.13431242 -0.06159863 0.14489998 -0.13417576 -0.098121665 0.21139252
-0.12544174 -0.09213447 -0.13956527 -0.10015297 -0.20063914 -0.19577846 0.0028628486 0.04799292
-0.07190227 0.06030788 0.20774099 0.054271445 -0.14706513 -0.1641655 0.054445487 0.010499675
-0.030847283 0.20408547 -0.12205384 0.22825351 0.033625487 -0.11556607 0.16266112 -0.122204125
-0.073605426 0.035167024 -0.2400077 -0.24431913 -0.20842388 0.02785453 -0.08952687 -0.13362178
-0.0048246686 0.041479815 0.15404366 -0.00856225 -0.06437562 0.13395153 -0.20596841 0.11816725
-0.105665505 0.040260334 -0.16770776 -0.12766431 -0.12517942 0.016017275 0.12720232 0.009975075
-0.11209659 0.08011942 -0.07156188 -0.039240025 -0.19724266 0.21661453 0.14071307 0.0047071534
-0.030058218 -0.061367948 -0.258377 0.10225915 -0.025787784 0.13953789 -0.06784076 -0.10683076
0.018012874 -0.23382732 -0.15650414 -0.048605423 -0.03205978 -0.03609775 0.07656013 0.18388322
0.25832838 -0.0069113704 0.036587574 0.077551715 -0.04864274 -0.13080657 0.042829446 0.13921374
-0.06293422 0.15828477 -0.0128433695 0.14261205 0.021205556 -0.06895458 -0.04530876 -0.03041691
-0.020588545 -0.14125489 -0.108333506 0.13253662 -0.0822232 -0.17930125 0.06388203 -0.23205408
-0.2731798 0.12553355 -0.06958083 -0.04221123 0.16692494 -0.09998672 0.14125565 -0.04105752
0.07865805 -0.03379439 -0.119066544 -0.10708773 0.14392313 -0.038982615 -0.001560397 -0.045835428
-0.11133727 -0.06677249 -0.14658944 -0.011306677 -0.21917878 0.15631561 -0.069036074 0.116160035
0.19362444 -0.16675124 0.10576173 0.0022043562 0.183423 0.011591476 0.12489508 -0.017469468
-0.09014284 -0.076001 0.096429 -0.17083704 0.017883439 0.04090518 -0.14862502 0.006666947
-0.2759747 -0.11186638 0.03837577 -0.015636314 -0.16265072 0.11726265 0.04495983 0.13302878
0.07042161 0.11493574 -0.021334346 -0.22041209 0.10764014 -0.028170949 -0.014987132 -0.13241768
-0.017916065 -0.21783862 0.097422086 0.21533844 -0.11576333 0.07248272 0.22842772 -0.2115776
-0.11918339 0.14243698 0.09952956 -0.017638898 0.13922855 0.020746524 -0.26575148 0.1482788
0.04373481 0.14625195 -0.024166917 -0.12657982 -0.14665414 -0.06118335 -0.03530555 -0.16212815
0.0015355372 -0.09412158 -0.028808704 0.022879329 0.05023194 -0.14204106 -0.11280215 0.10538202
0.18470342 0.15721938 -0.059482377 0.14809641 -0.10918018 0.16917945 -0.088079736 0.13042372
-0.022770343 -0.13866667 0.049396962 -0.14801048 -0.1569588 0.12398993 0.18655436 -0.056097217

fc3.bias f4 [10]
00000000: 2f0f 8ebb d4f0 c2bd ce8e 1f3e 59b3 423e
00000010: 3348 07bd 2595 35bd 8c20 103e a872 f8bc
00000020: 8e13 30be 4e85 913d
-0.004335306 -0.095185906 0.1558182 0.19013728 -0.03302784 -0.04433169 0.14074916 -0.03032811
-0.1719496 0.07105504
