ch6/data/level_pruned.pth (torch, 242369 bytes, 12 tensors)

conv1.weight f4 [16, 1, 5, 5]
0	0x00000000	0.0
1	0x80000000	-0.0
2	0x80000000	-0.0
3	0x80000000	-0.0
4	0x00000000	0.0
5	0x80000000	-0.0
6	0x80000000	-0.0
7	0x80000000	-0.0
8	0x80000000	-0.0
9	0x00000000	0.0
10	0x00000000	0.0
11	0x00000000	0.0
12	0x00000000	0.0
13	0x00000000	0.0
14	0x80000000	-0.0
15	0x00000000	0.0
16	0x00000000	0.0
17	0x80000000	-0.0
18	0x00000000	0.0
19	0x80000000	-0.0
20	0x00000000	0.0
21	0x00000000	0.0
22	0x00000000	0.0
23	0x00000000	0.0
24	0x80000000	-0.0
25	0x00000000	0.0
26	0x80000000	-0.0
27	0x00000000	0.0
28	0x80000000	-0.0
29	0x80000000	-0.0
30	0x80000000	-0.0
31	0x80000000	-0.0
32	0x00000000	0.0
33	0x80000000	-0.0
34	0x00000000	0.0
35	0x00000000	0.0
36	0x80000000	-0.0
37	0x00000000	0.0
38	0x00000000	0.0
39	0x00000000	0.0
40	0x00000000	0.0
41	0x00000000	0.0
42	0x00000000	0.0
43	0x00000000	0.0
44	0x00000000	0.0
45	0x80000000	-0.0
46	0x00000000	0.0
47	0x00000000	0.0
48	0x00000000	0.0
49	0x80000000	-0.0
50	0x3e626314	0.22108108
51	0x3eab73a3	0.3348666
52	0x3eae2b8d	0.34017602
53	0x3e0182a0	0.12647486
54	0x3e029542	0.1275225
55	0x3d9a9431	0.075477965
56	0x3e9afe34	0.30272067
57	0x3d5af3dc	0.05345522
58	0xbe204de6	-0.15654716
59	0x3e53617e	0.20642659
60	0x3e7a9e08	0.24474347
61	0x3e8e97b4	0.27850115
62	0xbe9b0138	-0.30274367
63	0xbed7531a	-0.4205559
64	0xbdeafa1c	-0.11473486
65	0xbdf08ba4	-0.11745384
66	0xbc98e66b	-0.01866456
67	0xbd37125d	-0.044695247
68	0xbe845c69	-0.25851753
69	0x3c24409e	0.010025172
70	0x3e27fcad	0.16404982
71	0xbdfdaf5d	-0.123869635
72	0x3e75b3fe	0.23994443
73	0xbd30e9ae	-0.043191604
74	0x3e0a7c2f	0.13523935
75	0x80000000	-0.0
76	0x00000000	0.0
77	0x00000000	0.0
78	0x00000000	0.0
79	0x00000000	0.0
80	0x80000000	-0.0
81	0x00000000	0.0
82	0x00000000	0.0
83	0x00000000	0.0
84	0x00000000	0.0
85	0x00000000	0.0
86	0x80000000	-0.0
87	0x80000000	-0.0
88	0x00000000	0.0
89	0x80000000	-0.0
90	0x80000000	-0.0
91	0x80000000	-0.0
92	0x00000000	0.0
93	0x80000000	-0.0
94	0x00000000	0.0
95	0x80000000	-0.0
96	0x80000000	-0.0
97	0x00000000	0.0
98	0x00000000	0.0
99	0x80000000	-0.0
100	0x00000000	0.0
101	0x80000000	-0.0
102	0x00000000	0.0
103	0x00000000	0.0
104	0x80000000	-0.0
105	0x00000000	0.0
106	0x00000000	0.0
107	0x00000000	0.0
108	0x80000000	-0.0
109	0x00000000	0.0
110	0x00000000	0.0
111	0x80000000	-0.0
112	0x80000000	-0.0
113	0x00000000	0.0
114	0x80000000	-0.0
115	0x80000000	-0.0
116	0x00000000	0.0
117	0x00000000	0.0
118	0x80000000	-0.0
119	0x80000000	-0.0
120	0x00000000	0.0
121	0x00000000	0.0
122	0x80000000	-0.0
123	0x80000000	-0.0
124	0x00000000	0.0
125	0x80000000	-0.0
126	0x80000000	-0.0
127	0x80000000	-0.0
128	0x00000000	0.0
129	0x00000000	0.0
130	0x80000000	-0.0
131	0x80000000	-0.0
132	0x80000000	-0.0
133	0x80000000	-0.0
134	0x00000000	0.0
135	0x80000000	-0.0
136	0x00000000	0.0
137	0x00000000	0.0
138	0x00000000	0.0
139	0x00000000	0.0
140	0x00000000	0.0
141	0x00000000	0.0
142	0x80000000	-0.0
143	0x00000000	0.0
144	0x00000000	0.0
145	0x00000000	0.0
146	0x00000000	0.0
147	0x80000000	-0.0
148	0x00000000	0.0
149	0x80000000	-0.0
150	0x3e915c0d	0.28390542
151	0x3e71eee5	0.23626287
152	0x3ec28fa8	0.38000226
153	0xbd708589	-0.0587211
154	0xbdfb45a0	-0.12269139
155	0x3e8fcac8	0.28084397
156	0x3e7d2b61	0.24723579
157	0x3eb1641e	0.34646696
158	0x3c30aacd	0.01078291
159	0xbe0401bf	-0.12891291
160	0xbd75ed93	-0.06004102
161	0xbdfbc3b8	-0.1229319
162	0xbd784727	-0.06061473
163	0x3ea1bd41	0.31589702
164	0x3db4b372	0.08823289
165	0xbe243781	-0.16036798
166	0xbea3e581	-0.32011035
167	0xbe59fa6a	-0.21286932
168	0x3dfa31a4	0.122164994
169	0xbca9f721	-0.020747723
170	0xbdb1ec0c	-0.086876005
171	0xbe48bf8c	-0.1960432
172	0xbc848e17	-0.016181035
173	0xbdbb55f0	-0.09147251
174	0x3e2407cb	0.16018598
175	0x80000000	-0.0
176	0x80000000	-0.0
177	0x00000000	0.0
178	0x00000000	0.0
179	0x80000000	-0.0
180	0x80000000	-0.0
181	0x00000000	0.0
182	0x80000000	-0.0
183	0x80000000	-0.0
184	0x80000000	-0.0
185	0x00000000	0.0
186	0x00000000	0.0
187	0x00000000	0.0
188	0x00000000	0.0
189	0x80000000	-0.0
190	0x80000000	-0.0
191	0x00000000	0.0
192	0x00000000	0.0
193	0x00000000	0.0
194	0x80000000	-0.0
195	0x80000000	-0.0
196	0x80000000	-0.0
197	0x00000000	0.0
198	0x80000000	-0.0
199	0x00000000	0.0
200	0xbc186294	-0.009300847
201	0x3ec215a2	0.3790713
202	0x3e5fc717	0.2185329
203	0x3e27f72a	0.1640288
204	0x3d956665	0.07294921
205	0xbdf6e60c	-0.12055597
206	0xbd991301	-0.07474328
207	0x3dca2f90	0.09872353
208	0x3dea3879	0.114365526
209	0xbe2d6cce	-0.16936037
210	0xbd97d621	-0.07413889
211	0xbea7d96c	-0.32783067
212	0xbdd4cbdc	-0.103904456
213	0xbed9851f	-0.42484376
214	0xbee4e920	-0.4470911
215	0xbe53bc72	-0.20677355
216	0xbe219261	-0.15778495
217	0xbf0e607d	-0.5561598
218	0xbf10dbf8	-0.56585646
219	0xbbfa0214	-0.0076296423
220	0x3e2040ee	0.15649769
221	0xbe614549	-0.21999086
222	0xbe807729	-0.25090912
223	0x3e83945b	0.25699124
224	0x3e2e8093	0.17041235
225	0x80000000	-0.0
226	0x80000000	-0.0
227	0x80000000	-0.0
228	0x80000000	-0.0
229	0x00000000	0.0
230	0x00000000	0.0
231	0x80000000	-0.0
232	0x80000000	-0.0
233	0x80000000	-0.0
234	0x80000000	-0.0
235	0x00000000	0.0
236	0x00000000	0.0
237	0x00000000	0.0
238	0x00000000	0.0
239	0x00000000	0.0
240	0x00000000	0.0
241	0x00000000	0.0
242	0x00000000	0.0
243	0x00000000	0.0
244	0x00000000	0.0
245	0x80000000	-0.0
246	0x80000000	-0.0
247	0x80000000	-0.0
248	0x80000000	-0.0
249	0x80000000	-0.0
250	0x00000000	0.0
251	0x80000000	-0.0
252	0x00000000	0.0
253	0x00000000	0.0
254	0x00000000	0.0
255	0x80000000	-0.0

conv1.bias f4 [16]
0	0x00000000	0.0
1	0x00000000	0.0
2	0x3d8b2270	0.06793678
3	0x00000000	0.0
4	0x00000000	0.0
5	0x00000000	0.0
6	0x3ea02aab	0.31282553
7	0x00000000	0.0
8	0x3ecc32ac	0.3988241
9	0x00000000	0.0
10	0x00000000	0.0
11	0x80000000	-0.0
12	0x3dc316d5	0.09525839
13	0x80000000	-0.0
14	0x80000000	-0.0
15	0x80000000	-0.0

conv2.weight f4 [32, 16, 5, 5]
0	0xbca2087b	-0.019779434
1	0xbc6d9247	-0.014500207
2	0xbcd67a09	-0.026181238
3	0xbe2ff0dc	-0.17181724
4	0xbe8591a2	-0.26087672
5	0xbdbe713e	-0.09298943
6	0xbd67191b	-0.056420427
7	0x3d32a773	0.043616723
8	0xbdd32652	-0.103100434
9	0xbd44b345	-0.048022527
10	0xbde5ccd5	-0.11220709
11	0x3b6124b7	0.003435416
12	0x3e082096	0.1329368
13	0x3e50cc4b	0.20390432
14	0x3e1c5fc3	0.15270905
15	0xbdc57b80	-0.096426964
16	0xbcc808f2	-0.024418328
17	0x3db0a037	0.086243086
18	0x3e0b1b18	0.13584554
19	0x3e8a07f8	0.26959205
20	0xbda9294b	-0.08259829
21	0xbd9ede80	-0.07757282
22	0x3d77e257	0.06051859
23	0x3e347115	0.17621262
24	0x3e74170d	0.23836918
25	0xbddfad3b	-0.10921713
26	0xbe4d7a20	-0.20066118
27	0xbebe407e	-0.3715858
28	0xbe986f65	-0.29772487
29	0xbd924294	-0.07141605
30	0xbe85a002	-0.2609864
31	0xbe4ad3c3	-0.19807343
32	0xbecf053e	-0.40433687
33	0xbec70f31	-0.38878778
34	0xbd94f560	-0.07273364
35	0xbe04aeb5	-0.1295727
36	0x3da1034a	0.078619555
37	0xbe675c8a	-0.22593895
38	0xbe308762	-0.17239144
39	0xbd23a7e7	-0.039955046
40	0x3d6e0207	0.058107402
41	0x3e7858c1	0.24252607
42	0x3e60ad95	0.21941216
43	0x3e8801a3	0.2656375
44	0x3e30da62	0.17270806
45	0x3e260e2e	0.16216347
46	0x3e9f09f9	0.31062296
47	0x3eaae1f9	0.33375528
48	0x3e828cb0	0.2549796
49	0x3e4fe7c8	0.20303261
50	0xbcc53a0e	-0.024075534
51	0x3da0f31e	0.07858871
52	0x3d46791b	0.04845534
53	0x3d8ca11c	0.06866667
54	0x3e31d117	0.17364918
55	0x3d1699d2	0.03676779
56	0x3e229053	0.15875368
57	0x3dd41e54	0.10357347
58	0x3c14fe51	0.009093837
59	0xbc52db6c	-0.012869697
60	0xbc6abb78	-0.014326923
61	0x3dd3cfe7	0.103423886
62	0x3e382881	0.17984201
63	0xbcebf6b5	-0.028804163
64	0xbdc6da79	-0.09709639
65	0xbd8ce629	-0.06879837
66	0x3c95a506	0.018267166
67	0xbd55b615	-0.0521756
68	0xbe254c3a	-0.1614236
69	0xbe3c0328	-0.18360579
70	0xbdfec752	-0.12440361
71	0xbd1dc51c	-0.038518056
72	0xbe6549b4	-0.22391397
73	0xbd8e2bc3	-0.06941941
74	0x3d972300	0.073797226
75	0x3b0ce9d3	0.0021501675
76	0xbd200f93	-0.039077353
77	0x3d6c1543	0.057637464
78	0x3e3654bf	0.17805766
79	0x3df16a87	0.117878966
80	0xbd13e206	-0.036104225
81	0xbd9a310f	-0.075288884
82	0xbc406025	-0.011741673
83	0x3d3da551	0.046300236
84	0x3d1ad1d3	0.03779776
85	0xbc9b0c9c	-0.018926911
86	0xbdc21c65	-0.09478072
87	0xbd46b728	-0.048514515
88	0xbcfe987c	-0.03107857
89	0x3c08bc48	0.008345671
90	0xbd2254c8	-0.039631635
91	0xbe0152c4	-0.12629229
92	0xbdf0ef23	-0.11764362
93	0xbde67711	-0.11253179
94	0xbdfccbdb	-0.1234357
95	0x3b22f904	0.0024867663
96	0x3caf83c6	0.02142514
97	0x3d340c3c	0.04395698
98	0xbd90ddeb	-0.070735775
99	0xbdea0840	-0.11427355
100	0xbb2cca2a	-0.0026365616
101	0x3db8c548	0.090220034
102	0x3d8f2025	0.06988553
103	0x3d9e3960	0.07725787
104	0xbb27c554	-0.0025599794
105	0x3da4f55f	0.08054613
106	0x3dd0f455	0.10202853
107	0x3d298c8b	0.041393798
108	0x3d5a3805	0.05327608
109	0xbcdbe2ba	-0.02684151
110	0xbcae588d	-0.021282459
111	0xbcd6b080	-0.026207209
112	0xbcdb411c	-0.026764445
113	0xbde0b076	-0.10971157
114	0xbca9e908	-0.020741
115	0xbd00d1f2	-0.03145022
116	0xbdf9d03a	-0.12197919
117	0xbe0cf05d	-0.13763566
118	0xbd802aa2	-0.062581316
119	0x3cde58e4	0.027141996
120	0x3cc546cd	0.024081612
121	0xbce9538e	-0.028482225
122	0xbd5e90c3	-0.054337274
123	0x3def0025	0.116699494
124	0x3d9b8000	0.075927734
125	0x3c8c2bff	0.017110823
126	0x3d5905d5	0.052984077
127	0x3db6a45e	0.08918069
128	0xbd96b795	-0.07359234
129	0xbe02aa55	-0.12760289
130	0xbdd2ef41	-0.1029954
131	0xbe2694fa	-0.16267768
132	0xbd5a31ea	-0.053270258
133	0xbe1298dc	-0.14316124
134	0xbd8265d1	-0.06367076
135	0xbe0a8171	-0.1352594
136	0xbe20597f	-0.1565914
137	0xbd87aaa6	-0.066243455
138	0x3d061532	0.032735057
139	0x3e2c884f	0.16848873
140	0xbc8bc884	-0.017063387
141	0xbd743fb6	-0.059631072
142	0xba6b9360	-0.0008986499
143	0x3e47d875	0.19516166
144	0x3e7fdebd	0.24987312
145	0x3ce0a132	0.027420614
146	0x3d4146dc	0.047186717
147	0x3d4c34c2	0.049855
148	0x3e1f0522	0.15529302
149	0x3e152aeb	0.14567153
150	0x3c6716af	0.014104529
151	0xbd63a05f	-0.055572864
152	0xbc35d370	-0.011097774
153	0x3e1a8ed1	0.15093543
154	0x3e5f2255	0.2179044
155	0x3c47ae78	0.012187593
156	0x3d579957	0.05263647
157	0xbb8a777f	-0.004225671
158	0x3dd00935	0.10158006
159	0x3e67441f	0.2258458
160	0x3dca7c7e	0.09887026
161	0x3d36297e	0.044473164
162	0xbd7948c1	-0.0608604
163	0xbdd786b4	-0.105237395
164	0xbd3f62de	-0.046725146
165	0x3d9b8d8a	0.07595356
166	0x3cbf9487	0.023386253
167	0xbe64ffb2	-0.22363165
168	0xbedab811	-0.42718557
169	0xbedf3709	-0.43596676
170	0x3d8975c0	0.06711912
171	0x3e410aed	0.18851824
172	0x3d4096ae	0.0470187
173	0xbe521a02	-0.20517734
174	0xbe90cc6a	-0.28280956
175	0x3d949d2f	0.07256543
176	0x393ec109	0.00018191723
177	0xbd2296ce	-0.0396946
178	0x3cca8a8c	0.024724267
179	0xbb8cd5a3	-0.0042979284
180	0x3c92d463	0.01792354
181	0x3d816394	0.06317821
182	0xbd72d3dc	-0.059284076
183	0xbd105f32	-0.035247035
184	0xbd5de3e1	-0.0541724
185	0x3d1c1b93	0.038112234
186	0x3d215c39	0.03939459
187	0xbcb62182	-0.022232775
188	0x3c82d39c	0.015970044
189	0x3cbe5922	0.023235861
190	0x3dd7d13b	0.105379544
191	0x3d34bcc8	0.04412535
192	0x3ce5fe15	0.028075257
193	0x3d946651	0.07246078
194	0x3d9bfee8	0.07616979
195	0x3923714c	0.00015587098
196	0x3d51527d	0.051104058
197	0x3e2eefda	0.17083684
198	0x3dc85f19	0.097837634
199	0x3e2b5278	0.16730678
200	0x3de15df2	0.11004247
201	0x3d02ce8d	0.031935263
202	0x3d28c666	0.041204832
203	0x3e5629b8	0.20914352
204	0x3e90b555	0.28263345
205	0x3e14adc0	0.14519405
206	0x3d9839ae	0.074328765
207	0x3e8221b9	0.25416353
208	0x3e81d998	0.25361323
209	0x3e434db2	0.19072607
210	0x3e504b80	0.20341301
211	0x3e27a542	0.16371635
212	0x3e2b58a9	0.1673304
213	0xbb7e6742	-0.003881887
214	0x3c95ea32	0.01830015
215	0xbd8b539d	-0.06803057
216	0xbe1aef44	-0.15130335
217	0xbe88865a	-0.26665002
218	0xbe6449a3	-0.22293715
219	0xbe8bc1da	-0.27296335
220	0xbe98c328	-0.29836392
221	0xbed92b63	-0.42415914
222	0xbe93e184	-0.28882992
223	0xbebe5d08	-0.37180352
224	0xbe0cef11	-0.13763072
225	0x3d38ed4c	0.04514818
226	0x3c5447ea	0.012956599
227	0xbd9f2de6	-0.07772426
228	0xbd877f4b	-0.06616076
229	0xbdfeb183	-0.124362014
230	0xbe2999f5	-0.16562636
231	0xbdb18bd3	-0.086692475
232	0xbe64e8d0	-0.22354436
233	0xbe75aa05	-0.23990639
234	0xbe81d6ae	-0.253591
235	0xbdb8fd09	-0.090326376
236	0xbdf47433	-0.11936226
237	0xbdb421dd	-0.087955214
238	0xbd9dc347	-0.07703262
239	0xbd82c67e	-0.06385516
240	0x3d008541	0.03137708
241	0x3c9634cc	0.018335722
242	0x3dffbfda	0.12487765
243	0x3df1e459	0.11811132
244	0x3e1a6875	0.1507891
245	0xbb12e32e	-0.0022413242
246	0x3e23e85e	0.1600661
247	0x3e5ef2c1	0.21772291
248	0x3e42c39f	0.19019936
249	0x3e7b400b	0.24536149
250	0x3d866205	0.065616645
251	0x3d33a8aa	0.043862022
252	0x3dd94e38	0.10610622
253	0x3da3914f	0.079867
254	0x3e181668	0.14852297
255	0x3cdac9bc	0.026707523

conv2.bias f4 [32]
0	0x3e0f9f51	0.14025618
1	0x3e2da9b1	0.16959263
2	0x00000000	0.0
3	0x00000000	0.0
4	0x00000000	0.0
5	0x00000000	0.0
6	0x00000000	0.0
7	0x00000000	0.0
8	0x00000000	0.0
9	0x00000000	0.0
10	0x00000000	0.0
11	0x3e2b4deb	0.16728942
12	0x00000000	0.0
13	0x00000000	0.0
14	0x80000000	-0.0
15	0x3d9f4f20	0.07778764
16	0x00000000	0.0
17	0x00000000	0.0
18	0x00000000	0.0
19	0x3dcd80e5	0.1003435
20	0x00000000	0.0
21	0x00000000	0.0
22	0x00000000	0.0
23	0x00000000	0.0
24	0x00000000	0.0
25	0x00000000	0.0
26	0x00000000	0.0
27	0x00000000	0.0
28	0x80000000	-0.0
29	0x00000000	0.0
30	0x3d9b4a31	0.0758251
31	0xbce8fa8f	-0.028439788

conv3.weight f4 [32, 32, 5, 5]
0	0x3cba2210	0.02272132
1	0x3ce30b0e	0.027715232
2	0x3c2f17b3	0.010686803
3	0xbd169f60	-0.036773086
4	0x3cf83f13	0.030303514
5	0x3cfd1c06	0.030897152
6	0x3da89695	0.08231846
7	0x3d09e2bf	0.033663508
8	0xbcda42bd	-0.026643151
9	0x3c984b81	0.01859069
10	0x3c9bf025	0.019035408
11	0x3c192945	0.009348218
12	0xbd0c8fd2	-0.034316845
13	0xbdf7f098	-0.121064365
14	0xbe1ad66f	-0.15120862
15	0x3d1e4f8a	0.038650073
16	0x3d0a0e8d	0.033705283
17	0x3b0f6a52	0.002188344
18	0xbe513d6b	-0.20433585
19	0xbe157d8e	-0.14598677
20	0x3d2bbac4	0.04192616
21	0x3b2808ab	0.0025639932
22	0xbe488cac	-0.19584912
23	0xbe350bde	-0.17680308
24	0xbbbe9fb0	-0.005817376
25	0xbde556ea	-0.11198218
26	0xbde626a3	-0.11237838
27	0xbe58f000	-0.21185303
28	0xbdc0a66c	-0.094067425
29	0x3cb45fb3	0.02201829
30	0xbbc9f182	-0.006162823
31	0xbc065401	-0.008198739
32	0xbd072b5e	-0.033000343
33	0x3d06242a	0.032749332
34	0x3d280e2f	0.04102915
35	0x3da4a03d	0.080383755
36	0x3d21600c	0.039398238
37	0x3d5300e5	0.051514525
38	0x3e02cf31	0.1277435
39	0x3df155f8	0.11783975
40	0x3c5c2654	0.0134368725
41	0xbd1660bb	-0.036713343
42	0x3d7aeb55	0.061259586
43	0x3c999d6f	0.018751828
44	0xbc16299c	-0.009165194
45	0xbdfb53ab	-0.12271818
46	0xbd8fe9a2	-0.07026984
47	0xbd1b7636	-0.03795453
48	0xbd9e7640	-0.07737398
49	0xbe38d8bd	-0.18051429
50	0xbdc02428	-0.09381896
51	0xbd6187c7	-0.055061128
52	0xbc4107ee	-0.011781676
53	0xbc3938a1	-0.011305005
54	0xbca7d727	-0.020488335
55	0xbd1be7c1	-0.038062815
56	0xb99e31a6	-0.000301731
57	0xbb431582	-0.0029767458
58	0x3d950870	0.07277
59	0x3d4a6fd2	0.049423046
60	0x3cd4e68f	0.025988845
61	0x3d1f26c4	0.03885533
62	0x3d2343b3	0.039859485
63	0x3d606bd3	0.05479033
64	0x3da9a0e3	0.0828264
65	0x3b347c19	0.0027539788
66	0x3c1db28a	0.009625087
67	0x3dc92274	0.098210245
68	0x3d94ab97	0.07259291
69	0x3d292e60	0.041303992
70	0xbd86fdd6	-0.06591384
71	0x3c89d6fb	0.016826143
72	0x3d106f75	0.035262544
73	0x3d22534b	0.039630216
74	0xbc9bbbe7	-0.019010497
75	0xbe214d6d	-0.15752192
76	0xbbfa369c	-0.0076359045
77	0xbd21cdd5	-0.039502937
78	0xbd0a5961	-0.033776645
79	0xbe1638eb	-0.1467015
80	0xbd9b2d80	-0.07577038
81	0xbd30d969	-0.04317609
82	0xbdbadf5e	-0.09124635
83	0xbcbcb299	-0.02303438
84	0x3caad019	0.020851182
85	0xbcc4677e	-0.02397513
86	0x3d417e98	0.04723987
87	0xbb71b312	-0.0036880416
88	0xba9092ed	-0.0011030115
89	0x3d3ca122	0.046052106
90	0x3d643499	0.055714224
91	0x3ca2bc2b	0.019865116
92	0x3b78f4eb	0.003798778
93	0x3d134369	0.03595296
94	0x3d1e6eee	0.03868001
95	0xbc8d9748	-0.01728405
96	0xbdd0d2b8	-0.101964414
97	0xbd71deb6	-0.059050284
98	0x3d994bb8	0.07485145
99	0x3e0c2082	0.13684276
100	0xbd26690b	-0.04062752
101	0xbd8babab	-0.068198524
102	0xbe1a7154	-0.15082294
103	0xbd443b80	-0.047908306
104	0xbd25c122	-0.04046739
105	0x3c25dfcf	0.010124161
106	0x3d02a79b	0.031898122
107	0xbba092a2	-0.0049002925
108	0xbc45f8f1	-0.012083278
109	0xbc3ed121	-0.01164654
110	0x3cc9bf46	0.02462734
111	0xbaa9aa0a	-0.0012944352
112	0x3d7eaf67	0.062178995
113	0x3d1dec2c	0.03855531
114	0x3dc42181	0.09576703
115	0x3d1be94c	0.038064286
116	0x3c773fbb	0.015090878
117	0x3c5c4b16	0.013445636
118	0x3da4791d	0.08030913
119	0x3caf13f4	0.02137182
120	0xbcf4c308	-0.029878154
121	0xbd3e6ff4	-0.046493486
122	0x3d564496	0.052311502
123	0xbca2f833	-0.019893741
124	0x3c962fdc	0.018333368
125	0xbe060518	-0.1308788
126	0xbce86d4d	-0.028372431
127	0xbd993aa0	-0.07481885
128	0xbdac7e87	-0.08422571
129	0xbdba41f1	-0.090946086
130	0xbd9ddc2b	-0.07708009
131	0xbd136d13	-0.035992693
132	0xbc71ded0	-0.014762595
133	0xbce84b80	-0.028356314
134	0xbcbfd6d2	-0.023417864
135	0xbc529f61	-0.012855382
136	0x3d01dcdf	0.03170478
137	0xbaefe7e7	-0.0018303365
138	0xbc788250	-0.015167788
139	0x39a2ac53	0.0003102744
140	0x3d0049f8	0.031320542
141	0xbbdd7182	-0.006757916
142	0xbca6e92a	-0.020374853
143	0xbd074f00	-0.033034325
144	0xbc2aca28	-0.010424174
145	0xbd6ca126	-0.05777087
146	0xbd8c22fe	-0.06842612
147	0xbd89cc5b	-0.06728431
148	0x3d38ed7d	0.04514836
149	0x3ddbe49b	0.107369624
150	0xbe2f94e6	-0.17146644
151	0xbe134818	-0.1438297
152	0xbe3ed1bc	-0.18634695
153	0xbe61fced	-0.2206914
154	0xbe0c529e	-0.13703391
155	0xbd5f8346	-0.05456855
156	0xba9473e8	-0.0011326047
157	0xbc7c86bd	-0.0154129835
158	0xbd33068c	-0.043707415
159	0xbce0427a	-0.027375448
160	0x3d02f69d	0.03197347
161	0x3da2da07	0.07951742
162	0x3d6d82fb	0.05798624
163	0x3d6e5228	0.05818382
164	0x3ce5d283	0.028054481
165	0x3df69e78	0.12041944
166	0x3d397cbb	0.045284968
167	0x3cd98f5b	0.026557615
168	0x3d0223bd	0.031772364
169	0x3c8f5796	0.017497819
170	0xbc933485	-0.01796938
171	0xbd5fce85	-0.05464031
172	0xbd3f64d3	-0.046727013
173	0xbbf2c233	-0.0074084043
174	0x3d33d1e0	0.043901324
175	0xbe4f7ab8	-0.20261657
176	0xbc873a8f	-0.016507415
177	0x3c81d038	0.015846357
178	0x3939abb7	0.00017706944
179	0xbe6b810f	-0.2299845
180	0xbdd3439c	-0.1031563
181	0xbc80070d	-0.015628362
182	0xbd6f4498	-0.058415025
183	0xbce0e9be	-0.027455207
184	0xbd9aecee	-0.07564722
185	0xbd510ba5	-0.051036496
186	0x3bb7efac	0.005613288
187	0x3bbaaa54	0.005696574
188	0x3cd8c33e	0.026460286
189	0x3ca01da0	0.019545376
190	0x3d03702f	0.03208941
191	0x3cdb85dc	0.026797228
192	0xbc982d02	-0.018576149
193	0x3b8162af	0.0039485316
194	0x3d0c92f2	0.034319825
195	0x3cd392c4	0.02582682
196	0xbd85d46a	-0.065346554
197	0xbc8bbebb	-0.01705872
198	0x3d2c7750	0.042105973
199	0x3dd4ae6b	0.1038483
200	0xbbb282b2	-0.005447709
201	0x3dd9ace5	0.1062868
202	0x3d7faf5b	0.06242309
203	0x3ca00a05	0.019536028
204	0xbe63bd96	-0.2224029
205	0xbe177052	-0.1478894
206	0xbd983ee0	-0.074338675
207	0xbdf2f803	-0.11863711
208	0xbdc7be70	-0.0975312
209	0xbe53da14	-0.20688659
210	0xbd0d683c	-0.034523234
211	0xbcd93d68	-0.026518539
212	0x3b8323fe	0.0040020933
213	0xbbd0c51d	-0.006371154
214	0xbb4a08e8	-0.0030828062
215	0x3d4fd224	0.050737515
216	0x3d78b125	0.060715813
217	0x3ccc48cd	0.024937058
218	0xbcc451e2	-0.023964826
219	0xbbc8727e	-0.006117164
220	0x3db7374f	0.08946096
221	0x3cac4b09	0.021031873
222	0xbdb577d8	-0.08860749
223	0xbcf98dfa	-0.030463208
224	0x3c67d4cc	0.014149856
225	0xbcae51d4	-0.021279253
226	0xbcff7cc9	-0.031187432
227	0xbd06e5b9	-0.032933924
228	0xbd96a94f	-0.07356512
229	0x3cd320b6	0.025772434
230	0xbc8a7a2a	-0.016903955
231	0xbc8ac329	-0.016938763
232	0xbc646370	-0.013939723
233	0x3c187bfb	0.009306903
234	0x3d43f431	0.0478403
235	0x3db2639a	0.08710404
236	0x3cd73780	0.026271582
237	0x3d4b3bad	0.049617458
238	0xbb4ed44f	-0.0031559651
239	0x3daec092	0.085328236
240	0x3cd182a2	0.025574986
241	0xbc0dd4fd	-0.008656737
242	0xbd6d7c01	-0.057979587
243	0xbd436d39	-0.047711585
244	0xbd5e1bb6	-0.054225646
245	0xbe3c4e74	-0.18389302
246	0xbe273ee2	-0.16332582
247	0xbdb70845	-0.08937124
248	0xbd85de64	-0.06536558
249	0xbd418c4f	-0.04725295
250	0xbdb3f163	-0.08786275
251	0xbe0772bd	-0.13227363
252	0xbe215bb0	-0.15757632
253	0xbe3b5c0a	-0.18296829
254	0xbe69d07f	-0.22833441
255	0x3c937598	0.018000409

conv3.bias f4 [32]
0	0x3d1f8e3d	0.03895401
1	0x3bae1091	0.0053120335
2	0x00000000	0.0
3	0x80000000	-0.0
4	0x80000000	-0.0
5	0x00000000	0.0
6	0x80000000	-0.0
7	0x80000000	-0.0
8	0x80000000	-0.0
9	0x00000000	0.0
10	0x00000000	0.0
11	0x80000000	-0.0
12	0x00000000	0.0
13	0x00000000	0.0
14	0x80000000	-0.0
15	0x3d0b9958	0.034081787
16	0x3c025cb2	0.007956671
17	0x00000000	0.0
18	0x00000000	0.0
19	0x80000000	-0.0
20	0x80000000	-0.0
21	0x00000000	0.0
22	0x3e06907d	0.13141055
23	0x80000000	-0.0
24	0x3d35aed6	0.04435619
25	0x80000000	-0.0
26	0x00000000	0.0
27	0x80000000	-0.0
28	0x3d06d4f1	0.03291792
29	0x80000000	-0.0
30	0x00000000	0.0
31	0x80000000	-0.0

fc1.weight f4 [64, 288]
0	0xbcc92729	-0.024554806
1	0x3de78025	0.113037385
2	0x3cdc1d69	0.026869493
3	0xbd9b4f23	-0.075834535
4	0x3d0b4673	0.034002732
5	0x3ddb095e	0.10695146
6	0xbd155c2d	-0.03646486
7	0x3d890cee	0.06691919
8	0x3cbd2737	0.023089988
9	0x3d35aa27	0.044351723
10	0xbd6bdb33	-0.05758209
11	0xbd6ad3a4	-0.057330742
12	0xbbde187b	-0.0067778206
13	0x3df89692	0.12138094
14	0xbbd6d543	-0.0065561845
15	0xbe103d4d	-0.14085884
16	0x3bc58d2c	0.006028792
17	0xbd3e0e83	-0.04640056
18	0x3dc316e5	0.09525851
19	0x3ce3cff4	0.02780912
20	0x3d87f3d5	0.06638304
21	0x3a6037db	0.0008553245
22	0x3cc2f7aa	0.023799736
23	0x3df9f23a	0.12204404
24	0xbbfe2a5e	-0.0077565154
25	0xbd97add6	-0.074062034
26	0xbae947e6	-0.0017797917
27	0x3db7f7fe	0.08982848
28	0x3d6f7070	0.058456838
29	0x3d1dedb1	0.03855676
30	0x3d1b500a	0.037918128
31	0xbd4eafa2	-0.050460465
32	0xbd041103	-0.032242786
33	0xbc33d952	-0.010977106
34	0x3dbba0c2	0.091615215
35	0xbd897013	-0.067108296
36	0x3ca14353	0.019685423
37	0xbcb6ddda	-0.022322584
38	0x3c9a10a8	0.01880677
39	0x3d9341d7	0.07190292
40	0xbd2c8153	-0.04211552
41	0x3d861109	0.06546218
42	0x3c259ae7	0.010107732
43	0x3b3b2f24	0.0028562034
44	0xbcd0c3f0	-0.025484055
45	0xbd1c5fe9	-0.038177405
46	0x3d314b34	0.04328461
47	0x3cfda781	0.030963661
48	0x3d805d3b	0.06267782
49	0xbcc694f3	-0.024240946
50	0x3cc2cd8b	0.023779651
51	0x3dcdccf3	0.100488566
52	0xbce4d802	-0.027935032
53	0xbd5c0ab8	-0.05372116
54	0xbb811676	-0.003939445
55	0xbdc9277d	-0.09821985
56	0x3d8d710c	0.069063276
57	0x3d907a0d	0.07054529
58	0xba5ca44f	-0.0008416818
59	0x3cdec6e8	0.027194455
60	0x3d5a502c	0.053299114
61	0x3d25dcfb	0.040493947
62	0xbe061dee	-0.13097355
63	0xbdd8e586	-0.10590653
64	0xbd50d9ea	-0.05098907
65	0x3dc652d8	0.0968377
66	0x3c8c684b	0.017139575
67	0x3d6fadac	0.058515236
68	0x3d80e750	0.06294119
69	0x3c7a0213	0.015259284
70	0xbd4fd45b	-0.050739627
71	0xbc10a0fa	-0.008827442
72	0x3e08f99b	0.13376467
73	0x3df6ee53	0.120571755
74	0xbce8fd07	-0.028440965
75	0x3d3a02c4	0.045412794
76	0xbb834d38	-0.004007008
77	0x3d7c9ffc	0.06167601
78	0xbd85d7cd	-0.06535301
79	0x3d3eb08a	0.04655508
80	0xbdb524d4	-0.08844915
81	0xbdb4e495	-0.08832661
82	0xbd778056	-0.060425125
83	0xbe0393c5	-0.12849338
84	0xbc72f332	-0.01482849
85	0x3d7c18fb	0.06154726
86	0xba9dd604	-0.0012041931
87	0xbd9d9722	-0.07694842
88	0xbc60121d	-0.013676194
89	0x3d42335c	0.04741226
90	0x3d45323e	0.048143618
91	0xbc4d37b3	-0.012525487
92	0xbc6f79e8	-0.014616467
93	0x3db7edfc	0.08980939
94	0x3ce19e60	0.02754134
95	0xbc167330	-0.009182736
96	0xbd9a6686	-0.07539086
97	0x3d85d732	0.06535186
98	0xbd80fb29	-0.06297905
99	0xbaafeb2d	-0.0013421528
100	0x3d34e435	0.044162948
101	0x3b633aae	0.0034672427
102	0xbd7fc956	-0.06244787
103	0x3cd5400b	0.026031515
104	0x3d4a1928	0.049340397
105	0x3d54bcac	0.051937744
106	0x3c6e2809	0.014535912
107	0xbc071930	-0.008245751
108	0xbdd6c46a	-0.10486682
109	0xbdab7f50	-0.08373892
110	0xbd7705d2	-0.060308285
111	0xbbbb40b8	-0.005714502
112	0x3d14389d	0.036186803
113	0xbe04f648	-0.12984574
114	0xbdc181a0	-0.09448552
115	0x3b95fa03	0.004576923
116	0x3de9d45a	0.11417456
117	0x3cbc0fcd	0.022956753
118	0xbc61398a	-0.013746629
119	0x3d8ade89	0.067807265
120	0xbdfa87d6	-0.1223294
121	0x3cec26cc	0.028827094
122	0x3c5dea84	0.013544682
123	0x3de28b52	0.110617295
124	0xbdb55bf5	-0.0885543
125	0xbda880d8	-0.082277
126	0xbe10bf98	-0.14135587
127	0xbc4e6a1d	-0.012598542
128	0xbdeee4fc	-0.11664769
129	0xbd261c1a	-0.040554143
130	0x3d24b8c4	0.04021527
131	0x3cda163e	0.026621934
132	0xbdb9e5c1	-0.09077025
133	0xbbb3785b	-0.005476994
134	0xbd698e22	-0.057020314
135	0x3d1fa4b7	0.038975444
136	0x3d0a6a55	0.033792812
137	0x3cf5c5a6	0.030001473
138	0xbd03e354	-0.03219922
139	0x3deece2a	0.116604164
140	0x3d82775f	0.063704245
141	0x3c144667	0.009049988
142	0xbcc7dee8	-0.024398282
143	0xbbd123e1	-0.006382451
144	0x3e07b666	0.13253173
145	0x3ca7d405	0.020486841
146	0xbacfa8f2	-0.0015843196
147	0x3d0c940b	0.034320872
148	0x3e1b5d05	0.15172203
149	0x3d6d207e	0.057892315
150	0x3e3dd631	0.18538739
151	0x3ca21020	0.01978308
152	0xbd1347c1	-0.0359571
153	0x3d2b105f	0.04176366
154	0x3c99d9e1	0.01878065
155	0xbd585e78	-0.052824467
156	0x3dabb4d4	0.083840996
157	0xbb0c2c35	-0.0021388654
158	0xbd4f4270	-0.05060047
159	0xbd3a274f	-0.045447644
160	0xbd614d5a	-0.05500541
161	0xbd8582d7	-0.06519096
162	0xbd652379	-0.055942032
163	0xbe1112fa	-0.14167395
164	0xbcc8f787	-0.024532093
165	0xbde43b98	-0.11144179
166	0x3af38bab	0.0018581053
167	0x3d75cdf2	0.060010858
168	0xbd1ce304	-0.038302436
169	0xbc894116	-0.016754668
170	0x3ca2e26f	0.019883363
171	0x3c86242e	0.016374674
172	0x3dc0c0ff	0.09411811
173	0x3d314bc9	0.043285165
174	0x3c9ec8fa	0.019382942
175	0xbcd070a1	-0.02544433
176	0xbcc4c8d3	-0.024021542
177	0x3da2da52	0.079517975
178	0x3caff412	0.021478686
179	0xbd522425	-0.051304
180	0xbc3021db	-0.010750259
181	0x3dab5ad2	0.08366932
182	0x3dce2311	0.10065282
183	0xbd083eb7	-0.033262935
184	0xbd512f8a	-0.051070727
185	0x3b27a59b	0.0025580886
186	0x3d8e3ebe	0.06945561
187	0xba4eeba4	-0.00078933896
188	0x3b2d3df1	0.0026434625
189	0x3d95eacf	0.07320177
190	0x3d0138c2	0.03154827
191	0xbdda4e0e	-0.10659419
192	0x3d2ddd1f	0.042447206
193	0xbd68dc86	-0.056850933
194	0xbc9b8c81	-0.018987896
195	0xbc98348c	-0.018579744
196	0x3ccd6160	0.025070846
197	0x3d2fe1e6	0.042940043
198	0xbdb0fbb6	-0.0864176
199	0x3c8252f7	0.015908701
200	0xbdabedf1	-0.08394993
201	0xbc9c0d89	-0.019049423
202	0x3bd45661	0.0064800237
203	0x3da963e8	0.08271009
204	0x3d2c64cf	0.042088326
205	0xbbd3e1b1	-0.0064661135
206	0xbc4cda6e	-0.01250325
207	0xbb10a072	-0.002206829
208	0xbc6e372f	-0.014539524
209	0x3d5bce8e	0.053663783
210	0x3d2dc1e9	0.042421255
211	0x3d1fb5da	0.038991787
212	0x3d41938b	0.04725985
213	0x3da25243	0.079258464
214	0x3cb35aa3	0.021893805
215	0xbc6814c5	-0.014165108
216	0x3c2e8a7d	0.010653135
217	0x3dc36cdb	0.09542247
218	0xbd898d66	-0.06716423
219	0x3e4f1e00	0.20226288
220	0xbbeefbc2	-0.0072931955
221	0xbdd0b588	-0.10190874
222	0x3e29cfcb	0.16583173
223	0x3e13f714	0.14449722
224	0x3d358ad4	0.04432185
225	0xbc63c16f	-0.013901099
226	0xbd384761	-0.044989947
227	0xbccda61e	-0.025103625
228	0x3d2b7892	0.04186303
229	0x3cb879e9	0.022519069
230	0x3c04735c	0.008084144
231	0xbc989481	-0.0186255
232	0x3bd584c5	0.0065160715
233	0x3d5f1cc9	0.05447081
234	0xbdf3f59d	-0.119120814
235	0xbc8a82de	-0.016908105
236	0xbe0c39a2	-0.1369386
237	0xbd39f440	-0.04539895
238	0xbd05b101	-0.032639507
239	0xbd1dc0ee	-0.03851407
240	0xbe2a4042	-0.16626075
241	0x3dbc8915	0.09205834
242	0x3dc793ce	0.097449884
243	0x3dd0649a	0.10175438
244	0xbd51b6aa	-0.051199593
245	0xbce5464b	-0.02798762
246	0xbdcc2a5c	-0.09969017
247	0x3e13b677	0.14425074
248	0x3de343a9	0.110968895
249	0x3d8bafb1	0.0682062
250	0x3e044a4c	0.12918967
251	0x3d6eaebd	0.058272112
252	0xbd6979b0	-0.057000816
253	0x3be644f3	0.0070272624
254	0x3dd8a4a1	0.105782755
255	0xbdf4da64	-0.11955717

fc1.bias f4 [64]
0	0xbc23844c	-0.0099802725
1	0x3d0e305d	0.03471409
2	0x3d7abfd1	0.061218087
3	0x3c0f33ab	0.008740346
4	0x3d1a9aea	0.037745394
5	0x3ca9726b	0.020684442
6	0x3d8e5626	0.06950025
7	0xbbb8ff57	-0.0056456733
8	0x3cfae847	0.030628337
9	0x3db26bf8	0.08712
10	0x3d15b19d	0.03654634
11	0x3c080ba0	0.008303553
12	0xbd54beac	-0.05193965
13	0xbd308f4a	-0.0431054
14	0x3e087256	0.13324866
15	0xbd9c5add	-0.07634518
16	0x3d3eca5e	0.04657971
17	0xbd2b7262	-0.04185713
18	0xba059e2e	-0.0005097118
19	0x3c80b521	0.015711369
20	0xbdbeddeb	-0.09319671
21	0xbd81f668	-0.063458264
22	0x3d454cac	0.048168823
23	0xbbc073df	-0.005873188
24	0x3dc636b6	0.09678404
25	0x3d857bce	0.065177545
26	0xbd59b527	-0.053151276
27	0x3dcec4c6	0.10096125
28	0x3d825682	0.06364156
29	0x3d6bc541	0.057561163
30	0x3d5c3844	0.053764597
31	0x3db2e566	0.087351605
32	0x3d05fee2	0.03271378
33	0xbd39d43d	-0.04536842
34	0xbd028b7e	-0.03187131
35	0x3d4dcafb	0.050242405
36	0x3d1af876	0.037834607
37	0xbc875088	-0.016517892
38	0x3d8526ed	0.06501565
39	0xbd3a4db6	-0.045484267
40	0xbcb8bd91	-0.02255133
41	0xbd75f6eb	-0.060049932
42	0x3d74ed3e	0.059796564
43	0x3c485993	0.012228387
44	0xbaa57f7e	-0.0012626497
45	0x3dde6802	0.10859682
46	0x3c8e3989	0.01736142
47	0x3dc502db	0.09619685
48	0xbc81d4b2	-0.015848491
49	0x3ca9fdec	0.020750962
50	0x3b9f3351	0.0048584123
51	0xbd179207	-0.037004497
52	0x3cf66ea4	0.030082054
53	0x3dbfa01f	0.093567125
54	0x3da77f2b	0.08178552
55	0x3da4e59c	0.08051607
56	0xbd841a80	-0.06450367
57	0x3cf6f518	0.030146167
58	0x3cca9592	0.024729524
59	0xbd90e4e5	-0.07074908
60	0x3dd74472	0.10511102
61	0x3b99409e	0.0046768924
62	0x3d943eb3	0.072385214
63	0x3c404f9f	0.011737733

fc2.weight f4 [32, 64]
0	0xbd82baaf	-0.06383263
1	0xbcda90c3	-0.026680356
2	0xbdd7af19	-0.10531444
3	0x3c29cee3	0.010364267
4	0x3e059889	0.13046469
5	0x3e37ca2a	0.17948213
6	0x3e1e85d5	0.1548074
7	0xbc8ce0e3	-0.017197078
8	0x3d914c72	0.07094659
9	0xbd90b5cf	-0.07065927
10	0x3e39719a	0.18109742
11	0xbd867da2	-0.06566931
12	0xbde99407	-0.11405187
13	0x3d7d572c	0.06185071
14	0xbba3e26d	-0.0050013573
15	0xbca12696	-0.01967172
16	0xbdc5e3ba	-0.09662576
17	0xbe04781b	-0.12936442
18	0x3e197d46	0.14989194
19	0x3dbe03c4	0.09278062
20	0x3dac77d2	0.084212914
21	0xbd592088	-0.05300954
22	0x3d77266f	0.060339388
23	0x3cc151e2	0.023598615
24	0x3e24b3b5	0.16084178
25	0x3e046b9d	0.12931676
26	0x3d62cb97	0.05536994
27	0xbdd6bd5f	-0.104853384
28	0x3dc398f1	0.09550656
29	0xbd75ad93	-0.059979986
30	0xbdafc1d4	-0.08581892
31	0x3e34c795	0.1765426
32	0xbda8c973	-0.082415484
33	0xbcf88dbd	-0.030341024
34	0xbd9d161e	-0.07670234
35	0x3d668c04	0.056285873
36	0x3d1954dc	0.037434444
37	0x3d61b016	0.05509957
38	0x3dc45546	0.09586577
39	0xbd977324	-0.07395008
40	0xbd317314	-0.043322638
41	0x3c64b614	0.013959426
42	0x3e03f144	0.12885004
43	0x3e803f2b	0.25048193
44	0xbe6e20d5	-0.23254712
45	0x3bf20a1f	0.0073864604
46	0x3e00e0f4	0.12585813
47	0xbb2c665b	-0.0026306126
48	0xbd3bd836	-0.04586049
49	0x3e2e0c26	0.16996822
50	0xbe1d7a24	-0.15378624
51	0xbd0f033e	-0.0349152
52	0xbdb63b14	-0.08897987
53	0xbca16c5f	-0.019704996
54	0x3e838369	0.25686195
55	0x3bcd81c3	0.0062715723
56	0xbdef0df4	-0.11672583
57	0xbdb9d765	-0.09074286
58	0x3e6f2b67	0.233564
59	0x3e07f70f	0.13277839
60	0xbcad4859	-0.021152662
61	0xbce3cb4b	-0.027806899
62	0x3de49b3c	0.11162421
63	0x3c83aa06	0.016072284
64	0xbd64e4f7	-0.05588242
65	0xbdcfa360	-0.10138583
66	0xbdd6bb23	-0.10484912
67	0x3e12401f	0.14282273
68	0x3e116538	0.14198768
69	0x3e1c287c	0.15249819
70	0xbd0d5c5c	-0.03451191
71	0x3e1782a5	0.1479593
72	0x3e46dcad	0.19420119
73	0x3e373b85	0.17893799
74	0x3d864a54	0.06557146
75	0x3e2bf046	0.16790876
76	0xbdcdee89	-0.100552626
77	0x3d6eb7e8	0.058280855
78	0xbc54a9dc	-0.012979951
79	0x3d0df31d	0.03465568
80	0x3cd7ff2d	0.026366794
81	0xbb10c538	-0.0022090208
82	0x3d83af47	0.06429916
83	0x3dd025a4	0.101634294
84	0x3df9e53a	0.122019246
85	0x3cf3ce5a	0.029761482
86	0x3df4f6e2	0.11961152
87	0xbdf8518b	-0.12124928
88	0xbe1c92f8	-0.15290439
89	0x3dedfbf6	0.11620323
90	0xbccd6984	-0.025074728
91	0x3cb5e9f6	0.022206288
92	0xbb0e9b60	-0.0021760091
93	0xbd7dbb7b	-0.061946373
94	0x3d94c814	0.072647244
95	0xbd1565ae	-0.036473922
96	0xbca51046	-0.020149361
97	0xbd1db246	-0.038500093
98	0x3d189d00	0.037259102
99	0x3e1c39d7	0.15256439
100	0x3d103cb4	0.03521414
101	0xbd9fea33	-0.07808342
102	0x3dd68c45	0.10475973
103	0x3e0ba7a8	0.13638175
104	0xbd9f1682	-0.07767965
105	0xbdf610cb	-0.12014922
106	0xbdca960d	-0.09891901
107	0x3d1f87e1	0.038947944
108	0xbd9c6384	-0.076361686
109	0xbde9bbb5	-0.114127554
110	0xbdf27b32	-0.11839904
111	0xbd733cdd	-0.059384216
112	0x3e4bf537	0.19917761
113	0x3da0a5b7	0.078441076
114	0x3d911cfd	0.07085607
115	0x3db6ac99	0.08919639
116	0x3e99957f	0.2999687
117	0x3de05665	0.109539784
118	0x3de3be3e	0.1112027
119	0x3e1fe122	0.15613225
120	0xbe0012a3	-0.1250711
121	0xbd9a9c26	-0.07549314
122	0x3e2f398b	0.17111795
123	0xbdedd0b4	-0.116120726
124	0x3e30ef0e	0.17278692
125	0x3d7c8180	0.06164694
126	0x3e05f876	0.13083062
127	0x3df87fec	0.12133774
128	0x3d467f8b	0.04846148
129	0x3e1d4228	0.15357268
130	0x3e13a47e	0.14418218
131	0x3d020c6a	0.03175012
132	0x3dad4a98	0.08461493
133	0x3d85b330	0.06528318
134	0x3da53903	0.08067515
135	0xbdb256e5	-0.0870798
136	0x3e1db71c	0.15401882
137	0x3e32aa4a	0.17447773
138	0xbd87e43f	-0.06635331
139	0x3d861e1f	0.06548714
140	0x3d85863b	0.06519743
141	0xbdd58428	-0.104255974
142	0x3e32d326	0.17463359
143	0xbd19c53d	-0.037541617
144	0x3e0a0221	0.13477375
145	0x3e1cd20b	0.153145
146	0x3d4911b4	0.04908915
147	0x3dbf713d	0.0934777
148	0xbd78b4d8	-0.06071934
149	0x3dafd164	0.0858486
150	0x3dc3f53c	0.09568259
151	0x3db8e435	0.09027902
152	0xbdc3b78b	-0.095564924
153	0x3dce0a1a	0.100605205
154	0x3a348387	0.0006886054
155	0x3dc6370d	0.09678469
156	0x3ea1a29b	0.3156937
157	0x3e21701d	0.15765424
158	0x3e03e57d	0.12880512
159	0xbe1adb2c	-0.1512267
160	0xbcac2d97	-0.021017833
161	0xbda32d37	-0.079676084
162	0x3df27431	0.11838568
163	0x3cc4a927	0.02400644
164	0xbe195c6d	-0.14976664
165	0x3dcf0da5	0.10110024
166	0x3c7bd821	0.015371353
167	0x3beffd07	0.0073238644
168	0xbde8de94	-0.113705784
169	0xbb0f7311	-0.0021888653
170	0x3db8ad59	0.090174384
171	0x3e1d6c62	0.15373376
172	0xbe7c5b54	-0.24644214
173	0x3ddbcda8	0.10732585
174	0xbe24061c	-0.16017956
175	0x3dae133b	0.08499762
176	0x3d83614b	0.064150415
177	0x3d45c3e0	0.048282504
178	0x3d81f502	0.0634556
179	0xbce2899f	-0.027653513
180	0x3e23aebd	0.15984626
181	0xbe8165a2	-0.25272852
182	0x3df4f46c	0.11960682
183	0xbddfa132	-0.109194174
184	0x3d514f09	0.051100764
185	0xbd376814	-0.04477699
186	0xbd8eab2b	-0.069662414
187	0x3eb1af71	0.34704164
188	0x3e1e99f4	0.15488416
189	0x3b61aed0	0.0034436472
190	0x3dbb7a00	0.09154129
191	0xbe0e2894	-0.13882667
192	0x3d4f0cb6	0.05054923
193	0xbd80dcde	-0.06292127
194	0xbdda8c48	-0.10671288
195	0x3c553c70	0.013014898
196	0xbdfc9a3d	-0.12334106
197	0xbcf66d9e	-0.030081566
198	0xbd8b4184	-0.067996055
199	0x3d8c1148	0.06839234
200	0xbe044514	-0.12916976
201	0x3d4738b6	0.04863807
202	0x3dae465e	0.08509515
203	0xbd272a0d	-0.040811587
204	0x3dc538e2	0.0962999
205	0xbe011993	-0.12607412
206	0x3cddb290	0.027062684
207	0x3d41dea6	0.047331475
208	0xbe0a8c87	-0.1353017
209	0xbd9177c1	-0.07102919
210	0x3c56a7a8	0.013101496
211	0x3d6610c8	0.056168348
212	0x3dff0dd2	0.12453808
213	0xbd21c388	-0.039493114
214	0xbded9f50	-0.11602652
215	0xbdea8c5e	-0.11452554
216	0xbe153003	-0.14569096
217	0xbdce6af3	-0.10078993
218	0x3def98b2	0.11699046
219	0xbd49ea4d	-0.049295712
220	0xbddf3e0e	-0.10900508
221	0x3de76f60	0.1130054
222	0x3d64ade4	0.055829898
223	0x3d53ec25	0.051738877
224	0x3cb04cf1	0.021521064
225	0x3d9c4d86	0.07631974
226	0x3d8642c4	0.06555703
227	0xbd863b63	-0.06554296
228	0x3d9de893	0.07710376
229	0xbde28edc	-0.110624045
230	0x3da3858e	0.07984458
231	0xbceacefb	-0.02866315
232	0xbdd01af1	-0.10161389
233	0x3dcf3d9c	0.10119173
234	0x3d2d51e3	0.04231442
235	0xbcc378bf	-0.023861287
236	0x3d46e054	0.04855378
237	0xbd47643b	-0.04867957
238	0xbd55726a	-0.052111067
239	0xbdcaca3e	-0.09901856
240	0xbdd85354	-0.105627686
241	0xbdc9a500	-0.098459244
242	0x3ce16b29	0.027516918
243	0x3df465de	0.11933492
244	0x3a85c561	0.0010205918
245	0x3d88e828	0.06684905
246	0x3d7d68a8	0.061867386
247	0x3cf36cb1	0.029714914
248	0xbde76db0	-0.11300218
249	0xbd8cb85f	-0.068711035
250	0x3d0340ad	0.0320441
251	0xbd183fa2	-0.03717006
252	0x3d8ae513	0.06781974
253	0x3cbf5c4f	0.023359446
254	0xbc089b69	-0.008337834
255	0x3c445936	0.01198416

fc2.bias f4 [32]
0	0x3e29aeb0	0.16570544
1	0xbd014b0b	-0.031565707
2	0xbd0266ad	-0.0318362
3	0xbdb65301	-0.089025505
4	0xbd811d18	-0.06304377
5	0x3c9794ee	0.018503632
6	0xbdcadf16	-0.099058315
7	0x3e310400	0.17286682
8	0xbda70dd2	-0.08156933
9	0x3e040623	0.12892966
10	0x3d469965	0.048486132
11	0xbdbe7c76	-0.09301083
12	0x3de78db9	0.11306328
13	0x3df80082	0.12109472
14	0x3e40e32f	0.18836664
15	0xbdc787ed	-0.09742723
16	0xbdbe1e63	-0.092831396
17	0xbc418415	-0.011811276
18	0x3db9c02a	0.090698555
19	0x3da44a01	0.080219276
20	0x3defd478	0.11710447
21	0xbd82d3c7	-0.063880496
22	0xbc9360c8	-0.017990485
23	0x3bcbe70b	0.006222611
24	0xbe03ec30	-0.12883067
25	0x3e08939c	0.13337559
26	0x3d3135a1	0.043264035
27	0xbd74b561	-0.05974329
28	0xbd9f4f53	-0.07778802
29	0x3c0e0e66	0.008670425
30	0x3df700f3	0.12060728
31	0xbd3ebf40	-0.04656911

fc3.weight f4 [10, 32]
0	0x3d439f3c	0.04775928
1	0xbd6588a5	-0.056038518
2	0x3e4900ac	0.19629163
3	0xbbae7e66	-0.0053251265
4	0xbd8782fa	-0.06616779
5	0xbe294dce	-0.16533586
6	0xbe098455	-0.13429387
7	0x3e16ebec	0.14738435
8	0xbe4f6993	-0.20255117
9	0xbe29253c	-0.1651811
10	0x3cb0bace	0.02157345
11	0xbe3782c5	-0.17920978
12	0x3e8a979c	0.27068794
13	0x3db32849	0.08747918
14	0x3e02c8bd	0.12771888
15	0xbe10aca6	-0.1412836
16	0xbb18af85	-0.0023297977
17	0x3dde4ad3	0.10854115
18	0xbe605147	-0.21906005
19	0x3e65b5c8	0.22432625
20	0x3c8d1913	0.01722387
21	0xbe03cc9b	-0.1287102
22	0x3d941de2	0.07232262
23	0x3e13d055	0.14434941
24	0xbe64546e	-0.22297832
25	0xbe0ac5c8	-0.1355201
26	0x3e549a2d	0.20761938
27	0xbdcd6653	-0.100292824
28	0x3e0e04eb	0.13869064
29	0xbe2dad46	-0.1696063
30	0xbe4757be	-0.19467065
31	0xbdfaa63f	-0.1223874
32	0x3e324b43	0.17411523
33	0x3e3f6b79	0.18693341
34	0x3e7d7d31	0.24754788
35	0x3dca192d	0.09868083
36	0xbbd0c1cf	-0.00637076
37	0xbd1260d6	-0.03573688
38	0x3e0f42c7	0.13990317
39	0x3e0d4244	0.1379481
40	0xbd2e65e5	-0.042577643
41	0xbdce2b23	-0.100668214
42	0xbdc9aea4	-0.09847763
43	0xbd1fbbe6	-0.038997553
44	0xbe7099be	-0.23496148
45	0xbe723b00	-0.23655319
46	0x3e45f0e0	0.19330168
47	0xbd067465	-0.032825846
48	0x3e0a1632	0.1348503
49	0xbe594311	-0.2121699
50	0x3e3b459a	0.1828827
51	0xbe01b633	-0.1266716
52	0x3e250b15	0.16117509
53	0xbe09655f	-0.13417576
54	0xbd9122cc	-0.07086715
55	0x3e85ae0e	0.26109356
56	0xbe0a27e1	-0.13491775
57	0xbdb30e84	-0.08743003
58	0xbdec71e1	-0.11545158
59	0xbdcd1d00	-0.10015297
60	0xbe6f059f	-0.23341988
61	0xbe487a26	-0.19577846
62	0x3cfb9b57	0.03071372
63	0x3d957353	0.07297387
64	0xbd94b459	-0.07260961
65	0x3d891abd	0.06694553
66	0x3e67ebe6	0.22648582
67	0x3d5e4bbc	0.054271445
68	0xbe16983e	-0.14706513
69	0xbe252f0f	-0.16131233
70	0x3d5f023b	0.054445487
71	0x3ca06699	0.019580172
72	0xbcfcb371	-0.030847283
73	0x3e7abeea	0.2448689
74	0xbe33e18e	-0.17566511
75	0x3e7c6faa	0.24651971
76	0x3d95a25d	0.07306359
77	0xbdc14190	-0.09436333
78	0x3e4d793b	0.20065777
79	0xbdfa4628	-0.122204125
80	0xbd8daec4	-0.069180995
81	0x3d8a978a	0.06767185
82	0xbe6b469b	-0.22976153
83	0xbe80046c	-0.25003374
84	0xbe4d2e18	-0.20037115
85	0x3ce42f2f	0.02785453
86	0xbd913292	-0.07089724
87	0xbe2150af	-0.15753435
88	0x3ce97a4f	0.028500704
89	0x3d4de93c	0.050271258
90	0x3e510683	0.2041264
91	0xbc0c48ae	-0.00856225
92	0xbd844c05	-0.06459812
93	0x3e092a97	0.13395153
94	0xbe57cb13	-0.2107356
95	0x3e1ac690	0.15114808
96	0xbdcf5930	-0.10124433
97	0x3d86848c	0.0656825
98	0xbe2ecf23	-0.17071204
99	0xbe02ba6f	-0.12766431
100	0xbe002f09	-0.12517942
101	0x3ccbb2f6	0.024865609
102	0x3e024153	0.12720232
103	0xbc5ee568	-0.013604499
104	0xbde592e6	-0.11209659
105	0x3dc4a2d4	0.096013695
106	0xbd9448b1	-0.07240427
107	0xbd121187	-0.035661247
108	0xbe45c2d2	-0.193126
109	0x3e834713	0.25640163
110	0x3e3482da	0.17628041
111	0x3b9a3e77	0.0047071534
112	0xbc80620b	-0.01567175
113	0xbd40411c	-0.046937093
114	0xbe94596f	-0.28974482
115	0x3de0a40a	0.10968788
116	0x3be79592	0.0070673907
117	0x3e0ee305	0.13953789
118	0xbdb3262d	-0.08747516
119	0xbe1c0cb4	-0.15239221
120	0x3d59fc0c	0.053218886
121	0xbe8b6241	-0.272234
122	0xbe0d9e2e	-0.13829872
123	0xbd47167b	-0.048605423
124	0xbcdcbb32	-0.02694473
125	0xbd13db3c	-0.03609775
126	0x3dc58ad6	0.096456215
127	0x3e5c7c2f	0.21531747
128	0x3ea00a65	0.3125793
129	0x3c75335d	0.014965859
130	0x3d7f8ca7	0.062389996
131	0x3d9ed36f	0.077551715
132	0xbd473d9c	-0.04864274
133	0xbe32c3d3	-0.17457514
134	0x3d2f6dee	0.042829446
135	0x3e2d9e92	0.16955021
136	0xbd80e3a8	-0.06293422
137	0x3e44af1b	0.19207422
138	0xbd1f1436	-0.038837634
139	0x3e3a9f1b	0.18224756
140	0x3c9854a2	0.018595044
141	0xbdc6331c	-0.09677717
142	0xbd832bca	-0.064048365
143	0xbcf92ce2	-0.03041691
144	0x3c120c68	0.008914091
145	0xbe0999d8	-0.13437593
146	0xbde35677	-0.11100476
147	0x3e086612	0.13320187
148	0xbd881628	-0.06644851
149	0xbe379abf	-0.17930125
150	0x3de1a4fa	0.11017795
151	0xbe777e91	-0.24169375
152	0xbeaf7170	-0.34266233
153	0x3e24030b	0.16016786
154	0xbdb84a1e	-0.08998512
155	0xbd2ce5af	-0.04221123
156	0x3e343da5	0.1760164
157	0xbdccc5d6	-0.09998672
158	0x3e4187ba	0.18899432
159	0xbd77be9c	-0.060484514
160	0x3dc140fc	0.09436223
161	0xbce445c2	-0.027865294
162	0xbe0d6590	-0.13808274
163	0xbddb50d0	-0.10708773
164	0x3e136096	0.14392313
165	0xbb54a4cf	-0.0032446866
166	0xbacc863c	-0.001560397
167	0xbd20722e	-0.03917139
168	0xbde404cb	-0.11133727
169	0xbd603fc8	-0.054748327
170	0xbe250e67	-0.16118775
171	0xba01ec35	-0.0004956157
172	0xbe6f9dad	-0.23399992
173	0x3e35b10f	0.17743324
174	0xbd8e3612	-0.06943907
175	0x3dede550	0.116160035
176	0x3e5f13fc	0.21784967
177	0xbe24e931	-0.1610458
178	0x3e0e2187	0.13879977
179	0x3d053ebb	0.032530528
180	0x3e5c091e	0.21487853
181	0x3c3dea2d	0.011591476
182	0x3e2b12f3	0.16706447
183	0xbdc9cc12	-0.098533764
184	0xbd9a0871	-0.07521141
185	0xbdbbfe73	-0.09179392
186	0x3e04ad78	0.12956798
187	0xbe2eefe8	-0.17083704
188	0x3d229b0a	0.039698638
189	0x3d278c31	0.04090518
190	0xbe1b33b5	-0.15156443
191	0x3d022d35	0.031781394
192	0xbe9c3268	-0.30507207
193	0xbdfe49dc	-0.12416431
194	0x3da67fd5	0.08129851
195	0xbc8017ba	-0.015636314
196	0xbe268de9	-0.16265072
197	0x3e256e2e	0.16155311
198	0x3d3827cc	0.04495983
199	0x3e10182d	0.14071722
200	0x3d903934	0.07042161
201	0x3ddf7109	0.109102316
202	0xbd297cf0	-0.041378915
203	0xbe56ec06	-0.20988473
204	0x3daf879f	0.085707895
205	0xbd30d5be	-0.04317259
206	0xbc97f37d	-0.018548721
207	0xbe079880	-0.13241768
208	0x3b7652e6	0.0037586032
209	0xbe7dfd2d	-0.2480361
210	0x3e055ada	0.13022938
211	0x3e7a3146	0.24432859
212	0xbe0e2c6e	-0.13884136
213	0x3d9471d2	0.07248272
214	0x3e89f2dc	0.269431
215	0xbe54e47b	-0.20790283
216	0xbe15c919	-0.14627494
217	0x3e2a6fcb	0.16644208
218	0x3ddffa5c	0.10936424
219	0xbc907f73	-0.017638898
220	0x3e337285	0.17524154
221	0x3ca9f49d	0.020746524
222	0xbe8fd82c	-0.28094614
223	0x3e23917f	0.15973471
224	0x3d37a855	0.04483827
225	0x3e3c4a20	0.18387651
226	0xbb158a30	-0.0022817962
227	0xbe019e24	-0.12657982
228	0xbe162c81	-0.14665414
229	0xbca5e727	-0.020251824
230	0xbd109c8d	-0.03530555
231	0xbe20da6d	-0.15708323
232	0x3ac94414	0.0015355372
233	0xbdd935b6	-0.10605948
234	0xbd263181	-0.040574554
235	0x3d82f288	0.063939154
236	0x3d321cce	0.0434845
237	0xbe2fb714	-0.17159683
238	0xbdd3522f	-0.1031841
239	0x3dd7d287	0.10538202
240	0x3e61eb9d	0.22062536
241	0x3e50e9c6	0.20401677
242	0xbdde5bee	-0.10857378
243	0x3e2a2943	0.16617303
244	0xbe1bf0ba	-0.15228549
245	0x3e2d3d61	0.16917945
246	0xbdb678ed	-0.089097835
247	0x3e072c92	0.13200596
248	0xbc2f8af9	-0.010714286
249	0xbe036186	-0.12830171
250	0x3d282413	0.041050028
251	0xbe17900f	-0.14801048
252	0xbe1457b2	-0.14486578
253	0x3dfdee6f	0.12398993
254	0x3e7542d0	0.23951268
255	0xbd2a26bd	-0.04154085

fc3.bias f4 [10]
0	0x3cf9f200	0.030510902
1	0xbd706551	-0.058690373
2	0x3e1eb7d7	0.15499817
3	0x3e4de96f	0.20108579
4	0xb9319b8e	-0.00016937984
5	0xbd47b3b7	-0.048755374
6	0x3e242a27	0.16031705
7	0xbc0b6730	-0.008508489
8	0xbe24f996	-0.16110834
9	0x3d97ea51	0.07417739
